code/trained_model/metatransferpinn_innerstep20.pth (torch, 519355 bytes, 14 tensors)

layer1.0.layer.weight f4 [256, 3]
0	0x3e74e576	0.23915657
1	0xbd09771c	-0.033560857
2	0xbc9a5bce	-0.018842604
3	0x3c954858	0.018222973
4	0x3d6d2b63	0.057902705
5	0xbd4070d6	-0.04698261
6	0xbe2f5a01	-0.17124178
7	0x3e09b743	0.13448815
8	0xbc831fa4	-0.016006298
9	0x3ee4a95f	0.4466047
10	0xbf013b68	-0.5048127
11	0xbf146126	-0.57960737
12	0x3e2f7446	0.17134199
13	0x3c67731f	0.014126568
14	0xbe17c66c	-0.14821786
15	0x3e0d6fc2	0.13812163
16	0xbe93e373	-0.28884467
17	0xbe8f0216	-0.2793128
18	0xbc308087	-0.010772831
19	0xbccf0dea	-0.02527519
20	0xbb456e36	-0.0030125505
21	0x3f0abf14	0.5419781
22	0x3df5b783	0.11997893
23	0xbed01d9e	-0.40647596
24	0xbf59d0eb	-0.8508441
25	0xbf0c171b	-0.54722756
26	0xbe9fd53d	-0.31217375
27	0xbee32738	-0.4436586
28	0xbf09bd3e	-0.53804386
29	0x3f073827	0.52820057
30	0x3e9aead5	0.30257288
31	0x3f48bcc2	0.7841302
32	0x3ef9b120	0.48767948
33	0xbed52955	-0.41633096
34	0x3d3b823b	0.045778494
35	0x3e2ae8c3	0.16690354
36	0xbee84ebe	-0.45372576
37	0xbeaf41ec	-0.34229982
38	0xbf222188	-0.63332415
39	0x3f137d2a	0.5761286
40	0x3ee10aec	0.43953645
41	0x3f046e1c	0.51730514
42	0x3ea02c2b	0.31283697
43	0x3cf2366a	0.029566962
44	0xbeaaee13	-0.3338476
45	0xbe6b9628	-0.23006499
46	0xbdf8e847	-0.121536784
47	0x3e7774cc	0.24165648
48	0x3e995c3c	0.29953182
49	0xbd8d6c89	-0.06905467
50	0xbe5161c4	-0.20447451
51	0xbebca174	-0.3684193
52	0x3e207b5b	0.15672056
53	0x3f0f937e	0.5608443
54	0x3d8d45a9	0.06898052
55	0x3d86fd6d	0.06591306
56	0xbd8a5c3c	-0.067558736
57	0xbf2f47fc	-0.68469214
58	0xbd911651	-0.07084335
59	0xbf011838	-0.5042758
60	0x3f099d8e	0.53756034
61	0x3f328674	0.6973641
62	0x3f0a46ca	0.54014266
63	0x3dacf8d7	0.084459
64	0xbdb616e2	-0.08891083
65	0xbe243774	-0.16036779
66	0xbde8f71b	-0.11375257
67	0xbebb37ea	-0.36566097
68	0x3dba4039	0.09094281
69	0x3f346099	0.70459896
70	0x3dd99e4e	0.10625897
71	0x3f18a0f7	0.5962061
72	0xbdb94b9e	-0.09047626
73	0x3e77d158	0.24200952
74	0x3e75c778	0.24001873
75	0xbb5e8b03	-0.003395737
76	0xbd10608b	-0.03524832
77	0xbdb80ba0	-0.08986592
78	0x3f27e7a1	0.6558781
79	0x3ebc92b6	0.36830682
80	0x3ef5a7e7	0.47979662
81	0xbc931fa9	-0.017959433
82	0xbe089918	-0.1333965
83	0x3d6b5c87	0.057461288
84	0xbe269c12	-0.16270474
85	0xbe64e4a1	-0.2235284
86	0xbd090003	-0.033447277
87	0x3eef2bb8	0.46713042
88	0x3d052213	0.0325032
89	0xbefe88bd	-0.49713698
90	0x3f1482ff	0.58012384
91	0x3da4ef8d	0.08053503
92	0xbead0887	-0.33795568
93	0xbf6557b1	-0.8958693
94	0xbdde2c87	-0.10848337
95	0xbec1f74e	-0.3788399
96	0x3e7693c7	0.2407981
97	0x3ecc65e0	0.39921474
98	0xbeb10a83	-0.34578332
99	0xbeacde6b	-0.3376344
100	0xbeb9e2b3	-0.3630577
101	0x3e2fc0ff	0.17163466
102	0x3ea4751b	0.32120594
103	0x3e9ab205	0.30213943
104	0xbeb53c47	-0.3539755
105	0x3e1e17ac	0.15438718
106	0x3ded86db	0.11597987
107	0xbe4c0fea	-0.19927946
108	0xbf0d1394	-0.55108
109	0xbf138d2f	-0.57637304
110	0xbf0a6696	-0.54062784
111	0x3db59de3	0.08868005
112	0x3d0cecc0	0.03440547
113	0xbeaa2404	-0.33230603
114	0x3d15024d	0.036379147
115	0xbdf8ff7b	-0.12158104
116	0xbd27d178	-0.04097125
117	0x3e4f3ab8	0.20237243
118	0xbe41e92a	-0.18936601
119	0xbec6762d	-0.38762036
120	0x3e728987	0.23685275
121	0x3ee2da08	0.4430697
122	0xbea1930b	-0.31557497
123	0x3f1c891a	0.611467
124	0xbe9c672f	-0.30547473
125	0x3efab819	0.4896858
126	0x3eedfd3e	0.4648227
127	0x3f232d50	0.63741016
128	0x3f10aa06	0.56509435
129	0x3eef5970	0.46747923
130	0xbd8d0172	-0.06885041
131	0x3f37406a	0.71582663
132	0xbf0b1bb5	-0.5433915
133	0xbf3c7187	-0.7361073
134	0xbe9944d3	-0.2993532
135	0xbe819cc9	-0.2531493
136	0xbe628502	-0.22121051
137	0x3e4909ae	0.19632599
138	0x3eab7578	0.3348806
139	0x3f0569a4	0.5211432
140	0x3f445387	0.7668995
141	0xbe84be2a	-0.25926334
142	0xbed35ff5	-0.41284147
143	0xbf11a713	-0.5689556
144	0xbeb977fe	-0.3622436
145	0x3eed3253	0.46327457
146	0xbf48c1ed	-0.7842091
147	0x3e88a23b	0.26686272
148	0xbea1eb29	-0.31624725
149	0xbe913e2f	-0.28367755
150	0x3e8780dd	0.26465502
151	0xbf03865a	-0.5137688
152	0xbe166b43	-0.14689355
153	0x3e8f5796	0.2799651
154	0xbce17600	-0.027522087
155	0xbec51bce	-0.38497776
156	0xbef6b58b	-0.4818538
157	0x3e73aebe	0.23797128
158	0x3f04eb8a	0.51921904
159	0x3dcde83f	0.10054063
160	0x3da665ba	0.081248716
161	0xbe23466c	-0.15944833
162	0xbf16e642	-0.58945096
163	0xbce94fe4	-0.028480478
164	0x3eb94e94	0.36192763
165	0xbf409574	-0.7522805
166	0x3d968a14	0.07350555
167	0xbe98d738	-0.298517
168	0x3f1926e0	0.59824944
169	0xbe636220	-0.222054
170	0x3f2c4345	0.67290145
171	0x3e708c8f	0.23491119
172	0xbc9d6b8b	-0.01921632
173	0x3c54fbf0	0.01299952
174	0xbf2e9e58	-0.68210363
175	0xbee76dd8	-0.45200992
176	0xbf0ad0d3	-0.5422489
177	0x3d48d2d8	0.0490292
178	0xbe13ab57	-0.1442083
179	0xbd8e5849	-0.06950433
180	0x3edfd4cc	0.4371704
181	0x3e0fbeca	0.14037624
182	0x3f352a43	0.7076761
183	0x3cccee57	0.025015993
184	0xbdd5995e	-0.10429643
185	0xbdb26523	-0.087106965
186	0x3ecfa390	0.40554476
187	0x3eec99df	0.46211144
188	0xbecc13f4	-0.39858973
189	0x3dcc7dfb	0.09984966
190	0x3e0c183c	0.1368112
191	0x3e0fbc79	0.1403674
192	0x3e7bb133	0.24579315
193	0x3e7ac65a	0.24489728
194	0xbed0c9a2	-0.40778834
195	0x3f1e76eb	0.61900204
196	0xbee63f99	-0.44970396
197	0x3f17b4f5	0.59260494
198	0xbf25c4cc	-0.64753413
199	0x3dc573f9	0.09641261
200	0xbf0e1311	-0.55497843
201	0x3f321c12	0.6957408
202	0x3f0e360c	0.5555122
203	0x3ed0e24d	0.40797654
204	0x3e86ba28	0.263139
205	0xbde9dce2	-0.11419083
206	0xbeb7a172	-0.3586536
207	0x3e89a9d1	0.26887372
208	0xbe49e051	-0.19714476
209	0xbe453149	-0.19257082
210	0xbde72855	-0.112869896
211	0x3bffe995	0.0078098276
212	0x3e937cdb	0.28806195
213	0xbea56231	-0.32301477
214	0xbd3cf79d	-0.04613458
215	0x3e1d0463	0.15333705
216	0x3f1c0b09	0.6095434
217	0x3e24f37d	0.16108508
218	0x3f12a3ae	0.57281005
219	0xbf1618ea	-0.58631766
220	0xbe8400fb	-0.25781998
221	0x3eb64cb8	0.35605407
222	0xbee44d92	-0.4459043
223	0xbec34dbc	-0.38145244
224	0x3e7b47b7	0.24539076
225	0xbf153c4c	-0.5829513
226	0xbebb1d2e	-0.365457
227	0xbf07162e	-0.5276822
228	0xbf309890	-0.6898279
229	0xbf1c251f	-0.6099414
230	0xbf0af7b8	-0.5428424
231	0x3e686778	0.2269572
232	0xbe450d26	-0.19243297
233	0xbeb63b0d	-0.35591927
234	0xbf46996a	-0.7757784
235	0xbf40e714	-0.753526
236	0xbe37336d	-0.17890711
237	0xbe90e302	-0.28298193
238	0x3d673a07	0.056451824
239	0x3e82dbec	0.25558412
240	0xbd006650	-0.031347573
241	0xbd9064fc	-0.07050511
242	0x3b044849	0.0020184687
243	0x3e2f2bca	0.17106548
244	0x3c095b07	0.008383519
245	0xbec1c9fa	-0.37849408
246	0x3ea004f0	0.31253767
247	0x3f02521e	0.5090655
248	0x3f07ca9e	0.53043544
249	0x3f2da475	0.67829067
250	0x3ef58205	0.4795076
251	0x3ed4898a	0.41511184
252	0xbf10f17a	-0.56618464
253	0xbedd381b	-0.43206868
254	0xbe02fe03	-0.1279221
255	0xbf21aebf	-0.63157266

layer1.0.layer.bias f4 [256]
0	0xbf037940	-0.5135689
1	0x3d750dad	0.059827495
2	0x3ed7a560	0.4211836
3	0x3ede89ac	0.4346441
4	0xbd5ac1e2	-0.053407557
5	0x3ee27821	0.44232276
6	0x3cbc892c	0.023014627
7	0xbeb92c10	-0.3616643
8	0x3df67a7a	0.12035079
9	0xbd0e5e11	-0.034757677
10	0x3f3e9491	0.74445444
11	0x3f12c2f9	0.57328755
12	0xbe9135e7	-0.28361437
13	0x3eb48c92	0.35263497
14	0x3d80361a	0.06260319
15	0x3c3fb1e2	0.011700125
16	0xbe605456	-0.21907172
17	0xbef71308	-0.48256707
18	0xbc8a5bdf	-0.01688951
19	0xbe2946c2	-0.16530898
20	0x3eabdd33	0.335672
21	0x3e6edf32	0.2332733
22	0x3e3ecbf2	0.18632486
23	0xbed753e6	-0.42056197
24	0xbeefa4fb	-0.46805558
25	0x3e7ab191	0.24481799
26	0x3e11c727	0.14236127
27	0xbcc4890b	-0.023991128
28	0x3f1a7dc0	0.6034813
29	0x3d2f7551	0.04283649
30	0xbf0dd1b2	-0.55398095
31	0x3e9b35b0	0.30314398
32	0x3e061e86	0.13097581
33	0x3f0c1890	0.5472498
34	0xbc9ccdd0	-0.019141108
35	0x3da0b444	0.07846883
36	0xbd92da9a	-0.07170601
37	0x3f15bb5f	0.5848903
38	0x3d55f273	0.05223317
39	0x3f067863	0.52527446
40	0x3c1bbae1	0.009505005
41	0x3f12ce4d	0.5734604
42	0x3e85650d	0.26053658
43	0x3e6d2f02	0.23162463
44	0xbf2142ab	-0.6299235
45	0x3e7017fd	0.23446651
46	0x3bbb2ac6	0.005711886
47	0xbf3de91a	-0.7418381
48	0xbf200bef	-0.6251821
49	0x3e164862	0.1467605
50	0xbe1e3ac8	-0.15452111
51	0x3e8f0102	0.27930456
52	0xbe1ad6c2	-0.15120986
53	0x3e071773	0.13192539
54	0x3efceb70	0.49398375
55	0x3f359181	0.70925146
56	0xbd4798dc	-0.048729762
57	0xbf126f2b	-0.5720088
58	0x3df81f3b	0.12115332
59	0x3dd5334b	0.10410174
60	0xbc2f6f23	-0.010707649
61	0x3e39f84b	0.18161123
62	0xbe9060e3	-0.2819892
63	0xbf29d392	-0.66338456
64	0x3ebf20f9	0.37329844
65	0x3eeb2907	0.4592974
66	0xbe5f08a6	-0.21780643
67	0x3e9ecdc4	0.31016362
68	0x3e9f0b8a	0.3106349
69	0xbe0b73bf	-0.13618372
70	0xbee30e50	-0.44346857
71	0x3ed68bc6	0.41903514
72	0xbca16b17	-0.019704385
73	0x3f0feafa	0.5621792
74	0x3f1ad8ec	0.60487247
75	0xbe6d603b	-0.2318124
76	0x3ecf3c28	0.40475583
77	0x3eca08e4	0.39459908
78	0xbdc2471a	-0.09486218
79	0x3d2fa4b6	0.04288169
80	0x3dbaa1de	0.09112905
81	0x3f042a65	0.5162719
82	0x3f23ae5c	0.63937926
83	0x3e6a2df2	0.22869089
84	0xbf593093	-0.84839743
85	0x3e4a82de	0.19776484
86	0x3ceb14f1	0.02869651
87	0x3f0fce6d	0.56174356
88	0x3db8cc43	0.09023335
89	0xbee136f9	-0.43987253
90	0x3d416b3b	0.047221404
91	0x3e481002	0.19537356
92	0xbf0e11a6	-0.5549568
93	0x3f116674	0.56796956
94	0x3f2fb582	0.68636334
95	0x3f159963	0.58437175
96	0xbe6c614c	-0.23083991
97	0xbe2aaf18	-0.16668355
98	0xbee10d56	-0.43955487
99	0x3ca0d48a	0.019632597
100	0x3f3c0c3a	0.73456156
101	0xbee1024a	-0.4394706
102	0x3f074c1e	0.5285052
103	0xbe9c065f	-0.3047361
104	0x3ce69ae0	0.028150022
105	0x3f06b7f2	0.5262443
106	0x3f1ee03c	0.62060905
107	0x3e767826	0.2406927
108	0xbdc24f6d	-0.094878055
109	0xbe5cadf6	-0.21550736
110	0xbe36f2fa	-0.17866126
111	0x3e2354fc	0.15950388
112	0xbe40dd8c	-0.18834513
113	0x3c3e8d0e	0.01163031
114	0xbf02ede5	-0.5114425
115	0xbcc6a30d	-0.02424767
116	0x3f170a9e	0.59000576
117	0x3d8681a7	0.06567698
118	0x3e903ab4	0.28169787
119	0xbf40b61c	-0.75277877
120	0x3f1e8e51	0.6193591
121	0x3f4ada6c	0.79239535
122	0x3f12fa4b	0.57413167
123	0xbdbe4f89	-0.09292514
124	0xbf0e6456	-0.5562185
125	0xbec2eebe	-0.3807277
126	0xbe8ab529	-0.2709134
127	0xbf06137d	-0.52373487
128	0x3f2534ac	0.64533496
129	0x3deb8d68	0.115015805
130	0xbe963c52	-0.29342896
131	0x3e669498	0.22517622
132	0xbef76b96	-0.4832427
133	0xbf12a1bf	-0.57278055
134	0x3eaa6615	0.33281007
135	0xbf37b65e	-0.71762645
136	0x3ee2fb2e	0.4433226
137	0x3ccf95f8	0.025340065
138	0x3ee8ac8e	0.4544415
139	0x3d894f01	0.06704522
140	0x3db8a2e9	0.09015448
141	0xbd25f9dc	-0.040521488
142	0x3eda007a	0.4257849
143	0xbe350306	-0.17676935
144	0x3e8c1d00	0.27365875
145	0x3deeacf0	0.11654079
146	0xbd9936db	-0.07481166
147	0xbe985888	-0.29755044
148	0xbdb9b545	-0.090677775
149	0x3e1a8930	0.15091395
150	0xbef42a44	-0.47688496
151	0xbd5c224f	-0.053743657
152	0xbef8469c	-0.4849137
153	0x3bf706d2	0.007538655
154	0xbdffc5ba	-0.12488885
155	0xbf05a6ee	-0.5220784
156	0x3f153a1b	0.58291787
157	0x3ebf9d67	0.37424776
158	0xbf208325	-0.6270011
159	0xbdaa2d4e	-0.083094224
160	0x3e0b191a	0.13583794
161	0xbf01efc0	-0.50756454
162	0xbf394389	-0.72368675
163	0x3e10e29e	0.14148948
164	0x3d08dfd5	0.033416588
165	0xbdee82a4	-0.116460115
166	0x3e971430	0.2950759
167	0xbf09ee1a	-0.5387894
168	0xbddaa319	-0.1067564
169	0x3e3455f8	0.1761092
170	0xbf02a857	-0.51038116
171	0x3ed94e99	0.42442778
172	0x3d25a1e0	0.04043758
173	0xbe967a3c	-0.29390132
174	0x3df030f3	0.11728086
175	0xbee0b1b2	-0.4388557
176	0xbe8b3aa1	-0.27193168
177	0xbe74ea53	-0.23917513
178	0xbdc2990e	-0.09501849
179	0x3ebb6b21	0.3660517
180	0x3c267e00	0.010161877
181	0x3c88d61c	0.016703658
182	0xbece87e7	-0.4033806
183	0x3e2a5c13	0.16636686
184	0x3e2552c1	0.1614485
185	0x3edd6d0f	0.43247268
186	0x3e1ac673	0.15114765
187	0x3f2675bb	0.6502339
188	0x3e75b629	0.2399527
189	0xbe10ac5f	-0.14128254
190	0x3f20d53c	0.6282537
191	0xbeb05230	-0.34437704
192	0xbdc86c39	-0.09786267
193	0x3ea2e8ef	0.3181834
194	0x3de06eee	0.10958658
195	0xbea18d3b	-0.31553063
196	0x3e012283	0.12610821
197	0xbedd937f	-0.43276593
198	0xbe09bee2	-0.13451722
199	0xbd357f91	-0.04431111
200	0xbe013d48	-0.12621033
201	0x3c24dde5	0.010062669
202	0xbc66ad90	-0.014079466
203	0x3f27aa35	0.6549409
204	0x3f0c2742	0.547474
205	0x3ecaec62	0.3963347
206	0x3e8a59b5	0.27021566
207	0xbe9aade4	-0.30210793
208	0xbe27d8e0	-0.16391325
209	0xbf29b046	-0.66284597
210	0x3ecffa33	0.40620574
211	0xbe344b84	-0.17606932
212	0xbe08e677	-0.13369165
213	0x3f402e0b	0.75070256
214	0x3dbb7f1b	0.09155103
215	0xbd103c1e	-0.035213582
216	0xbf5780c4	-0.84180856
217	0x3eca0a7f	0.39461133
218	0xbef14873	-0.47125587
219	0x3da71838	0.08158916
220	0x3eb60662	0.35551745
221	0x3efee57c	0.49784458
222	0x3f3e6f81	0.7438889
223	0xbe55e681	-0.20888712
224	0xbe7869a3	-0.24259047
225	0xbea6d1d9	-0.32581976
226	0x3f0967f4	0.53674245
227	0x3eae8b18	0.34090495
228	0xbe794b03	-0.24345021
229	0xbde5b0d5	-0.11215369
230	0xbe382e85	-0.17986496
231	0x3c660e87	0.0140415495
232	0x3f330b40	0.6993904
233	0xbf1e0e4e	-0.6174058
234	0x3e715265	0.23566587
235	0x3e00f42e	0.12593147
236	0xbee30344	-0.4433843
237	0x3eb10562	0.3457442
238	0x3da15e5b	0.07879325
239	0x3ebae658	0.36503863
240	0xbcbfe755	-0.023425737
241	0x3e1cfafa	0.15330115
242	0x3eed0f7e	0.46300882
243	0x3ec3f020	0.38269138
244	0xbe4b1e8f	-0.19835876
245	0xbecbd9bc	-0.39814556
246	0x3e876153	0.2644144
247	0xbeebf773	-0.46087226
248	0xbf18c7be	-0.5967978
249	0x3ec877fd	0.39154044
250	0xbf229c42	-0.6351968
251	0xbedeae22	-0.43492228
252	0x3e09527c	0.13410372
253	0x3edd741b	0.43252644
254	0xbec3c3f2	-0.38235432
255	0xbc732c46	-0.014842099

layer1.1.layer.weight f4 [256, 256]
0	0xbdc90a1c	-0.09816381
1	0xbca9c431	-0.020723434
2	0x3cb481b9	0.022034513
3	0xbdc2cbb7	-0.09511512
4	0xbca00d5d	-0.019537622
5	0xbde2bddb	-0.11071368
6	0xbe157426	-0.14595088
7	0xbacbdf84	-0.0015554284
8	0xbd9bcc66	-0.07607345
9	0x3def6795	0.116896786
10	0x3d8f9580	0.07010937
11	0x3d10304d	0.035202313
12	0x3cec5ad6	0.028851908
13	0x3cbc1dae	0.022963371
14	0xbd2d4983	-0.042306434
15	0x3c85b651	0.016322287
16	0xbd9b59ce	-0.07585488
17	0x3d4475e5	0.047963995
18	0x3d2ad2cd	0.04170494
19	0x3c6b062d	0.014344734
20	0x3d9299c8	0.07158238
21	0xbda3c301	-0.079961784
22	0xbcbb9e2d	-0.022902573
23	0xbd1f5537	-0.038899627
24	0x3dc833d4	0.097755104
25	0xbda2ba8f	-0.079457395
26	0xbb9c14df	-0.00476323
27	0x3ce70a8f	0.028203277
28	0x3c28a666	0.010293579
29	0xbe1d0542	-0.15334037
30	0xbdeb0d1b	-0.11477109
31	0xbcb7ea90	-0.022450715
32	0xbda1d139	-0.07901234
33	0x3d0712a3	0.032976758
34	0xbc840802	-0.0161171
35	0xbd74ee1a	-0.059797384
36	0xbc28f0f1	-0.010311351
37	0xbc7d342e	-0.015454335
38	0x3d42a1cf	0.047517594
39	0xbdf750b1	-0.120759375
40	0xbd9de426	-0.077095315
41	0x3d6ba2c3	0.05752827
42	0x3d419288	0.047258884
43	0xbd164a54	-0.03669198
44	0xbdcff6a0	-0.10154462
45	0x3c1347ab	0.008989255
46	0x3cbfc5b4	0.023409702
47	0xbda85523	-0.082193635
48	0xbc29b338	-0.0103576705
49	0xbdd7c644	-0.10535863
50	0x3c4702b7	0.012146643
51	0xbd68f5e7	-0.056875136
52	0x3dfb2260	0.12262416
53	0xbd3f5014	-0.046707228
54	0x3d1eb5fb	0.03874777
55	0xbd43b8c0	-0.047783613
56	0xbd4b859e	-0.049687974
57	0xbde04d92	-0.10952295
58	0xbcc6951e	-0.024241026
59	0xbdbca4d3	-0.09211125
60	0xbd326b2f	-0.04355925
61	0xbd933088	-0.07186991
62	0xbdb75ba1	-0.08953024
63	0xbcd35eb9	-0.025802003
64	0xbd6df3ad	-0.058093715
65	0xbd61bcc5	-0.055111665
66	0x3c001e78	0.007819764
67	0xbba7cc53	-0.005120793
68	0xbdd965ca	-0.10615118
69	0x3b54afbb	0.0032453376
70	0x3d939b0c	0.07207307
71	0x3c21624f	0.009850099
72	0xbcfb9bac	-0.030713879
73	0x3d2d929f	0.042376157
74	0x3b573e77	0.0032843628
75	0x3d595126	0.053055905
76	0x3d4d9822	0.050193913
77	0xbdddb5e3	-0.10825708
78	0xbcd221a3	-0.025650805
79	0x3b9c360a	0.004767184
80	0xbd2e1c40	-0.04250741
81	0xbb14068a	-0.0022586905
82	0x3c53f833	0.012937593
83	0x3c5d9568	0.013524391
84	0xbd89fc00	-0.06737518
85	0x3d09c6c4	0.033636823
86	0xbca9eff0	-0.020744294
87	0x3d4b9a9c	0.049707994
88	0x3bf22153	0.0073892265
89	0x3d125acb	0.03573112
90	0xbd253129	-0.040330086
91	0xbd89cd73	-0.067286395
92	0xbd5dc07b	-0.05413864
93	0xbcd6caaf	-0.026219694
94	0x3d415d8c	0.047208354
95	0x3e29ee55	0.16594823
96	0x3ba53baa	0.005042513
97	0x3da7db5b	0.081961356
98	0xbd0dfc7a	-0.03466461
99	0x3d0efcb6	0.034908973
100	0x3d67d31e	0.05659782
101	0x3c1885f5	0.009309282
102	0xbdc48f86	-0.095976874
103	0x3d0aa226	0.033846043
104	0xbb3fe96d	-0.002928342
105	0xbc057bf8	-0.008147232
106	0x3cc7b80b	0.02437975
107	0xbddd77b1	-0.10813845
108	0x3db9dcb1	0.09075297
109	0x3c31972a	0.010839263
110	0x3d4cd3d5	0.050006706
111	0x3d7b462d	0.06134622
112	0xbcd7c642	-0.026339654
113	0xbcf806d8	-0.0302767
114	0xbd3f6f51	-0.04673702
115	0x3a2ab93a	0.0006512586
116	0x3dbac67e	0.09119891
117	0x3b49a779	0.0030769987
118	0xbd243280	-0.040087223
119	0xbd3541b7	-0.044252124
120	0xbd57344f	-0.05254012
121	0xbd04fa34	-0.032465175
122	0x3d64496a	0.055734076
123	0xbe0f78bc	-0.140109
124	0x3c1420de	0.009041039
125	0x3d072869	0.032997523
126	0x3dbd5fe5	0.09246806
127	0xbc29b981	-0.010359169
128	0x3d2134e4	0.03935708
129	0x3c585593	0.013203996
130	0x3e0f20bb	0.1397733
131	0xbd7f7908	-0.062371284
132	0x3c8c368a	0.01711585
133	0xbda8e48c	-0.08246717
134	0x3e074e25	0.13213404
135	0x3c42dd32	0.011893557
136	0xbda68665	-0.081311025
137	0xbd053fa1	-0.032531384
138	0xbcbc3118	-0.022972628
139	0xbc5ccb2a	-0.013476172
140	0xbd0da038	-0.034576625
141	0xbe094843	-0.13406472
142	0xbc5e7417	-0.013577483
143	0x3d397811	0.04528052
144	0x3ca353d4	0.019937433
145	0x3c02e3dd	0.007988897
146	0x3d499751	0.049216572
147	0x3d099f74	0.033599332
148	0x3cf8ea42	0.03038514
149	0x3b5f6290	0.0034085847
150	0xbdecb95c	-0.11558792
151	0x3d846db5	0.064662375
152	0xbcd22aa4	-0.025655098
153	0x3c3aa0cc	0.011390876
154	0x3ba08bca	0.0048994767
155	0x3b63e022	0.0034771045
156	0xbc0a36b1	-0.008435891
157	0xbdbd8f89	-0.09255893
158	0x3b7f8512	0.0038989228
159	0x3db19efb	0.08672901
160	0x3cbb75cc	0.022883318
161	0xbb8e6078	-0.004344996
162	0xbba0ca61	-0.004906938
163	0x3aeb2374	0.0017939643
164	0xbc8cce0c	-0.017188095
165	0xbba92394	-0.005161712
166	0xbd5836a4	-0.052786484
167	0xbcc7c3e0	-0.024385393
168	0x3d29549e	0.041340463
169	0xbd063662	-0.032766707
170	0xbd02cf87	-0.031936195
171	0x3c587704	0.013211969
172	0xbc3f52b2	-0.011677431
173	0xbd971190	-0.07376397
174	0xbd7cc92a	-0.061715282
175	0xbd9c6d8a	-0.076380804
176	0x3e05b836	0.13058552
177	0xbd137dd7	-0.036008682
178	0xbdbd05e3	-0.092296384
179	0x3dbe04ba	0.09278245
180	0xbdd7a636	-0.10529749
181	0xbd981fff	-0.07427978
182	0x3d94c0c4	0.072633296
183	0xbc93d2bd	-0.018044824
184	0xbd832951	-0.06404365
185	0x3d905b71	0.07048691
186	0xbd85e56d	-0.065379
187	0x3d10fc8f	0.03539711
188	0x3ccdf6b2	0.025142048
189	0x3cb301c2	0.021851424
190	0xbc143839	-0.009046608
191	0xbcbe752c	-0.023249231
192	0x3e06d8ca	0.13168636
193	0xbbca0ae8	-0.006165851
194	0x3d81829a	0.063237384
195	0xbdc0310f	-0.09384357
196	0xbcf90b75	-0.030400971
197	0x3d37891a	0.044808485
198	0x3d70700e	0.058700614
199	0xbe0213c4	-0.12702852
200	0x3d3a5caf	0.045498546
201	0x3d39afb3	0.045333575
202	0x3d88bd3b	0.06676718
203	0x3cfd0bea	0.03088947
204	0x3dc7166e	0.09721075
205	0x3d3cae4c	0.04606466
206	0xbd82aeef	-0.06381022
207	0x3dd6fedf	0.104978316
208	0x3dbbd213	0.09170928
209	0xbdc77c73	-0.09740534
210	0x3a7ef206	0.00097253954
211	0xbd24ca01	-0.04023171
212	0x3c5d0ddb	0.013492073
213	0x3d3de265	0.046358485
214	0xbdd813f0	-0.10550678
215	0xbcd03853	-0.025417482
216	0x3bac3d00	0.005256295
217	0xbdd5f74e	-0.1044756
218	0xbb01d34d	-0.0019809783
219	0xbd0e8e7a	-0.034803845
220	0xbd716417	-0.058933344
221	0xbda4d060	-0.08047557
222	0x3d1837f5	0.03716274
223	0x3de738bd	0.11290119
224	0xbc5c8ee2	-0.0134618
225	0x3dce605b	0.10076972
226	0x3d924560	0.071421385
227	0x3d29f287	0.041491058
228	0x3e1b9ed7	0.15197311
229	0x3c9f626d	0.019456113
230	0xbd440d9c	-0.04786454
231	0x3e0a1489	0.13484396
232	0x3ceb55e9	0.028727489
233	0x3cba7481	0.022760632
234	0xbe00260c	-0.12514514
235	0xbde11fa8	-0.10992366
236	0x3d8f4b27	0.06996756
237	0xbd33f7b4	-0.0439374
238	0x3d73c56f	0.05951446
239	0xbc5a3e3f	-0.013320505
240	0xbcacfe0e	-0.021117236
241	0xbd921af6	-0.07134049
242	0xbdbcb6b0	-0.092145324
243	0xbc97bd23	-0.018522805
244	0xbd71dd02	-0.05904866
245	0x3d49bd47	0.049252775
246	0xbd6be0e2	-0.05758751
247	0xbdad12b5	-0.08450834
248	0xbbdc4ff5	-0.006723399
249	0x3cc8945d	0.024484808
250	0xbe0d3431	-0.1378944
251	0x3d1d64ef	0.038426336
252	0xbce4dad3	-0.027936375
253	0x3c161d6f	0.009162291
254	0x3d88d31d	0.06680892
255	0x3cf1a59f	0.02949792

layer1.1.layer.bias f4 [256]
0	0x3c243b5d	0.010023919
1	0xbcd93007	-0.026512159
2	0x3d632d04	0.055462852
3	0x3d258619	0.04041109
4	0x3a9e69cd	0.0012085974
5	0xbd31aeaa	-0.043379463
6	0xbc9dd27a	-0.019265402
7	0xbc79b4b6	-0.015240839
8	0xbd66aca6	-0.056316994
9	0x3d56e4ab	0.05246417
10	0xbc7e1de2	-0.015510054
11	0x3d658471	0.05603451
12	0xbda081cf	-0.07837259
13	0x3bb8db10	0.0056413487
14	0xbcbda305	-0.023149023
15	0xbd32424e	-0.043520264
16	0x3c88c1ad	0.016693914
17	0xbd66bc72	-0.05633206
18	0x3bc8b6eb	0.006125321
19	0xbc4485d9	-0.011994802
20	0xbd819a44	-0.06328252
21	0x3cd7c411	0.026338609
22	0xbda63763	-0.08116033
23	0xbd10b5ca	-0.035329618
24	0xbd550549	-0.052006993
25	0xbd82e546	-0.06391387
26	0xbcfbcb8e	-0.03073671
27	0xbe082342	-0.132947
28	0xbd4e13ab	-0.050311726
29	0x3da63a49	0.08116586
30	0x3bc0bfe6	0.005882251
31	0xbcc2df01	-0.023787977
32	0xbb4f601c	-0.003164298
33	0xbce74d52	-0.028235111
34	0x3c83f910	0.016109973
35	0x3be93338	0.0071167015
36	0x3cb848cc	0.02249565
37	0xbca4fbb3	-0.02013955
38	0x3d4140e6	0.047181033
39	0xbcce87f8	-0.02521132
40	0xbd83082d	-0.06398044
41	0x3d11edbd	0.035627116
42	0x3cecbb18	0.028897807
43	0x3d6c8750	0.05774623
44	0x3c849e98	0.016188905
45	0x3cae8dbe	0.021307822
46	0xbc2bf084	-0.010494355
47	0xbbb141f7	-0.005409475
48	0x3d077888	0.033073932
49	0x3cee15ca	0.029063124
50	0x3dc1685b	0.09443732
51	0xbcf488e8	-0.029850438
52	0x3d3341db	0.043763977
53	0x3ae32ac5	0.0017331472
54	0xbcfc9c0e	-0.030836131
55	0xbd2c8ada	-0.042124607
56	0x3d7e2729	0.062049065
57	0xbd4544f8	-0.048161477
58	0xbd09b5bb	-0.033620577
59	0x3ca5ee06	0.0202551
60	0x3cc915a6	0.024546456
61	0xbd167d8e	-0.036740832
62	0xbd4c80d7	-0.04992756
63	0xbcf2b608	-0.029627815
64	0x3d3d5684	0.046225086
65	0xbae480b6	-0.0017433378
66	0x3db00743	0.08595135
67	0x3ba6f5e6	0.0050952313
68	0xbd65f9f6	-0.056146584
69	0x3ca7ea9a	0.020497609
70	0xbca02dfc	-0.019553177
71	0x3ca8f0a9	0.020622568
72	0x3d64963b	0.055807333
73	0xbd2fb486	-0.04289677
74	0x3d7fe494	0.06247385
75	0x3cb595d7	0.022166176
76	0x3dbd5217	0.09244173
77	0xbc97d2b0	-0.01853308
78	0xbb2084ca	-0.002449321
79	0x3be88dfd	0.0070970044
80	0x3c7e0aac	0.015505474
81	0xbd2d49b5	-0.04230662
82	0x3ce2f9d7	0.027707024
83	0x3c2a3e91	0.010390894
84	0xba9adedc	-0.0011815685
85	0xbcd085d9	-0.025454449
86	0xbd884320	-0.06653428
87	0xbccaff5e	-0.024779972
88	0x3c26ad3c	0.010173138
89	0x3ca3b9c0	0.019986033
90	0xbcc25cb9	-0.023725854
91	0xbb58db0a	-0.0033089542
92	0xbc91ceac	-0.017798744
93	0xbd27e8ac	-0.040993378
94	0xbcc29cf9	-0.023756491
95	0xbc96d115	-0.018410245
96	0x3cdacd2f	0.026709167
97	0x3bdf3102	0.006811262
98	0xbc6122b3	-0.013741183
99	0xbd225cb4	-0.03963919
100	0xbd93a51e	-0.07209228
101	0x3cfb52ee	0.030679192
102	0x3d3159a0	0.043298364
103	0xbd8cd754	-0.06877008
104	0x3d69ae9e	0.057051294
105	0x3d9de404	0.07709506
106	0x3b669c5e	0.0035188417
107	0xbd16cd72	-0.03681702
108	0x3d9f8f94	0.07791057
109	0xbd434fa5	-0.047683377
110	0xbb94d74c	-0.004542267
111	0xbd192d82	-0.037396915
112	0xbc671132	-0.014103221
113	0x3b42d66e	0.002972986
114	0xbd29514d	-0.0413373
115	0x3cf5fd02	0.03002787
116	0x3d9fa3c1	0.077949055
117	0xbd3a13b3	-0.045428943
118	0x3c8717da	0.016490865
119	0xbbbbb72b	-0.0057286224
120	0x3b9c2bf5	0.0047659823
121	0xbb52d4ee	-0.0032170373
122	0x3d2e07c8	0.04248789
123	0xbc1624d9	-0.009164059
124	0xbd2e7314	-0.042590216
125	0xbdc4b8bc	-0.09605548
126	0x3c0f209b	0.008735801
127	0x3d56feed	0.05248921
128	0xbc4f42f4	-0.01265024
129	0x3c6e7364	0.014553878
130	0x3d056d6b	0.032575052
131	0xbd6ff0c7	-0.058579233
132	0xbc2fde84	-0.010734204
133	0xbcea4de8	-0.028601602
134	0x3cc85ddb	0.024458816
135	0x3d1547ba	0.036445357
136	0xbd00ba71	-0.031427804
137	0xbcc8c4e0	-0.02450794
138	0xbc493aca	-0.012282083
139	0x3d0c0b46	0.03419044
140	0xbd027e66	-0.031858824
141	0xbd2031f0	-0.039110124
142	0xbcf27887	-0.029598488
143	0x3c96c88c	0.018406175
144	0xbc5d1387	-0.013493425
145	0x3cfad923	0.030621117
146	0x3df1b094	0.11801258
147	0x3e4c2b6d	0.1993844
148	0xbcc08c1a	-0.023504306
149	0x3d25f4a4	0.04051651
150	0xbddc6b83	-0.10762694
151	0x3d046765	0.032325167
152	0x3ce3fbe4	0.027830072
153	0xbcca235e	-0.024675068
154	0x3c84620d	0.016160036
155	0x3d1226ef	0.03568166
156	0xbd195716	-0.037436567
157	0xbd60a8dc	-0.054848537
158	0x3d06fe7a	0.03295753
159	0xbc49527c	-0.012287732
160	0x3c53d86c	0.012930017
161	0xbbddbcda	-0.0067668976
162	0x3c8d7080	0.017265558
163	0xbd003a86	-0.031305812
164	0xbc24812f	-0.010040565
165	0xbca8fa92	-0.020627294
166	0x3d8269b2	0.06367816
167	0x3d37f196	0.04490813
168	0xbd5880aa	-0.05285708
169	0xbcc86d5e	-0.024466213
170	0xbda76c7d	-0.08174989
171	0x3d81898f	0.06325065
172	0xbdc27d3d	-0.094965436
173	0x3d3cd81f	0.046104547
174	0x3d44f860	0.04808843
175	0x3d7fc7e5	0.062446494
176	0xbb2ca12b	-0.002634118
177	0x3d16feb0	0.036863983
178	0xbd47c272	-0.048769422
179	0xbc39cf1f	-0.011340885
180	0x3c85468f	0.016268997
181	0xbd938058	-0.07202214
182	0x3c60beda	0.013717378
183	0xbe042025	-0.12902887
184	0xbc55d7c3	-0.01305193
185	0xbd86ac2d	-0.06575809
186	0xbd9551c9	-0.0729099
187	0x3d51ea36	0.05124875
188	0x3d131283	0.035906326
189	0x3b02b867	0.0019946338
190	0x3d297741	0.041373495
191	0xbc8654ac	-0.016397797
192	0x3b8a94d5	0.004229168
193	0xbd3d4833	-0.046211433
194	0xbd0ee223	-0.03488363
195	0x3a2469be	0.00062718603
196	0xbcad7510	-0.021173984
197	0xbd1ecf08	-0.03877166
198	0xbd930de7	-0.07180386
199	0x3d0107d8	0.03150162
200	0x3d1e46b9	0.038641665
201	0xbc4ad1ff	-0.0123791685
202	0x3cc95fbc	0.024581783
203	0x3bb0c812	0.005394944
204	0xbc929673	-0.017894005
205	0x3d132bff	0.03593063
206	0x3bcd6bfb	0.006268976
207	0x3d970a0c	0.07374963
208	0x3d0fe1bf	0.035127398
209	0x3d4fe324	0.050753728
210	0xbcb3d064	-0.021949954
211	0xbd2d2a7a	-0.042276837
212	0xbb99aed8	-0.0046900325
213	0x3a69cf52	0.0008919138
214	0x3a81f4e6	0.0009914904
215	0xbd3f681b	-0.046730142
216	0xbd446438	-0.04794714
217	0x3ccc7d47	0.02496208
218	0xbc720b3b	-0.014773185
219	0x3cf71fb9	0.030166494
220	0xbbfb171c	-0.007662667
221	0x3d06e4c9	0.03293303
222	0xbcf830c3	-0.030296689
223	0x3d2d7f69	0.042357836
224	0xbc8f0ce4	-0.017462201
225	0xbbc0d711	-0.005885013
226	0xbd244dbf	-0.040113207
227	0x3d2e2bb4	0.042522147
228	0xbd632b59	-0.05546126
229	0x3cbe2a43	0.023213511
230	0x3da4efe7	0.0805357
231	0x3d3e81e7	0.046510603
232	0x3d8ae73e	0.06782387
233	0xbbfce506	-0.0077177314
234	0x3cdbb8a2	0.026821438
235	0xbd84f02a	-0.0649112
236	0x3b8d3e7c	0.0043104272
237	0x3c99ce75	0.018775204
238	0x3d30e3dc	0.043186054
239	0xbdd748b4	-0.10511914
240	0x3d328f03	0.043593418
241	0x3c6518b3	0.0139829395
242	0xbc39b88d	-0.011335504
243	0x3bd3b878	0.0064611994
244	0xbca07414	-0.0195866
245	0xbd2bfedd	-0.041991103
246	0xbc8cead2	-0.017201815
247	0x3d52d828	0.051475674
248	0x3c5db010	0.013530746
249	0xbb886316	-0.0041622026
250	0x3c892ee0	0.016745985
251	0xbcb5094f	-0.022099165
252	0x3d90fbd8	0.070792854
253	0xbba4a5d4	-0.005024651
254	0xbc921e30	-0.01783666
255	0x3bedc108	0.007255677

layer1.2.layer.weight f4 [128, 256]
0	0x3d8f61b0	0.07001054
1	0x3b52a541	0.0032141956
2	0x3c5a58f5	0.013326873
3	0xbcd4422e	-0.025910463
4	0xbdd5372f	-0.10410916
5	0x3d521643	0.05129076
6	0xbdda9350	-0.10672629
7	0xbd11de82	-0.03561259
8	0x3c57e2db	0.013176645
9	0x3c8ce7e0	0.01720041
10	0x3c5f4a4a	0.013628552
11	0x3daf69bf	0.08565091
12	0x3c9c5bb2	0.019086692
13	0xbde24bf9	-0.11049647
14	0x3bf1b85e	0.0073767146
15	0x3d0d44c6	0.034489416
16	0x3cb1ad8f	0.021689204
17	0x3d3e7ff8	0.04650876
18	0xbca3badf	-0.019986568
19	0x3d7d9547	0.06190994
20	0x3d2629c5	0.04056718
21	0x3d56d420	0.052448392
22	0x3ce0523c	0.027382962
23	0x3d760e67	0.06007233
24	0x3bb2667b	0.0054443455
25	0x3d4c5d03	0.04989339
26	0x3ced9b97	0.029004855
27	0x3e0b4d0a	0.13603607
28	0xbdb44d47	-0.08803802
29	0xbd543563	-0.051808726
30	0x3c54ff7f	0.013000368
31	0xbdef3a5c	-0.11681053
32	0x3d0759ec	0.03304474
33	0x3da0e4f7	0.078561716
34	0x3aa83574	0.0012833313
35	0x3aa56162	0.0012617523
36	0xbc08ab44	-0.008341614
37	0xbc805b3b	-0.015668502
38	0xbc9b6821	-0.018970551
39	0x3d819da9	0.063288994
40	0x3adc8ee2	0.001682725
41	0xbd9945cb	-0.07484015
42	0x3c7e3a67	0.015516854
43	0x3d1eb746	0.038749002
44	0xbd445fb1	-0.04794282
45	0xbdac0e68	-0.08401185
46	0x3da2f65b	0.07957145
47	0x3c966e67	0.01836319
48	0x3bcf7d41	0.00633207
49	0x3c9965ee	0.018725362
50	0x3ca41d83	0.020033604
51	0xbcfb7c94	-0.030699052
52	0xbc36595b	-0.011129702
53	0xbdcdcc12	-0.10048689
54	0xbbad3bb7	-0.0052866596
55	0x3d310cf9	0.043225262
56	0xbd4c3062	-0.04985083
57	0x3cad2148	0.021134034
58	0xbd6c6398	-0.057712168
59	0x3dbe61ee	0.09296022
60	0x3d9fb175	0.07797519
61	0x3d3c6aab	0.046000164
62	0xbd11dd53	-0.03561146
63	0x3b9c5ac0	0.0047715604
64	0x3c9ddf2d	0.019271458
65	0x3c38fe2f	0.011291071
66	0x3d489c02	0.048976906
67	0x3daa835b	0.08325835
68	0x3e03c6be	0.12868783
69	0xbde7324d	-0.11288891
70	0xbb05722e	-0.0020362246
71	0xbd6b4c33	-0.057445716
72	0xbda2d9b3	-0.07951679
73	0xbe062b92	-0.13102558
74	0xbe00d1ff	-0.12580107
75	0x3bf3b506	0.007437351
76	0x3ca1b6b2	0.019740436
77	0xbd5640af	-0.05230778
78	0x3b9532b6	0.0045531644
79	0xbd401068	-0.046890646
80	0xbd055156	-0.03254827
81	0xbdbfdf2e	-0.0936874
82	0xbcdcb399	-0.026941108
83	0xbca8c7cf	-0.020603089
84	0xbcdb93c3	-0.026803857
85	0x3d66ed7c	0.056378826
86	0x3d6ecba5	0.05829968
87	0x3d171329	0.036883507
88	0x3b9d11b4	0.00479337
89	0xbbc43638	-0.0059879087
90	0xbd333cb4	-0.043759063
91	0xbdfda8c6	-0.123857066
92	0xbdbe1b0c	-0.092825025
93	0x3cd13044	0.02553571
94	0xbcb1975e	-0.021678623
95	0x3cab5e09	0.020918863
96	0x3dea65ef	0.114452235
97	0x3dcd2bc2	0.10018112
98	0x3cfe9352	0.031076107
99	0xbd8b9e2a	-0.06817277
100	0xbc9c6ecb	-0.019095799
101	0xbc831a4f	-0.016003756
102	0xbc31d7ce	-0.0108546745
103	0x3d90153b	0.070352994
104	0xbdd2365b	-0.10264274
105	0xbd798493	-0.06091745
106	0xbd04a0a4	-0.03237976
107	0xbdb51d37	-0.08843463
108	0xbcf942f5	-0.030427435
109	0x3d6cb0a8	0.05778566
110	0x3d26e3c9	0.040744577
111	0xbccbebf8	-0.024892792
112	0x3c8d24fc	0.01722955
113	0xbd6f07d4	-0.058357075
114	0xbd477121	-0.048691873
115	0x3d1fd00c	0.03901677
116	0xbdc20200	-0.09473038
117	0x3d167320	0.036730886
118	0x3d6e230f	0.058138903
119	0x3e09e684	0.13466841
120	0xbca46dc9	-0.02007188
121	0xbd862310	-0.065496564
122	0x3b38dac5	0.0028206569
123	0x3d9c4b72	0.076315776
124	0x3dd9b649	0.10630471
125	0x3d94b022	0.07260157
126	0x3c088db8	0.00833457
127	0xbbe1ee4e	-0.006894863
128	0xbd56ffef	-0.05249017
129	0xbda90427	-0.08252745
130	0xbd55029a	-0.052004434
131	0x3cec7cf2	0.028868172
132	0x3cc91c67	0.024549676
133	0xbcaf2ea5	-0.021384547
134	0xbd9839ee	-0.07432924
135	0xbddb58c3	-0.10710289
136	0xbc5326e2	-0.012887688
137	0x3ddf8ae4	0.10915163
138	0x3ce0eba7	0.027456118
139	0x3cb6a1fd	0.022294039
140	0x3db87038	0.09005779
141	0x3d25f8a5	0.04052033
142	0x3cab249a	0.020891476
143	0xbd30c0d8	-0.04315266
144	0xbb12d533	-0.0022404909
145	0xbdaf2f4b	-0.08553942
146	0x3cd25f75	0.025680283
147	0xbd061336	-0.032733165
148	0x3d19c73b	0.037543517
149	0xbc359e49	-0.011085101
150	0x3dba45d5	0.09095351
151	0x3d21c630	0.039495647
152	0xbd4fad57	-0.05070242
153	0x3cfd5bb4	0.030927517
154	0x3daca231	0.08429373
155	0x3d6371f3	0.055528592
156	0x3d53cb35	0.051707465
157	0x3c3f2227	0.011665857
158	0xbd05fa96	-0.03270968
159	0xbd0e7b61	-0.034785632
160	0x3c276749	0.010217496
161	0xbdd3423b	-0.10315367
162	0xbd4548fe	-0.048165314
163	0x3d3c6789	0.045997176
164	0x3d4425c7	0.04788759
165	0x3d0130db	0.031540733
166	0x3c502ee5	0.012706493
167	0xbbd7ac54	-0.0065818224
168	0x3cbd1dc6	0.023085486
169	0xbbd5707f	-0.0065136547
170	0xbc7d7a79	-0.015471094
171	0xbdc641da	-0.09680529
172	0x3ca09773	0.019603467
173	0xbcaf39e7	-0.021389915
174	0xbdea587a	-0.11442657
175	0x3d9fa5af	0.077952735
176	0xbbec668b	-0.0072143725
177	0xbdcfb544	-0.101419955
178	0x3d4282c5	0.047487993
179	0x3bd4c0cf	0.006492711
180	0x3dcab5e7	0.09897976
181	0xbd9bcca6	-0.07607393
182	0x3cc68639	0.024233924
183	0xb7e89ca4	-2.7729497e-05
184	0xbdef2712	-0.11677374
185	0x3d36c48e	0.044621043
186	0x3c428012	0.011871355
187	0xbcc8c42e	-0.024507608
188	0x3c62a632	0.013833569
189	0xbdb93b23	-0.090444826
190	0xbc0c8da2	-0.00857869
191	0xbcbb6d1f	-0.022879181
192	0x3d3f908d	0.046768714
193	0x3d0bedeb	0.034162443
194	0xbdbcfebd	-0.09228275
195	0x3d1e6db6	0.038678847
196	0xbb91ce6c	-0.0044496562
197	0xbb6ee7f7	-0.003645418
198	0xbd8f2801	-0.06990052
199	0xbd11c908	-0.03559211
200	0xbdb41d08	-0.087946
201	0x3cc5e4b4	0.024156906
202	0xbc65294f	-0.0139868995
203	0xbc34a38e	-0.011025323
204	0xbc0bbd84	-0.008529071
205	0xbd34d796	-0.04415091
206	0x3d224c67	0.039623644
207	0x3b4cc178	0.0031243246
208	0xbd742611	-0.059606615
209	0x3d8f11d7	0.069858246
210	0x3dc49774	0.095992
211	0xbd9d4534	-0.07679215
212	0xbc05602a	-0.008140603
213	0x3d40da2e	0.047083072
214	0xbd9ed104	-0.0775471
215	0x3ddb2928	0.10701209
216	0x3d409865	0.047020335
217	0xbc44fd34	-0.012023259
218	0x38947a15	7.0799295e-05
219	0xbc8d17be	-0.017223235
220	0x3de2f8b7	0.11082595
221	0xbd6bca3e	-0.05756592
222	0xbc47e217	-0.0121999
223	0x3c197213	0.009365576
224	0x3bda6289	0.0066645783
225	0x3bf9d31d	0.0076240436
226	0x3cdbbdcd	0.026823903
227	0xbd3024f1	-0.04300398
228	0x3cf68a16	0.030095141
229	0xbca8c537	-0.020601852
230	0x3e24e50d	0.16103001
231	0xbd0f92da	-0.035052158
232	0x3beecfb0	0.007287942
233	0xbdae33f9	-0.08506007
234	0x3d5512be	0.052019827
235	0x3bc15bd2	0.0059008384
236	0xbc30267a	-0.010751361
237	0xbdccc10b	-0.099977575
238	0x3a6dc52a	0.0009070212
239	0xbc9d89f5	-0.019230822
240	0x3d80a171	0.062807925
241	0xbe04791a	-0.12936822
242	0xbdaff5cb	-0.08591803
243	0x3d4fbbd7	0.050716247
244	0xbd739821	-0.059471253
245	0xbb5337a9	-0.003222922
246	0xbd49a1ad	-0.04922645
247	0xbd4df43b	-0.050281744
248	0x3d66c38c	0.05633883
249	0x3d8fcce9	0.070215054
250	0x3d311fd6	0.04324325
251	0x3aafec09	0.0013421784
252	0xbdb36a21	-0.08760477
253	0x3d138059	0.036011074
254	0xbc6c779b	-0.014432813
255	0x3d23ab9e	0.03995859

layer1.2.layer.bias f4 [128]
0	0x3c403428	0.011731185
1	0xbd6e9ac1	-0.058253054
2	0xbd3aea8d	-0.04563384
3	0xbd0e4d9c	-0.034741983
4	0xbb75df81	-0.0037517252
5	0x3c3f6cc8	0.01168365
6	0x3cceeac7	0.025258435
7	0x3ccf96a1	0.02534038
8	0x3dc7b73c	0.09751746
9	0x3d78f253	0.060777973
10	0x3c8b674c	0.01701703
11	0xbbfe8f8f	-0.0077685784
12	0x3d900c6b	0.070336185
13	0xbba85839	-0.00513747
14	0xbaaa59c0	-0.0012996718
15	0x3c21e95e	0.009882299
16	0x3c87716f	0.016533582
17	0x3d9b327a	0.07577987
18	0x3d54c32f	0.051943954
19	0xbe1a6de8	-0.15080988
20	0x3e2fdd56	0.17174277
21	0x3cfcf72c	0.03087958
22	0x3d466582	0.04843665
23	0xbd5ef906	-0.054436706
24	0xbd0110d6	-0.031510197
25	0x3c602770	0.013681278
26	0xbd193851	-0.037407223
27	0x3d3cf982	0.046136387
28	0xbcd0e3bb	-0.025499215
29	0x3c3eeec7	0.011653609
30	0x3ca574e0	0.020197332
31	0x3d6132fb	0.05498026
32	0xbdf8ae96	-0.121426746
33	0xbcb3af8e	-0.021934297
34	0xbc525d7e	-0.012839673
35	0x3da0aed9	0.078458495
36	0xbd3d9b53	-0.046290707
37	0xbad69ade	-0.0016373058
38	0x3d9c88f5	0.0764331
39	0xbd2c8424	-0.042118207
40	0xb9ed843f	-0.00045302694
41	0xbda5b0d3	-0.08090367
42	0x3dd6993e	0.104784474
43	0x3c955764	0.018230148
44	0xbd47b6d0	-0.048758328
45	0x3d030273	0.031984758
46	0xbdb36835	-0.0876011
47	0x3d725165	0.059159655
48	0x3d07c494	0.033146456
49	0x3a22dcfc	0.0006212739
50	0x3c6ff47b	0.014645691
51	0x3e38314c	0.17987555
52	0xbcc88671	-0.02447817
53	0x3d50351c	0.0508319
54	0x3e37734d	0.17915078
55	0x3d32656c	0.043553755
56	0x3cb87b85	0.022519836
57	0x3d43820f	0.047731455
58	0x3bddbbc0	0.0067667663
59	0xbd16c0b6	-0.036804877
60	0x3c362fbb	0.011119778
61	0x3dd33540	0.10312891
62	0xbe090af2	-0.13383082
63	0xbd503e95	-0.050840933
64	0xbd117221	-0.035509232
65	0x3c01b79a	0.007917309
66	0x3dade66a	0.084912136
67	0x3d906894	0.07051197
68	0x3d25bb33	0.04046173
69	0x3d107583	0.035268318
70	0xbdaa5323	-0.08316638
71	0x3d4ecd73	0.0504889
72	0x3bda1f3f	0.006656557
73	0xbd3d2f30	-0.04618758
74	0x3d94a41d	0.072578646
75	0xbc06f9aa	-0.0082382355
76	0x3d0d3de5	0.034482855
77	0xbccf67c8	-0.025318041
78	0xbbfc6558	-0.007702511
79	0xbcfd4692	-0.03091744
80	0x3e3a3ab3	0.18186454
81	0xbd9a0ac3	-0.07521584
82	0x3d13867b	0.036016922
83	0x3dba838e	0.09107123
84	0x3c5aa092	0.013343947
85	0xbcfec82d	-0.03110131
86	0xbd78f944	-0.060784593
87	0x3d8ae2ab	0.06781515
88	0xbe1744cb	-0.14772336
89	0xbcb90d72	-0.022589419
90	0x3c26dde7	0.010184742
91	0x3d75c438	0.060001582
92	0x3e0c1092	0.13678196
93	0xbcded9e5	-0.02720351
94	0x3d09465e	0.033514373
95	0xbdb0c0df	-0.08630537
96	0x3ce84293	0.028352058
97	0xbcbc3945	-0.022976527
98	0x3b063b7a	0.0020482228
99	0x3dce299a	0.100665286
100	0x3d2d39ac	0.04229133
101	0xbd4595a0	-0.048238397
102	0xbb9bbf3a	-0.0047530206
103	0xbd3d1e91	-0.04617173
104	0x3d0e92d9	0.034808014
105	0x3ca32c76	0.019918662
106	0x3d14b41b	0.036304574
107	0xbcbd1cdd	-0.023085052
108	0x3cf58338	0.029969797
109	0xbd16e8d4	-0.036843136
110	0x3d0212ea	0.03175632
111	0xbbd9ed01	-0.0066505675
112	0x3c7be92b	0.015375416
113	0x3d8a4525	0.067514695
114	0xbd0c70c9	-0.034287248
115	0x3d5ddba9	0.054164562
116	0xbcb76164	-0.022385307
117	0xbc87690f	-0.016529588
118	0xbd64cd12	-0.055859633
119	0xbdfd13ff	-0.123573296
120	0xbc08b98f	-0.008345022
121	0xbc9b8f70	-0.018989295
122	0x3c818cc9	0.015814202
123	0xbd16cd30	-0.036816776
124	0x3d34a210	0.044099867
125	0x3b7dff3d	0.003875687
126	0x3d348379	0.044070695
127	0xbcfb3120	-0.030663073

layer1.3.layer.weight f4 [128, 128]
0	0xbbec3c6a	-0.0072093504
1	0xbce7caa5	-0.02829487
2	0xbbe7ec6c	-0.007077744
3	0xbcf5573d	-0.029948825
4	0xbcb27ef6	-0.021789055
5	0x3cf2744f	0.029596476
6	0xbb9fa284	-0.0048716683
7	0x3d721976	0.059106313
8	0xbd146d8b	-0.03623728
9	0x3a02c608	0.00049886154
10	0xbd34c77a	-0.04413555
11	0xbcf95070	-0.030433863
12	0xbd6e846e	-0.058231764
13	0x3d385b9d	0.045009244
14	0x3c139a61	0.009008975
15	0xbcceed13	-0.02525953
16	0xbd2512fc	-0.040301308
17	0x3d6551c6	0.05598619
18	0x3d01116d	0.03151076
19	0x3d559e82	0.052153118
20	0x3c98f79c	0.018672757
21	0x3cc7b23b	0.02437698
22	0xbcd8f6fb	-0.026484957
23	0xbb9b0d21	-0.0047317897
24	0x3c57ca50	0.013170794
25	0x3bfc9780	0.00770849
26	0x3cc74f34	0.02432976
27	0xbcc5e1f5	-0.024155596
28	0x3d043825	0.032280106
29	0x3c81d3f6	0.015848141
30	0xbd6652ef	-0.056231435
31	0x3d1f7ab5	0.038935382
32	0x3d79df10	0.061003745
33	0xbc75d07a	-0.015003318
34	0xbd491c5f	-0.049099322
35	0xbbc672d5	-0.0060561695
36	0x3b901201	0.0043966775
37	0x3cf3c50c	0.029757045
38	0x3d849c79	0.06475157
39	0x3cc2e311	0.023789914
40	0x3c69f2fd	0.014279124
41	0x3c8a0d9b	0.01685219
42	0xba88bd41	-0.0010432379
43	0xbd5b6adb	-0.053568702
44	0xbbba2fc8	-0.0056819655
45	0xbd097bba	-0.03356526
46	0xbccf83fd	-0.025331492
47	0xbd257a08	-0.04039958
48	0xbd0927a4	-0.03348507
49	0xbcaa34a1	-0.020777049
50	0x3d702eeb	0.058638494
51	0x3c89f2ae	0.016839352
52	0x3c9aef1d	0.018912846
53	0xbc021120	-0.007938653
54	0x3d07232b	0.032992523
55	0x3d972ac9	0.073812075
56	0xbd89ed02	-0.06734659
57	0xbc9d8a2f	-0.01923093
58	0x3b2c8615	0.0026325036
59	0xba0aa2d8	-0.0005288548
60	0xbd0d8ccb	-0.0345581
61	0xbcd579ad	-0.026058996
62	0xbcb34293	-0.021882331
63	0xbd495c81	-0.049160484
64	0x3cf2f8fa	0.029659737
65	0x3cc1bffb	0.023651114
66	0x3cd1d8db	0.0256161
67	0x3ca6b0c0	0.020347953
68	0xbd171695	-0.03688677
69	0x3b04f084	0.002028496
70	0xbc878b37	-0.016545875
71	0x3c921072	0.017830107
72	0x3cf678c1	0.030086877
73	0xbccdc6c2	-0.02511919
74	0xbb430dcc	-0.0029762862
75	0x3caaee23	0.020865506
76	0x3cbdc160	0.023163497
77	0xbda32d5e	-0.079676375
78	0x3d882917	0.06648462
79	0xbc6f58c4	-0.014608566
80	0xbcff1aac	-0.031140648
81	0xbb9d7446	-0.0048051206
82	0xbd31617b	-0.043305855
83	0xbc005df5	-0.007834901
84	0xbc2629e3	-0.0101418225
85	0x3d7a48c9	0.06110457
86	0xbcaefb28	-0.021359995
87	0xbd01694a	-0.031594552
88	0x3cc37105	0.023857603
89	0x3c46e6b4	0.012139965
90	0xbd9949d9	-0.074847884
91	0x3c80ec82	0.015737776
92	0xba3951f1	-0.00070694
93	0xbcc0626f	-0.023484437
94	0x3cae9516	0.021311324
95	0x3d3f8357	0.046756115
96	0xbd7301f1	-0.059328023
97	0xbc3c98a9	-0.011511006
98	0xbd2f3f88	-0.042785197
99	0x3ce7740a	0.028253574
100	0xbc8edcb9	-0.017439233
101	0x3cf564a6	0.02995522
102	0xbd0c8348	-0.034304887
103	0xbc89cdc3	-0.016821748
104	0x3c945e36	0.01811133
105	0x3d7687ba	0.060188033
106	0xbba5f89a	-0.005065036
107	0x3c5973ff	0.0132722845
108	0x3c9e1c50	0.01930061
109	0x3d8370ee	0.06418024
110	0x3cd6879c	0.02618771
111	0xbcb1c138	-0.02169858
112	0x3cc97196	0.024590295
113	0xbb7c2e22	-0.0038479646
114	0xbd1fb291	-0.038988654
115	0xbd0746fb	-0.033026677
116	0xbce30cda	-0.027716089
117	0x3d427944	0.04747893
118	0x3b635f43	0.0034694232
119	0xbd5ff180	-0.05467367
120	0x3c80ae6f	0.015708176
121	0x3a93e832	0.001128441
122	0x3ae43b8c	0.0017412766
123	0xbca2c2d0	-0.019868284
124	0x3be07fc6	0.0068511693
125	0x3d62c547	0.05536392
126	0x3c18578c	0.009298217
127	0xbd84d129	-0.06485207
128	0x3d0870dc	0.033310756
129	0xbbdee3e5	-0.0068020695
130	0x3d431a8d	0.047632743
131	0x3c89e0ad	0.016830767
132	0x3c8b3b10	0.016995937
133	0x3c8a8165	0.016907403
134	0xbc7543ce	-0.014969779
135	0xbb8fd13f	-0.0043889578
136	0xbc6af85c	-0.01434144
137	0x3b68d063	0.0035524599
138	0x3c234cd1	0.009967045
139	0xbc15d7ea	-0.009145716
140	0x3d6599a0	0.05605471
141	0x3d5a49b7	0.053292956
142	0x3d43ce06	0.0478039
143	0x3c099b20	0.008398801
144	0xbb8d142d	-0.0043053837
145	0xbd1c52d2	-0.03816492
146	0xbb0b25ec	-0.002123232
147	0xbd286298	-0.04110965
148	0x3d44a80d	0.04801183
149	0xbc9bf03d	-0.019035453
150	0x3cbe347e	0.02321839
151	0x3c9dec7e	0.019277807
152	0xbbaf3ea3	-0.005348043
153	0xbd5c20d6	-0.053742252
154	0x3cf2d2ad	0.029641474
155	0x3d32745e	0.043568008
156	0xbaa01d40	-0.0012215748
157	0xbd252e42	-0.040327318
158	0x3ceb4419	0.028718995
159	0xbc82b558	-0.015955612
160	0x3c27e090	0.010246411
161	0x3cc0ef16	0.023551505
162	0xbcf2b5c7	-0.029627694
163	0xbb82439c	-0.003975345
164	0x3c0a8882	0.008455398
165	0x3ae0e1c7	0.0017157131
166	0xbbc279b0	-0.0059349164
167	0x3cdea301	0.027177336
168	0x3ce40659	0.027835058
169	0x3c13138e	0.00897683
170	0xbd746c95	-0.059673864
171	0xbd0b0988	-0.033944637
172	0xbd0cb5fc	-0.03435324
173	0xbc948591	-0.018130096
174	0x3c58100f	0.013187422
175	0x3d67ed33	0.056622695
176	0xbd283ff3	-0.04107661
177	0xbc09f89c	-0.0084210895
178	0xbca2b9cb	-0.019863984
179	0xbc10d4d7	-0.0088398075
180	0x3b333903	0.0027347214
181	0xbbba29d0	-0.005681254
182	0xbd0c2760	-0.03421724
183	0x3d862171	0.06549347
184	0xbd211282	-0.03932429
185	0x3cb93c04	0.022611625
186	0xbadc2c76	-0.0016797918
187	0x3c16c339	0.009201818
188	0x3b62796d	0.0034557239
189	0x3d58643a	0.05282996
190	0x3b8dcae6	0.004327166
191	0xbbb2a607	-0.005451921
192	0xbd68d749	-0.056845937
193	0x3b1d3d00	0.0023992658
194	0x3c8d2880	0.017231226
195	0x3c825db6	0.015913825
196	0xba92d572	-0.0011202528
197	0xbd0083d5	-0.031375725
198	0xbce486ae	-0.027896252
199	0x3cedaa44	0.029011853
200	0xbb5e6b65	-0.0033938524
201	0x3d363c57	0.04449114
202	0xbaf3f990	-0.0018613804
203	0x3da73100	0.08163643
204	0x3d2675c5	0.040639658
205	0xbc73b3ce	-0.014874412
206	0xbcb35ae7	-0.021893932
207	0xbd4a08f0	-0.04932493
208	0x3d229f38	0.039702624
209	0xbc171f22	-0.009223731
210	0xbd58a472	-0.052891202
211	0xbd0ad7b1	-0.033897106
212	0x3ce53ec4	0.02798403
213	0x3d1c2121	0.03811753
214	0x3d221e96	0.03957995
215	0xbcb0ee7e	-0.021598097
216	0xbcc42250	-0.023942143
217	0xbce19317	-0.027535958
218	0x3c9c7d94	0.019102849
219	0x3ac8433d	0.0015278828
220	0xbcdff355	-0.02733771
221	0xbd1e8914	-0.038704947
222	0xbcc3458b	-0.023836872
223	0xbc898fd8	-0.016792223
224	0xbcf28f41	-0.029609324
225	0x3d403948	0.046929628
226	0xbc58ee3f	-0.013240396
227	0xbd0dc67d	-0.03461312
228	0xbd6dd809	-0.058067355
229	0x3cf57c69	0.02996655
230	0x3d0d57d4	0.034507588
231	0xbd03b8dd	-0.03215872
232	0x3c11b4d8	0.008893214
233	0x3bda1caf	0.0066562514
234	0x3bdf4c61	0.006814525
235	0xbd8a97fe	-0.067672715
236	0x3c31cb77	0.010851732
237	0x3ce0a6ff	0.02742338
238	0xbd7e8683	-0.06214
239	0x3c7d9435	0.01547723
240	0x3d728bb6	0.05921527
241	0x3d8357a3	0.064132
242	0x3ced34f3	0.028955912
243	0xbd7179f3	-0.05895419
244	0x3ced286c	0.028949939
245	0xbbf07de9	-0.0073392284
246	0xbc9de579	-0.01927446
247	0x3d4b2575	0.04959627
248	0x3c5970ac	0.013271492
249	0xba37adbe	-0.00070067856
250	0xbcadef2b	-0.021232208
251	0xbb838f9d	-0.004014923
252	0xbd28b1f7	-0.041185346
253	0xbc08a8e5	-0.008341049
254	0xbd8cb29a	-0.06870003
255	0xbcf659a0	-0.030072033

layer1.3.layer.bias f4 [128]
0	0xbb37bcd0	-0.0028036125
1	0xbacddb88	-0.0015705684
2	0xbb10a1c1	-0.002206907
3	0xbb050fcc	-0.0020303605
4	0xba1a3a12	-0.0005883287
5	0xbb9eb81c	-0.004843725
6	0xba8b90cc	-0.0010648011
7	0xbb6dec0a	-0.003630402
8	0x3ae2ea4b	0.0017312256
9	0xbbb09c53	-0.005389729
10	0xb8fff9e4	-0.00012205893
11	0x3a6bc1d3	0.00089934206
12	0xbb85efc4	-0.00408742
13	0xbb63d1a8	-0.0034762416
14	0x392d75cf	0.00016542453
15	0x3af444b8	0.0018636202
16	0x3bac2779	0.005253729
17	0xb93747dc	-0.0001747901
18	0xbb5bba87	-0.0033527927
19	0xbae7b34e	-0.0017677338
20	0xbaf8b9ab	-0.0018976232
21	0xba87effc	-0.0010371204
22	0x3b106f75	0.002203909
23	0xbb26a9d2	-0.002543081
24	0x3a91fdce	0.0011138262
25	0x3ac54a53	0.0015052058
26	0xbb0ce68e	-0.0021499726
27	0xb9d373d5	-0.00040331358
28	0xba0b15e8	-0.00053056935
29	0x3ba40d5e	0.0050064763
30	0xbb136e03	-0.0022495992
31	0xb699ff12	-4.5894494e-06
32	0x399faed9	0.00030457115
33	0xba2123d2	-0.0006147
34	0xbac7f93e	-0.0015256775
35	0xba200bf7	-0.00061052985
36	0x3b503a67	0.0031773092
37	0x3a4e49dc	0.0007869282
38	0xb9addb68	-0.00033160602
39	0x3b124231	0.0022317285
40	0x3a868c3e	0.0010265184
41	0xbb3d9f09	-0.0028933904
42	0xbb6e6654	-0.003637691
43	0x3bc408d2	0.005982497
44	0xbc15d515	-0.009145041
45	0xbb37be40	-0.0028036982
46	0x3befdc57	0.0073199677
47	0xb92cdbc5	-0.00016485069
48	0xbb0347b6	-0.0020031757
49	0x3b28a102	0.0025730734
50	0x3b4422e3	0.002992802
51	0x3b0e46da	0.0021709711
52	0xbb0b5d73	-0.0021265417
53	0x3a18bc07	0.0005826358
54	0xb9b5422d	-0.00034572315
55	0x3a5f4cd0	0.0008518221
56	0xbb9c36f5	-0.0047672936
57	0x3a399473	0.00070793106
58	0xbb6453c8	-0.0034839977
59	0xbaefa20f	-0.001828255
60	0x3932f1f4	0.00017065537
61	0x3a08d082	0.00052190584
62	0xbb80501d	-0.0039158002
63	0x3a7d6294	0.00096658734
64	0x3a266825	0.0006347916
65	0xbb934688	-0.004494492
66	0x3a25d938	0.00063266186
67	0xba8742cc	-0.001031959
68	0x3b8db107	0.004324082
69	0x39be9908	0.0003635364
70	0xba5bb9a5	-0.000838185
71	0xb9b7e78b	-0.00035076993
72	0x3aaacfb3	0.001303187
73	0xbaa6671f	-0.0012695527
74	0xbb994bbb	-0.004678217
75	0x3b19cecb	0.0023469205
76	0xba674106	-0.000882164
77	0x3bab46cf	0.005226947
78	0x3b29c166	0.0025902628
79	0xbaf58bfe	-0.0018733738
80	0x39ab36cf	0.00032656497
81	0x3a228015	0.0006198895
82	0xbb84b572	-0.0040499503
83	0xbaaa9939	-0.0013015635
84	0xbb80ab3b	-0.0039266623
85	0xbb1f8dab	-0.0024345915
86	0x3b47d422	0.0030491431
87	0x38378743	4.3756572e-05
88	0x3b4c4e90	0.0031174757
89	0x3b45a5fc	0.003015875
90	0xbae6c03b	-0.0017604897
91	0xba835381	-0.0010019393
92	0x3b75e755	0.0037521918
93	0x3b3f492e	0.0029187906
94	0xbb0f7fa6	-0.0021896153
95	0xba21d2d7	-0.000617308
96	0xbb8856d8	-0.004160743
97	0x39d094f2	0.00039783824
98	0x3b7d8a34	0.0038687112
99	0x3a1ce906	0.0005985651
100	0x3b3e4aa3	0.0029036186
101	0x3a4648d4	0.0007563953
102	0xb9af0715	-0.00033383878
103	0x3a35595b	0.0006917917
104	0x3a948a6d	0.0011332758
105	0xba71c321	-0.0009222497
106	0xbb252efe	-0.0025205011
107	0xbb1f1d29	-0.0024278855
108	0xbb513c09	-0.0031926653
109	0xba86cfa1	-0.0010285267
110	0x3a540c6f	0.0008089011
111	0xbab6ef12	-0.0013956747
112	0x3a36c0a6	0.0006971456
113	0x3b1923f0	0.0023367368
114	0x39f306f8	0.00046353764
115	0xbba8fd12	-0.0051571215
116	0xbb0a3da0	-0.002109386
117	0x3b51b4c7	0.003199862
118	0xb99af8c6	-0.0002955852
119	0x3b443bbf	0.0029942838
120	0xbb50cfb6	-0.0031862087
121	0xba681a63	-0.00088540296
122	0x3b958e20	0.0045640618
123	0x395d55a5	0.00021108107
124	0xba1ddab1	-0.0006021662
125	0x3a89fb17	0.0010527101
126	0x3a371c31	0.0006985097
127	0xbc119652	-0.008885937
