code/trained_model/metatransferpinn_ntask14.pth (torch, 519355 bytes, 14 tensors)

layer1.0.layer.weight f4 [256, 3]
0.20657924 -0.10609443 0.040103193 -0.041552655 0.5762545 -0.08611879 -0.13813876 0.48112577
-0.046501365 0.6113999 -0.38656142 -0.43463016 0.26532233 -0.1066563 -0.0072434274 0.14829165
-0.7374723 -0.22306375 0.16047572 0.052265987 0.1726087 0.5904442 0.08732845 -0.4427394
-0.6291749 -0.29364997 -0.061071664 -0.55808336 -0.6746529 0.4367519 0.30028096 0.6643108
0.3669881 -0.65300363 -0.039127626 0.02349654 -0.2702094 -0.13328402 -0.42382443 0.5873219
0.465779 0.52966243 0.41173428 0.040965367 -0.2761074 -0.39032266 -0.2416243 0.07448627
0.27116463 -0.48984396 -0.187972 -0.52312714 -0.0116724195 0.44899353 -0.1222297 0.34832746
-0.18923442 -0.46214867 -0.021203471 -0.26492807 0.37548852 0.80914235 0.3206435 -0.1602974
-0.3377097 -0.3683221 -0.11069943 -0.76485145 0.020797152 0.49799424 0.05639366 0.26158595
-0.11496753 0.86475456 0.21764469 -0.014293395 -0.09416253 -0.030548774 0.4975508 0.36019194
0.25389874 0.03899949 -0.88421446 0.12604585 -0.38401172 -0.7459297 -0.25006065 0.6604534
0.0015623878 -0.30692196 0.7312341 0.24135333 -0.11446297 -0.40610054 -0.055697154 -0.036559075
0.1431655 0.6432865 -0.4822092 -0.41552716 -0.36152023 0.07882318 0.20554332 0.3092995
-0.53203297 0.3201112 0.41769728 -0.025873823 -0.3460829 -0.40489015 -0.37229264 8.684226e-05
0.29730627 -0.42152876 0.06360807 -0.8366893 -0.04913914 0.35967624 0.1295777 -0.25726345
0.37448177 0.9950597 -0.13697535 0.6129465 -0.24549063 0.50152093 0.31677145 0.63140935
0.36901262 0.24841556 -0.0046556573 0.59138304 -0.52782476 -0.71762383 -0.2682736 -0.36688468
-0.3100598 0.020189213 0.17393851 0.28144577 0.5905441 -0.16425173 -0.1266834 -0.4810226
-0.38157782 0.39564833 -0.8003243 0.029407984 -0.47373563 -0.42167383 0.3391303 -0.9841616
0.0029819817 0.39314365 0.039187565 -0.2993212 -0.635897 0.21487857 0.36185548 0.043143228
0.4606621 -0.11540473 -0.7363279 -0.24316049 0.12687507 -0.54816854 -0.0017677672 -0.18827039
0.53375363 -0.51715946 0.5955013 0.35573465 -0.002362056 0.095624894 -0.46865472 -0.18348226
-0.32404032 0.20508039 -0.26712143 0.088820614 0.2636787 0.006315153 0.517281 0.21285222
-0.24249464 0.12964205 0.69492793 0.82078946 -0.099475116 0.2837147 0.3288258 0.32794023
0.14835909 0.45726657 -0.53075683 0.6497066 -0.5166156 0.56891835 -0.42060077 0.16845249
-0.2842468 0.40471613 0.3964408 0.20302996 0.41457617 0.07125314 -0.12987863 0.2388159
-0.8947329 -0.17078899 -0.21096626 -0.24556018 0.1420809 -0.4700756 -0.08045035 -0.005119687
0.41220546 0.021909678 0.41472384 -0.7254909 -0.33331314 0.11619136 -0.6505203 -0.3839009
0.028894423 -0.5540386 -0.54186577 -0.57182944 -0.45560634 -0.34833875 -0.33845145 0.32568642
-0.11427356 -0.26455295 -0.6472197 -1.0007998 -0.033050593 -0.42715526 0.033272043 0.03313446
-0.28672224 -0.1218913 -0.05146839 0.06599876 0.20530635 -0.4736387 0.14053796 0.14594907
0.27249333 0.5457317 0.5811412 0.19234192 -0.33247146 -0.1006393 0.040586654 -0.429139
00000000: 8289 533e 0948 d9bd 3f43 243d 1e33 2abd
00000010: 6a85 133f 0c5f b0bd 3f74 0dbe 1e56 f63e
00000020: 3778 3ebd b484 1c3f 61eb c5be d887 debe
00000030: 54d8 873e 9e6e dabd 465a edbb c4d9 173e
00000040: fcca 3cbf d36a 64be bf53 243e dc14 563d
00000050: 56c0 303e 5a27 173f 42d9 b23d bdae e2be
00000060: 9b11 21bf 4a59 96be 4826 7abd 8dde 0ebf
00000070: 0db6 2cbf f29d df3e 6dbe 993e 4610 2a3f
00000080: dde5 bb3e 3f2b 27bf 4a44 20bd d17b c03c
00000090: e358 8abe 9b7b 08be 84ff d8be ba5a 163f
000000a0: 967a ee3e f597 073f d6ce d23e 4dcb 273d
000000b0: f35d 8dbe 5fd8 c7be 5c6c 77be 428c 983d
000000c0: 17d6 8a3e d4cc fabe bb7b 40be a9eb 05bf
000000d0: ad3d 3fbc 7be2 e53e 9153 fabd fa57 b23e
000000e0: abc6 41be c09e ecbe e7b2 adbc a7a4 87be
000000f0: 0840 c03e f423 4f3f 632b a43e 0025 24be
00000100: 49e8 acbe b794 bcbe 62b6 e2bd 4ecd 43bf
00000110: ca5e aa3c 1af9 fe3e 0afd 663d 98ee 853e
00000120: 1974 ebbd 8e60 5d3f 40de 5e3e d82e 6abc
00000130: 49d8 c0bd 6c41 fabc fabe fe3e 146b b83e
00000140: 04ff 813e eebd 1f3d e15b 62bf 2a12 013e
00000150: 2f9d c4be 40f5 3ebf f307 80be 7913 293f
00000160: 09c9 cc3a e024 9dbe 2832 3b3f 5425 773e
00000170: 906b eabd 69ec cfbe b322 64bd f8be 15bd
00000180: fa99 123e 6dae 243f 20e4 f6be fabf d4be
00000190: 2e19 b9be 0c6e a13d f379 523e 815c 9e3e
000001a0: 5033 08bf 9de5 a33e 6bdc d53e 57f5 d3bc
000001b0: c731 b1be c34d cfbe 249d bebe 151f b638
000001c0: 8738 983e 9ed2 d7be f344 823d 4531 56bf
000001d0: 1f46 49bd 7c27 b83e 04b0 043e 09b8 83be
000001e0: 13bc bf3e 3cbc 7e3f 4443 0cbe 10ea 1c3f
000001f0: e561 7bbe ad63 003f de2f a23e 0ba4 213f
00000200: 39ef bc3e a660 7e3e 7c8e 98bb e164 173f
00000210: 861f 07bf 32b6 37bf 285b 89be 4fd8 bbbe
00000220: 28c0 9ebe d963 a53c f01c 323e a919 903e
00000230: e62d 173f 9b31 28be 4bb9 01be 9848 f6be
00000240: 2b5e c3be 6b92 ca3e 0ee2 4cbf 03e9 f03c
00000250: 7a8d f2be a2e5 d7be 7da2 ad3e 04f2 7bbf
00000260: 5a6d 433b 204a c93e 2483 203d a140 99be
00000270: 25ca 22bf 2109 5c3e 1f45 b93e f4b6 303d
00000280: e7db eb3e 5159 ecbd fc7f 3cbf 10ff 78be
00000290: 8aeb 013e c654 0cbf 6db4 e7ba f4c9 40be
000002a0: 14a4 083f 9064 04bf c672 183f da22 b63e
000002b0: b9cc 1abb fcd6 c33d 83f3 efbe c6e2 3bbe
000002c0: 9de8 a5be 9800 523e 24c4 88be 95e7 b53d
000002d0: e500 873e 58ef ce3b 876c 043f eff5 593e
000002e0: 8450 78be e3c0 043e cce6 313f 421f 523f
000002f0: 9cb9 cbbd 0e43 913e db5b a83e c8e7 a73e
00000300: 72eb 173e d81e ea3e aedf 07bf 2c53 263f
00000310: ec40 04bf a2a4 113f fc58 d7be cf7e 2c3e
00000320: cc88 91be f436 cf3e 4afa ca3e 16e7 4f3e
00000330: 5443 d43e 2bed 913d e7fe 04be 288c 743e
00000340: 370d 65bf 4fe3 2ebe 8a07 58be 2174 7bbe
00000350: a87d 113e c0ad f0be 27c3 a4bd 0cc3 a7bb
00000360: 980c d33e ed7b b33c af56 d43e c6b9 39bf
00000370: 05a8 aabe bcf5 ed3d 8088 26bf a98e c4be
00000380: ffb3 ec3c 79d5 0dbf b7b7 0abf 6a63 12bf
00000390: 3c45 e9be 7559 b2be 8249 adbe 5fc0 a63e
000003a0: 4208 eabd 7c73 87be 31b0 25bf 351a 80bf
000003b0: 0f60 07bd 18b4 dabe 4448 083d 00b8 073d
000003c0: 42cd 92be 25a2 f9bd 85d0 52bd 5c2a 873d
000003d0: d43b 523e c680 f2be 2fe9 0f3e ac73 153e
000003e0: 3f84 8b3e 13b5 0b3f abc5 143f 48f5 443e
000003f0: b339 aabe fa1b cebd 313e 263d 1bb8 dbbe

layer1.0.layer.bias f4 [256]
-0.36859038 0.14371075 0.34077835 0.5545149 0.08345749 0.44643387 0.24181592 -0.20484549
0.2617077 -0.05947823 0.44550645 0.2400051 -0.05561076 0.34351856 0.05747428 -0.0123416595
-0.1621627 -0.6809724 -0.19909658 0.07963705 0.1096796 0.11439385 0.35886797 -0.61975443
-0.36084083 0.13174236 0.008801384 0.024873152 0.33866322 0.08202497 -0.36770606 0.2919129
0.094243415 0.37808967 -0.19695385 0.21379857 0.07611497 0.5833933 0.03933972 0.77013266
0.069928594 0.6081659 0.039594892 -0.031220168 -0.61586756 -0.0038922476 -0.24166392 -0.43272543
-0.5894148 -0.06595491 -0.042103432 0.41258794 -0.2143042 0.12592632 0.31453887 0.6331839
-0.21085416 -0.36923823 0.39157647 0.31370896 -0.28899303 0.33395466 -0.18939337 -0.46344855
0.347686 0.44838336 -0.026307179 0.12002427 0.40710425 -0.09780565 -0.57498556 0.22330669
-0.23103504 0.43480393 0.42828554 -0.28843722 0.63421804 0.5397603 0.047932055 -0.12410027
-0.078030184 0.46602187 0.2606436 0.100332394 -0.5070251 0.42352837 -0.36366698 0.36074132
-0.072284564 -0.33143997 0.16896099 0.32384494 -0.35602298 0.6184765 0.5168961 0.3807049
-0.32113063 -0.26293993 -0.47033048 0.24581237 0.62426543 -0.5480483 0.38758016 -0.3005567
-0.17343795 0.35646683 0.35454413 0.3464644 0.06053755 0.032593314 -0.24527676 0.123602755
-0.097211115 -0.21023455 -0.498661 0.0968739 0.36914203 0.20765078 0.17386141 -0.58249235
0.5234307 0.50378156 0.3976035 -0.03528304 -0.45849508 -0.1574063 -0.41510808 -0.73355764
0.52256125 0.045480985 -0.36826646 0.3614909 -0.29503968 -0.41797355 0.22973387 -0.51848334
0.29396862 -0.19074938 0.2377754 0.05334398 0.20491616 0.011531816 0.21556897 -0.038883887
0.53290737 0.0131735755 -0.18391417 -0.45073327 -0.01718243 0.032293286 -0.35885152 -0.3400664
-0.23275198 0.03417887 -0.41365907 -0.7071812 0.4004422 0.5410219 -0.41227585 0.24613623
0.13634643 -0.47370362 -0.5739408 0.0068263407 0.1700567 -0.3804581 0.2893584 -0.30292132
-0.10972749 0.17433894 -0.32505342 0.1714308 -0.26075396 -0.51577264 0.2839215 -0.32107165
-0.36506802 -0.53385836 -0.057341117 0.16187936 0.041590422 0.18223995 -0.57419974 0.44336808
0.24848537 0.41028023 -0.1140505 0.40513673 0.3553755 0.11157667 0.49996442 -0.0885532
-0.23880473 0.075509585 0.07262134 -0.322011 0.12991388 -0.20888987 -0.1705819 -0.041086085
-0.12262982 -0.12535363 0.24462889 0.56996644 0.3581828 0.1474181 0.29756904 -0.15475547
-0.2110345 -0.59897953 0.17158915 -0.28391623 -0.046355255 0.39750454 0.27570176 0.037336383
-0.5286342 0.48464513 -0.22491093 0.02241801 0.5001768 0.5952926 0.34786096 -0.3366031
-0.39513782 -0.46945772 0.28483912 0.22056209 -0.23393469 -0.116771854 0.08451757 0.10104504
0.5606521 -0.5078205 0.2690537 0.20756267 -0.5304237 0.1906674 0.013556985 0.13348144
0.13405117 0.177531 0.4925126 0.19101761 -0.11342101 -0.5590642 0.40199846 -0.20859212
-0.5077997 0.15063113 -0.4232937 -0.45344037 0.33133388 0.24957752 -0.33184814 0.11620982
00000000: e1b7 bcbe e928 133e 807a ae3e b0f4 0d3f
00000010: c3eb aa3d fb92 e43e 989e 773e 04c3 51be
00000020: 8dfe 853e 729f 73bd 6c19 e43e e6c3 753e
00000030: 1cc8 63bd aae1 af3e 276a 6b3d ac34 4abc
00000040: fb0d 26be 3554 2ebf f9df 4bbe c018 a33d
00000050: b39f e03d 5347 ea3d 8bbd b73e 3aa8 1ebf
00000060: 21c0 b8be 78e7 063e ae33 103c c8c2 cb3c
00000070: 4465 ad3e b5fc a73d f843 bcbe 9c75 953e
00000080: b102 c13d f894 c13e 45ae 49be 03ee 5a3e
00000090: 2ae2 9b3d 4359 153f b022 213d 6a27 453f
000000a0: b936 8f3d c3b0 1b3f 412e 223d 70c1 ffbc
000000b0: 7fa9 1dbf 1415 7fbb bf76 77be 308e ddbe
000000c0: e3e3 16bf 5e13 87bd a674 2cbd ba3e d33e
000000d0: 8f72 5bbe d4f2 003e 3d0b a13e 5718 223f
000000e0: 27ea 57be cb0c bdbe b67c c83e 769e a03e
000000f0: e5f6 93be 1bfc aa3e 56f0 41be 2149 edbe
00000100: e603 b23e 8192 e53e 2782 d7bc 49cf f53d
00000110: f86f d03e 544e c8bd 4132 13bf 82aa 643e
00000120: 7394 6cbe 9f9e de3e 3e48 db3e 0bae 93be
00000130: 1d5c 223f bb2d 0a3f 6754 443d 4828 febd
00000140: 4ace 9fbd 6b9a ee3e 1473 853e 127b cd3d
00000150: 66cc 01bf b6d8 d83e 8f32 babe 16b3 b83e
00000160: ee09 94bd 80b2 a9be 1c04 2d3e 01cf a53e
00000170: a548 b6be 7a54 1e3f 4e53 043f c1eb c23e
00000180: 3c6b a4be 10a0 86be 28cf f0be 3db6 7b3e
00000190: dccf 1f3f e54c 0cbf e870 c63e 91e2 99be
000001a0: b899 31be d282 b63e cf86 b53e c863 b13e
000001b0: 39f6 773d 9180 053d d529 7bbe 7123 fd3d
000001c0: 9f16 c7bd ba47 57be 7f50 ffbe d365 c63d
000001d0: 2f00 bd3e 68a2 543e ba08 323e 381e 15bf
000001e0: 8eff 053f d4f7 003f b092 cb3e f384 10bd
000001f0: debf eabe 1e2f 21be 0c89 d4be 6fca 3bbf
00000200: 93c6 053f 454a 3a3d 6c8d bcbe 5615 b93e
00000210: 710f 97be a100 d6be 5b3f 6b3e 53bb 04bf
00000220: 0e83 963e ce53 43be 657b 733e 387f 5a3d
00000230: 8bd5 513e f1ef 3c3c 1dbe 5c3e b644 1fbd
00000240: 9e6c 083f fbd5 573c ff53 3cbe 83c6 e6be
00000250: 2bc2 8cbc f745 043d 63bb b7be 2f1d aebe
00000260: 8956 6ebe 25ff 0b3d 1fcb d3be d409 35bf
00000270: c306 cd3e 6980 0a3f d215 d3be 230b 7c3e
00000280: 669e 0b3e 4889 f2be c9ed 12bf 7faf df3b
00000290: 5823 2e3e 67cb c2be c926 943e 8118 9bbe
000002a0: ceb8 e0bd e885 323e 676d a6be 8e8b 2f3e
000002b0: 8b81 85be ad09 04bf 295e 913e 8163 a4be
000002c0: 32ea babe f1aa 08bf 85de 6abd b4c3 253e
000002d0: b85a 2a3d 1c9d 3a3e c1fe 12bf 2401 e33e
000002e0: f372 7e3e 4010 d23e 4f93 e9bd 156e cf3e
000002f0: c7f3 b53e 4f82 e43d 56fb ff3e 615b b5bd
00000300: 3a89 74be c5a4 9a3d 7fba 943d a0de a4be
00000310: 2508 053e 3ae7 55be 06ad 2ebe e249 28bd
00000320: 5825 fbbd b45c 00be ff7f 7a3e 52e9 113f
00000330: bc63 b73e c5f4 163e f85a 983e 3878 1ebe
00000340: 6e19 58be b956 19bf 11b5 2f3e 785d 91be
00000350: 02df 3dbd b785 cb3e c828 8d3e 09ee 183d
00000360: 9254 07bf 6823 f83e 0d4f 66be f9a5 b73c
00000370: 960b 003f 1965 183f d51a b23e 3e57 acbe
00000380: 814f cabe c35c f0be 6fd6 913e 07db 613e
00000390: 938c 6fbe 1526 efbd 8c17 ad3d b4f0 ce3d
000003a0: e586 0f3f 8600 02bf 68c1 893e 4f8b 543e
000003b0: d9c9 07bf 513e 433e 1e1e 5e3c 5caf 083e
000003c0: b644 093e b0ca 353e 9d2a fc3e 1f9a 433e
000003d0: 4649 e8bd d51e 0fbf bed2 cd3e 2c99 55be
000003e0: 29ff 01bf 0c3f 1a3e f4b9 d8be 5629 e8be
000003f0: 98a4 a93e 4091 7f3e 00e8 a9be 6aff ed3d

layer1.1.layer.weight f4 [256, 256]
0.078485504 -0.063375585 -0.12638265 0.091671355 0.06475256 0.10502269 -0.0330569 0.22548604
-0.022302158 -0.14635177 0.012769077 -0.09186157 0.047059745 -0.08042022 0.18253787 -0.14946486
0.06573361 -0.12209049 -0.035713084 0.024871582 0.040926963 -0.05604669 -0.057649784 -0.016882489
-0.07190745 -0.039934047 -0.0286436 0.05431791 -0.029197508 0.08588978 0.12908046 -0.10998517
-0.050206173 -0.066317685 0.03717161 0.051000874 0.005634525 -0.06363094 0.11418756 0.039992217
0.10170747 -0.046947446 0.03050206 -0.07243209 -0.0040843687 -0.0352778 0.00485983 -0.060555775
0.076743685 -0.05547773 0.16922015 0.16271946 -0.10821697 -0.040401705 -0.1831579 -0.03633657
-0.09916863 0.0713534 -0.021012045 -0.0017914894 -0.0471173 -0.0037050284 0.045367297 -0.014482164
-0.037910238 -0.16191027 0.024169333 0.0058787772 0.120769836 0.1636584 -0.046465598 -0.12408019
-0.06345061 -0.12172475 -0.15060474 0.15766987 0.011663466 0.116495825 0.060261726 -0.15848991
-0.032303914 -0.0015545278 -0.008685815 -0.039146457 -0.05546947 0.021997973 0.020815348 0.01892305
0.035930596 0.110311724 -0.014438327 0.15152264 0.04714628 -0.1645854 -0.020224994 -0.089058645
-0.032906305 -0.17315918 0.05745152 0.044812832 -0.04778327 -0.018534405 -0.0637254 -0.042194016
-0.041992288 -0.0010700714 -0.09569731 0.1604564 0.018737912 0.02447882 -0.18138327 -0.16159356
0.16543238 0.0051739723 0.13183096 -0.0003368814 -0.0018090924 0.040824726 -0.06380628 0.1267963
-0.13989379 -0.025486384 -0.0633885 0.11776964 0.0250394 0.030637363 -0.11487873 -0.12930454
-0.046942554 -0.113825046 -0.04785922 0.089429274 0.06728772 0.15981007 -0.07288326 0.06354322
-0.12942307 -0.04216842 -0.06258385 0.11594315 0.107334584 0.10266833 -0.07931141 0.107664175
0.013846637 -0.032533154 -0.12217815 -0.10842198 -0.05491106 0.0060450085 0.07041397 0.031517003
-0.004337243 -0.00018744775 -0.0886242 -0.14183274 -0.1771526 0.07826547 0.061131984 0.072020546
-0.13364051 0.08372112 0.049567778 0.024642963 0.10641488 -0.008744764 -0.11340325 0.032064732
0.12240831 -0.05979254 0.03195694 -0.12303241 -0.016619377 -0.07309861 -0.064875185 0.1621837
-0.114828706 -0.011636897 0.12797697 -0.08181214 0.064913504 0.07545796 0.047321115 0.10904624
-0.05019242 -0.051498387 -0.043824624 0.03939954 0.004881376 0.037328444 -0.015245455 0.034315556
-0.018684005 -0.028022403 -0.08384619 0.034210876 0.015807008 0.038160183 -0.08265812 0.15047388
-0.18578993 -0.100787506 0.058949843 -0.15635876 -0.070386864 0.04079479 -0.055326987 0.04514448
-0.19026585 -0.036438804 -0.06121048 -0.07762188 -0.013188152 -0.07103359 0.030484157 -0.009846157
0.03523775 -0.0072004516 -0.007843934 -0.1929884 0.056209102 -0.0472856 0.06677491 -0.022240048
-0.0460846 -0.08517238 -0.08919059 -0.24007057 -0.11178958 0.17417313 -0.021523328 -0.022501182
-0.034304187 0.097195394 0.1027392 0.16877034 -0.0032913487 -0.08843557 -0.17188513 -0.14323764
0.07889951 -0.055377007 0.11719272 0.009455862 0.14663632 -0.078076735 0.15964004 -0.06886092
0.07858319 -0.06609889 0.08425814 0.0030217406 0.00477502 -0.1843348 0.1691848 0.027417293
00000000: 02bd a03d 0fcb 81bd 746a 01be 31be bb3d
00000010: fd9c 843d 2316 d73d ac66 07bd d0e5 663e
00000020: 04b3 b6bc 3ddd 15be 6435 513c eb21 bcbd
00000030: b8c1 403d 5bb3 a4bd 35eb 3a3e 510d 19be
00000040: 589f 863d 940a fabd e247 12bd 7dbf cb3c
00000050: 08a3 273d 3791 65bd 2e22 6cbd 254d 8abc
00000060: 3744 93bd e291 23bd fca5 eabc 757c 5e3d
00000070: 9d2f efbc fbe6 af3d ab2d 043e e83f e1bd
00000080: fda4 4dbd 91d1 87bd 4241 183d 4be6 503d
00000090: d2a1 b83b f050 82bd 2bdb e93d e1ce 233d
000000a0: 024c d03d f74b 40bd 75df f93c 4757 94bd
000000b0: 2bd6 85bb 747f 10bd 353f 9f3b 5509 78bd
000000c0: cb2b 9d3d 9e3c 63bd 0c48 2d3e ee9f 263e
000000d0: dca0 ddbd 427c 25bd bf8d 3bbe a8d5 14bd
000000e0: ec18 cbbd bb21 923d 7421 acbc 69d0 eaba
000000f0: 12fe 40bd 10d0 72bb 0fd3 393d 9946 6dbc
00000100: c447 1bbd cecb 25be c4fe c53c c2a2 c03b
00000110: 2d56 f73d 1196 273e b652 3ebd c11d febd
00000120: 65f2 81bd d34a f9bd 2138 1abe 3674 213e
00000130: 1f18 3f3c 5d95 ee3d 00d5 763d 2e4b 22be
00000140: 1c51 04bd 4cc1 cbba f34e 0ebc 0958 20bd
00000150: f433 63bd 1835 b43c f384 aa3c 8304 9b3c
00000160: f62b 133d 1deb e13d bc8e 6cbc c028 1b3e
00000170: 751c 413d 1389 28be e3ae a5bc 6164 b6bd
00000180: c3c8 06bd a450 31be 4952 6b3d a98d 373d
00000190: 64b8 43bd 77d5 97bc 7682 82bd a2d3 2cbd
000001a0: 1b00 2cbd a341 8cba f4fc c3bd af4e 243e
000001b0: 4080 993c ce87 c83c 89bc 39be c878 25be
000001c0: 1b67 293e 6d8a a93b b2fe 063e 759f b0b9
000001d0: 111f edba d437 273d deac 82bd e4d6 013e
000001e0: 5140 0fbe d2c8 d0bc d4d1 81bd 3631 f13d
000001f0: 6e1f cd3c 35fb fa3c 8a45 ebbd 6968 04be
00000200: d646 40bd 1b1d e9bd 0808 44bd b226 b73d
00000210: 25ce 893d 40a5 233e d243 95bd f322 823d
00000220: 7b87 04be cbb8 2cbd f62b 80bd 9a73 ed3d
00000230: 3cd2 db3d c643 d23d 056e a2bd 097f dc3d
00000240: 01dd 623c 7c41 05bd 8a38 fabd 580c debd
00000250: 6bea 60bd 3515 c63b 3335 903d f917 013d
00000260: 6e1f 8ebb 9f8d 44b9 9b80 b5bd 9a3c 11be
00000270: 7e67 35be a649 a03d 8865 7a3d 827f 933d
00000280: 0fd9 08be fb75 ab3d 9507 4b3d 0ae0 c93c
00000290: 0bf0 d93d 3346 0fbc f73f e8bd 4f56 033d
000002a0: 35b1 fa3d 06e9 74bd 48e5 023d 6bf8 fbbd
000002b0: 5c25 88bc b9b4 95bd 48dd 84bd 7c13 263e
000002c0: 502b ebbd afa8 3ebc 650c 033e 208d a7bd
000002d0: 5ff1 843d b489 9a3d c9d3 413d a353 df3d
000002e0: 9196 4dbd f9ef 52bd 7381 33bd 6961 213d
000002f0: f3f3 9f3b b6e5 183d 13c8 79bc 788e 0c3d
00000300: 330f 99bc 3d8f e5bc 8db7 abbd b420 0c3d
00000310: b37d 813c da4d 1c3d a948 a9bd d315 1a3e
00000320: b73f 3ebe ae69 cebd 6475 713d 831c 20be
00000330: fd26 90bd 7018 273d 8d9e 62bd 6be9 383d
00000340: 0dd5 42be db40 15bd d7b7 7abd 38f8 9ebd
00000350: 1e13 58bc 0f7a 91bd e9b9 f93c c751 21bc
00000360: 7555 103d c4f1 ebbb d883 00bc c09e 45be
00000370: 843b 663d 8cae 41bd 49c1 883d c330 b6bc
00000380: 35c3 3cbd db6e aebd 8ea9 b6bd 0fd5 75be
00000390: eff1 e4bd 715a 323e b151 b0bc 6654 b8bc
000003a0: 8c82 0cbd 610e c73d ee68 d23d 22d2 2c3e
000003b0: abb3 57bb b51d b5bd a802 30be e3ac 12be
000003c0: 1196 a13d 00d3 62bd bd02 f03d c3ec 1a3c
000003d0: d527 163e b2e6 9fbd ae78 233e f406 8dbd
000003e0: 39f0 a03d db5e 87bd 888f ac3d 6508 463b
000003f0: c577 9c3b 43c2 3cbe c83e 2d3e 3b9a e03c

layer1.1.layer.bias f4 [256]
-0.009862927 0.04026202 0.15410914 0.048492294 -0.106379986 0.090332165 -0.0032370156 0.08304972
-0.22962677 -0.051821742 0.007862904 0.019679004 0.12864885 0.007622368 -0.108317494 -0.08104302
-0.044055883 0.032844327 -0.09363296 -0.08540944 -0.03362872 -0.03552906 0.032192305 -0.10605547
-0.045819923 -0.07827782 9.801953e-05 0.13461903 0.048239388 -0.040978525 0.24907185 -0.057836883
0.01991745 0.06266192 0.06506124 0.06297486 0.0059868414 0.00077113695 -0.0062928307 0.11107708
0.04658684 0.11003255 -0.18893805 0.016572267 0.06355851 0.05407109 -0.18410611 0.02597338
-0.09194882 -0.15137038 0.051924646 0.0035867589 -0.021645602 -0.092583045 0.011450672 -0.0100134825
0.16918407 0.100523315 0.13300627 0.11829312 0.09518946 -0.09558971 -0.095445454 -0.025712043
-0.21751978 0.11500084 0.07804285 -0.07623438 0.01654461 0.11405127 -0.08338267 -0.021459524
0.07367368 -0.031877797 0.111669786 -0.027120348 0.0068727043 -0.09316602 -0.083384 0.16132914
-0.022398483 -0.06253649 -0.017121043 0.13011535 -0.02671632 0.060470197 -0.1762239 -0.01858255
-0.01716094 0.084798634 -0.01134337 0.034179788 0.06880461 -0.021662273 0.021632545 0.018193658
0.06703251 0.025795795 -0.036997575 -0.048710715 0.113821216 0.0917274 -0.037021313 -0.14245483
-0.007317559 0.03510044 0.14456008 -0.05914143 0.022568425 -0.32594752 0.0017865909 -0.023035124
-0.015693156 -0.1173196 -0.118477054 -0.06607876 -0.08185123 -0.16073026 -0.07074588 0.049262136
-0.0007617604 -0.2567124 -0.02014882 0.06438891 0.114011966 -0.14415497 -0.038242497 -0.21589969
0.062093902 0.07334508 0.10294587 -0.037317205 -0.0046861684 -0.005162202 0.0072374977 0.06939281
-0.043544285 -0.071438745 0.03636686 0.04058433 0.08282281 0.07933813 0.16141877 -0.11312219
0.09301267 -0.27713948 0.2784833 -0.039792456 -0.13015936 0.13243698 0.03711555 0.020046223
0.20472595 -0.18347347 -0.06419784 -0.013557584 0.076067254 -0.177432 0.26014858 0.020440847
-0.033415385 -0.0073763044 0.016725166 0.028230976 -0.122827135 0.1292632 -0.06823067 0.008861727
-0.07306165 0.03756948 -0.097198226 0.11989695 -0.02384667 -0.17094293 0.13740307 0.16698425
-0.09389087 -0.0612081 -0.11367746 0.027641525 0.10689311 0.048005447 0.021813773 0.008709283
-0.026255675 -0.04461757 0.0393326 0.0051114294 -0.03558011 -0.0058042877 0.2591493 0.082319915
0.013414568 0.028821856 -0.00813597 -0.001851255 -0.013527966 0.006133397 -0.07871857 -0.15555237
0.021184431 -0.24545185 -0.056419775 0.08412053 -0.0041173478 0.13895439 0.16817906 0.1520183
-0.03200265 0.10241473 0.21478432 0.06114601 -0.09912823 0.026420215 -0.04363236 0.026244154
-0.18008295 0.01800338 -0.14105253 -0.19404674 0.0063778055 0.05521211 0.025182744 -0.0073395795
-0.062112335 0.12271674 -0.050451517 -0.036065713 -0.102452405 0.01230973 -0.04442992 0.041061364
0.051341187 -0.084630206 -0.16243692 -0.089329444 0.009832999 -0.10596417 0.074384645 -0.051953226
0.09779382 0.08839831 0.04331529 0.08548656 -0.009646799 -0.16046174 0.026233096 -0.069865964
0.005391055 0.06360292 -0.08402257 0.031418793 0.031199437 -0.04198012 -0.092060536 0.16544457
00000000: 1d98 21bc cae9 243d c9ce 1d3e db9f 463d
00000010: c0dd d9bd 1200 b93d 1c24 54bb f915 aa3d
00000020: 4823 6bbe 0943 54bd 69d3 003c dd35 a13c
00000030: 86bc 033e 0fc5 f93b 90d5 ddbd e2f9 a5bd
00000040: f173 34bd c687 063d a3c2 bfbd 25eb aebd
00000050: 45be 09bd eb86 11bd 14dc 033d 9c33 d9bd
00000060: acad 3bbd 1f50 a0bd d68f cd38 92d9 093e
00000070: aa96 453d 19d9 27bd b10c 7f3e 5ee6 6cbd
00000080: ec29 a33c e554 803d d43e 853d f7f8 803d
00000090: 442d c43b 2026 4a3a 1734 cebb 617c e33d
000000a0: d8d1 3e3d bf58 e13d fa78 41be 90c2 873c
000000b0: f72a 823d a679 5d3d 5086 3cbe 20c6 d43c
000000c0: aa4f bcbd d600 1bbe f0ae 543d d40f 6b3b
000000d0: 1e52 b1bc 2e9c bdbd 999b 3b3c 970f 24bc
000000e0: 973e 2d3e 2bdf cd3d cc32 083e aa43 f23d
000000f0: b1f2 c23d 8ac4 c3bd e878 c3bd 10a2 d2bc
00000100: 81bd 5ebe 8f85 eb3d eed4 9f3d c520 9cbd
00000110: 9088 873c b693 e93d 89c4 aabd e2cb afbc
00000120: 3ae2 963d 4b92 02bd 21b3 e43d 7e2b debc
00000130: 6c34 e13b d4cd bebd 3bc5 aabd 7733 253e
00000140: 067d b7bc 2213 80bd 6e41 8cbc f53c 053e
00000150: 2fdc dabc 99af 773d 0a74 34be 6f3a 98bc
00000160: 1a95 8cbc e8aa ad3d 8bd9 39bc 1b00 0c3d
00000170: 6ee9 8c3d 1475 b1bc bc36 b13c de0a 953c
00000180: 5748 893d b451 d33c c58a 17bd e384 47bd
00000190: 191b e93d 93db bb3d a9a3 17bd aedf 11be
000001a0: 22c8 efbb 7bc5 0f3d 8f07 143e 493e 72bd
000001b0: 6be1 b83c 98e2 a6be 0b2c ea3a 28b4 bcbc
000001c0: ef8e 80bc 4245 f0bd 19a4 f2bd 4d54 87bd
000001d0: 9ea1 a7bd 7996 24be 37e3 90bd 18c7 493d
000001e0: e0b0 47ba cf6f 83be 230f a5bc 55de 833d
000001f0: 1b7f e93d 5c9d 13be 2aa4 1cbd cf14 5dbe
00000200: 2d56 7e3d f235 963d 49d5 d23d edd9 18bd
00000210: 6e8e 99bb b027 a9bb 8828 ed3b d11d 8e3d
00000220: 7e5b 32bd 7a4e 92bd 6bf5 143d c13b 263d
00000230: 019f a93d 087c a23d f64a 253e 9bac e7bd
00000240: 6d7d be3d 3ae5 8dbe 5d95 8e3e 6afd 22bd
00000250: 7f48 05be 8f9d 073e 7a06 183d fa37 a43c
00000260: aea3 513e 78e0 3bbe 287a 83bd a120 5ebc
00000270: 26c9 9b3d bcb0 35be 3232 853e 9073 a73c
00000280: 92de 08bd edb4 f1bb 3703 893c a644 e73c
00000290: cb8c fbbd 935d 043e 86bc 8bbd c730 113c
000002a0: 59a1 95bd 74e2 193d dd0f c7bd 888c f53d
000002b0: 175a c3bc aa0b 2fbe 64b3 0c3e ebfd 2a3e
000002c0: db49 c0bd 58b5 7abd bacf e8bd 7b70 e23c
000002d0: c6ea da3d 5ca1 443d ccb2 b23c 61b1 0e3c
000002e0: 2416 d7bc eac0 36bd 381b 213d c77d a73b
000002f0: 73bc 11bd e531 bebb 38af 843e 5897 a83d
00000300: c7c8 5b3c d01b ec3c bb4c 05bc cfa5 f2ba
00000310: 67a4 5dbc aafa c83b 3437 a1bd 1f49 1fbe
00000320: f98a ad3c bb57 7bbe 6c18 67bd 6247 ac3d
00000330: d1ea 86bb 0f4a 0e3e 2237 2c3e afaa 1b3e
00000340: 3615 03bd d0be d13d 6cf0 5b3e 3d74 7a3d
00000350: be03 cbbd 356f d83c d8b7 32bd fbfd d63c
00000360: aa67 38be d37b 933c 1370 10be 30b4 46be
00000370: e9fc d03b 1826 623d 0b4c ce3c db80 f0bb
00000380: 8169 7ebd ea52 fb3d 40a6 4ebd a4b9 13bd
00000390: 91d2 d1bd c0ae 493c 26fc 35bd f62f 283d
000003a0: 234b 523d 9a52 adbd dd55 26be 5bf2 b6bd
000003b0: 961a 213c be03 d9bd fa56 983d e8cc 54bd
000003c0: 2048 c83d 2c0a b53d 606b 313d 9413 af3d
000003d0: 9c0d 1ebc 1550 24be cae6 d63c e315 8fbd
000003e0: 72a7 b03b 3f42 823d 0614 acbd feb0 003d
000003f0: f695 ff3c 59f3 2bbd 3c8a bcbd 4d6a 293e

layer1.2.layer.weight f4 [128, 256]
0.10417375 -0.17209609 -0.07064076 0.12623921 0.06912789 -0.07959364 -0.13779156 0.097629175
-0.01072819 0.06574076 0.033434067 0.044698335 0.10233778 0.0746253 -0.011463823 -0.016472582
0.08484623 0.067253485 -0.010992831 0.06699014 0.052760582 0.030042691 -0.05090051 0.09233955
0.07081466 0.16929123 0.11771078 -0.02611342 0.012358066 -0.042670924 0.12404831 -0.0342148
-0.010624258 -0.16963612 0.0392274 -0.17386635 0.12813345 -0.0095318165 -0.05859952 -0.017114928
0.018551776 -0.05149422 0.0046654968 0.16667852 0.05398278 -0.05183381 0.016821235 0.16504087
-0.044774607 0.07493099 -0.04708464 -0.14067318 0.05529698 -0.13408034 0.09525096 0.118910365
0.018714223 -0.023054073 0.026165279 0.017865965 0.06571837 -0.13772847 0.14069898 0.14442681
0.04724077 -0.04319628 0.04631161 0.11828675 -0.062353928 -0.033581868 0.15844388 0.03878667
0.014168338 0.06005031 -0.20292625 0.061265413 0.013583822 -0.095544845 -0.024135198 0.0771257
-0.004476961 -0.0050257044 0.18120112 -0.03300596 0.14215437 -0.15200321 0.05981742 0.018764261
0.05035709 -0.11742555 0.09759642 -0.04602882 -0.04913817 -0.16667892 -0.02614336 -0.0027206964
-0.036034144 -0.057673898 0.12390645 -0.014486889 0.027382636 0.015784863 -0.025536701 0.044701375
0.1641131 -0.03966279 0.023989102 0.01833257 0.09813321 -0.0719966 -0.047275227 -0.1328341
0.109288916 0.067600675 -0.0038505693 0.08024708 -0.038439423 0.023196189 0.009113806 -0.00919136
0.046073098 0.04829054 0.06995166 -0.07308597 0.057363007 0.11022466 -0.07151757 -0.03175569
-0.113306396 0.0018196893 -0.022954633 0.061411653 0.008772452 -0.081084244 -0.05709225 0.025460867
0.03109375 -0.027305419 -0.10972864 -0.0028494622 -0.12178761 -0.061084043 0.14256015 0.15452945
-0.05611856 -0.08898376 0.12506364 -0.017339451 0.011288819 -0.11288101 0.09418216 -0.06243237
-0.19307773 -0.101358406 0.0153182 -0.042708475 0.096338704 -0.06359318 0.07172646 -0.04440701
0.037885282 0.031577867 -0.07477966 -0.042706817 0.0017440878 0.056108568 -0.0742837 -0.013631961
0.0752516 -0.021822877 -0.04387826 -0.024868663 0.036178883 -0.09232734 -0.0048773414 -0.008420648
-0.009768213 0.08081171 0.008568006 0.013003723 0.01868451 0.016905904 0.00964204 -0.057125993
-0.03993316 -0.12817004 0.056518324 0.082908005 0.040818684 -0.045942817 0.05452245 -0.105378754
-0.010820513 0.055322517 -0.09342451 0.0774095 -0.17544344 0.050580073 0.11184265 -0.17981324
0.08977284 -0.06330111 0.0013800871 0.009599809 0.077396594 0.027658148 0.054595612 -0.08181439
0.013647626 0.045168396 0.10185732 0.09491213 -0.052834943 -0.049760338 0.16356519 0.040517632
0.030517673 -0.10271401 -0.038963098 0.18410787 -0.00846832 0.09593368 0.085466266 0.1718154
0.058757085 -0.0012991219 0.038846627 -0.0043237847 0.07348486 0.01614266 0.12639219 0.031963866
0.085419744 0.032633476 -0.031091703 -0.041238748 0.03983838 0.0052883034 -0.049302485 -0.07755904
0.007112155 0.060121868 -0.04328706 -0.036804665 0.08735236 0.044949953 0.009741037 -0.04363279
0.06476646 -0.16285533 0.09282701 -0.11814349 0.09413004 -0.12974198 -0.061148904 -0.015537515
00000000: 0c59 d53d f539 30be 1aac 90bd da44 013e
00000010: ec92 8d3d fe01 a3bd 3b19 0dbe cef1 c73d
00000020: 4ac5 2fbc 17a3 863d 29f2 083d 9a15 373d
00000030: 7896 d13d 26d5 983d c2d2 3bbc 82f1 86bc
00000040: dcc3 ad3d 32bc 893d 461b 34bc 2032 893d
00000050: 7b1b 583d 171c f63c 0e7d 50bd 851c bd3d
00000060: 4707 913d ae5a 2d3e 5912 f13d d0eb d5bc
00000070: 7c79 4a3c b5c7 2ebd 0a0d fe3d d124 0cbd
00000080: 5e11 2ebc 17b5 2dbe e9ac 203d 050a 32be
00000090: 6a35 033e 562b 1cbc 0d06 70bd 9b34 8cbc
000000a0: e5f9 973c 9aeb 52bd 06e1 983b c6ad 2a3e
000000b0: 0c1d 5d3d b04f 54bd b0cc 893c 7900 293e
000000c0: 9465 37bd 6b75 993d d3db 40bd a10c 10be
000000d0: 167f 623d 5b4c 09be ef12 c33d 4787 f33d
000000e0: 924e 993c e5db bcbc 9158 d63c a55b 923c
000000f0: 5a97 863d b108 0dbe 6513 103e 9fe4 133e
00000100: 8a7f 413d 95ee 30bd 3eb1 3d3d 5340 f23d
00000110: d566 7fbd 248d 09bd 1d3f 223e c5de 1e3d
00000120: 5122 683c 50f7 753d e6cb 4fbe 71f1 7a3d
00000130: ae8e 5e3c 04ad c3bd 2eb7 c5bc 14f4 9d3d
00000140: 79b3 92bb aaae a4bb c98c 393e 4231 07bd
00000150: ea90 113e bba6 1bbe 1c03 753d 82b7 993c
00000160: 3c43 4e3d cf7c f0bd a2e0 c73d b788 3cbd
00000170: 1b45 49bd e1ad 2abe 9a2a d6bc b64d 32bb
00000180: 8a98 13bd 773b 6cbd aac2 fd3d 6b5a 6dbc
00000190: 8d51 e03c 424f 813c 5832 d1bc ca18 373d
000001a0: 440d 283e 7375 22bd cb84 c43c 302e 963c
000001b0: 10fa c83d f472 93bd aba3 41bd aa05 08be
000001c0: ded2 df3d 3972 8a3d d559 7cbb 9558 a43d
000001d0: a872 1dbd ef05 be3c 1352 153c 5c97 16bc
000001e0: 25b7 3c3d 4dcc 453d d142 8f3d 19ae 95bd
000001f0: 79f5 6a3d 77bd e13d ce77 92bd 4112 02bd
00000200: 2f0d e8bd a482 ee3a 5b0b bcbc c98a 7b3d
00000210: 55ba 0f3c 7f0f a6bd 90d9 69bd 4f93 d03c
00000220: 52b8 fe3c 9daf dfbc 69b9 e0bd 0bbe 3abb
00000230: c86b f9bd 4333 7abd 4afb 113e f83c 1e3e
00000240: 93dc 65bd 1e3d b6bd af10 003e 770b 8ebc
00000250: bdf4 383c 292e e7bd 94e2 c03d 16b9 7fbd
00000260: 2bb6 45be ff94 cfbd 30f9 7a3c 15ef 2ebd
00000270: 3a4d c53d 243d 82bd 52e5 923d 20e4 35bd
00000280: 992d 1b3d cb57 013d 1426 99bd 58ed 2ebd
00000290: e099 e43a 19d2 653d 0d22 98bd 9758 5fbc
000002a0: 831d 9a3d e4c5 b2bc b1b9 33bd 5eb9 cbbc
000002b0: 4f30 143d 1e16 bdbd 1bd2 9fbb c2f6 09bc
000002c0: db0a 20bc 9c80 a53d d260 0c3c 910d 553c
000002d0: 4210 993c 407e 8a3c a6f9 1d3c f2fc 69bd
000002e0: f490 23bd 023f 03be c27f 673d accb a93d
000002f0: 7e31 273d 892e 3cbd ef52 5f3d d1d0 d7bd
00000300: 8548 31bc dd99 623d 5955 bfbd df88 9e3d
00000310: 72a7 33be 0d2d 4f3d c20d e53d f620 38be
00000320: d3da b73d 03a4 81bd 0ae4 b43a 8448 1d3c
00000330: 1b82 9e3d 5793 e23c a69f 5f3d 4e8e a7bd
00000340: 4b9a 5f3c 7f02 393d 929a d03d 4a61 c23d
00000350: 7469 58bd 7fd1 4bbd a27d 273e d1f5 253d
00000360: 3300 fa3c b95b d2bd c597 1fbd c686 3c3e
00000370: b5be 0abc e178 c43d f008 af3d 60f0 2f3e
00000380: 45ab 703d 4c47 aaba a41d 1f3d 89ae 8dbb
00000390: 3b7f 963d 9d3d 843c f46c 013e 8bec 023d
000003a0: 8cf0 ae3d aeaa 053d 07b4 febc f6e9 28bd
000003b0: 922d 233d 8149 ad3b 67f1 49bd 46d7 9ebd
000003c0: 150d e93b 5942 763d c64d 31bd 7dc0 16bd
000003d0: cbe5 b23d 711d 383d df98 1f3c 4cb8 32bd
000003e0: 47a4 843d 8cc3 26be 161c be3d 37f5 f1bd
000003f0: 40c7 c03d 15db 04be 4677 7abd 1091 7ebc

layer1.2.layer.bias f4 [128]
-0.038387243 -0.043819584 -0.044409625 -0.055017717 0.05971243 -0.004420195 -0.017432021 0.024350917
0.013872766 -0.009292493 0.025983987 -0.031707276 0.007486293 0.074917555 0.07781021 0.094397336
-0.013036702 -0.05233958 -0.08111549 -0.0363484 0.0036717025 -0.029167801 -0.051268913 0.020930897
-0.022983933 -0.001110473 -0.08541664 0.040980205 0.0039214366 -0.001493646 -0.016040156 -0.0492711
-0.014068389 -0.030413691 -0.0065718144 -0.07945641 -0.014115278 0.0057686223 0.051308803 -0.011957614
0.025903262 -0.075563975 -0.07365259 0.03888923 0.04960107 0.021868924 0.12891492 -0.0036928174
0.04411602 -0.023149366 0.020636782 -0.0180937 0.019414749 0.013214353 0.016792987 0.05919683
0.06378329 0.0020759914 -0.0810469 0.0076610427 -0.012666604 -0.0074179065 -0.028165905 -0.00087811396
0.035441093 0.05758864 0.024234116 0.11114082 -0.021302152 0.03591363 -0.059571754 -0.012864266
-0.03544645 0.0121377595 0.04710554 0.07338773 0.023663355 0.0030376958 0.005189825 -0.013962968
0.04332278 -0.00042532652 0.07188849 0.013292106 0.00035093827 0.031189406 0.0017001057 -0.0030814277
-0.023823828 0.0034356436 -0.09413906 0.0047238288 -0.11471165 0.066692956 0.028613117 0.044681914
-0.013713163 0.085208856 -0.0006066589 0.030880889 0.06873493 -0.018610762 0.0068375166 -0.004536813
0.05943636 -0.038315844 -0.07152154 0.044780213 0.023456668 0.022126751 0.060295593 -0.02958589
-0.018750696 -0.07761399 -0.033286646 0.09551011 0.003102695 -0.0492781 0.014483912 -0.020552745
-0.037373878 0.07311393 -0.033432916 0.055488035 -0.046665184 -0.011759182 0.04261066 -0.0032919375
00000000: f13b 1dbd 2a7c 33bd dee6 35bd 425a 61bd
00000010: 0595 743d 48d7 90bb 99cd 8ebc 937b c73c
00000020: 994a 633c 8a3f 18bc 5fdc d43c 7ddf 01bd
00000030: 944f f53b 606e 993d f65a 9f3d 6453 c13d
00000040: e497 55bc 0762 56bd e11f a6bd 0fe2 14bd
00000050: f2a0 703b 50f1 eebc 5aff 51bd 4677 ab3c
00000060: cd48 bcbc 4a8d 91ba ebee aebd dcda 273d
00000070: 657f 803b 71c6 c3ba a566 83bc 7ed0 49bd
00000080: 1a7f 66bc 2226 f9bc 6058 d7bb 0bba a2bd
00000090: c443 67bc b606 bd3b 2e29 523d dee9 43bc
000000a0: 1433 d43c 49c1 9abd 2bd7 96bd 504a 1f3d
000000b0: 7e2a 4b3d 7526 b33c 4602 043e 3203 72bb
000000c0: 00b3 343d bda3 bdbc 780e a93c 3d39 94bc
000000d0: ae0b 9f3c 0381 583c 7291 893c 6078 723d
000000e0: d0a0 823d 5b0d 083b ebfb a5bd 7c09 fb3b
000000f0: 9687 4fbc e911 f3bb 2fbc e6bc 3b31 66ba
00000100: ae2a 113d 11e2 6b3d a086 c63c cc9d e33d
00000110: da81 aebc 2c1a 133d 8301 74bd a4c4 52bc
00000120: 4c30 11bd 74dd 463c bdf1 403d 4e4c 963d
00000130: a7d9 c13c 1414 473b 680f aa3b efc4 64bc
00000140: 3a73 313d 5cfe deb9 463a 933d 22c7 593c
00000150: 23fe b739 ed80 ff3c 15d6 de3a c7f1 49bb
00000160: 302a c3bc 8928 613b fbcb c0bd 59ca 9a3b
00000170: f1ed eabd 5196 883d 0e66 ea3c 6204 373d
00000180: 2dad 60bc fb81 ae3d 3108 1fba ebf9 fc3c
00000190: e6c4 8c3d 9975 98bc 3f0d e03b 8ca9 94bb
000001a0: 8a73 733d 13f1 1cbd e379 92bd 756b 373d
000001b0: 3328 c03c 2943 b53c 83f8 763d 1c5e f2bc
000001c0: 0f9b 99bc 15f4 9ebd 9457 08bd ce9a c33d
000001d0: 9656 4b3b d5d7 49bd ee4d 6d3c 3b5e a8bc
000001e0: 5a15 19bd c2bc 953d f4f0 08bd 6c47 633d
000001f0: fe23 3fbd 96a9 40bc 8488 2e3d 8cbd 57bb

layer1.3.layer.weight f4 [128, 128]
-0.028399564 0.006447685 0.028524691 -0.008776339 -0.008710326 0.018544346 -0.068449356 0.04846976
-0.029823313 -0.016039582 0.05958165 -0.008888733 -0.02727512 -0.004952521 -0.003664386 0.013273666
-0.037788503 0.04553999 0.007885268 0.03743537 -0.0056258687 0.0033138304 -0.036625233 0.03647685
-0.005493943 -0.055154637 0.026235512 0.041545074 0.0022854342 0.05057437 -0.037594497 0.024531513
0.0014008548 -0.051987242 0.03890446 -0.02061648 0.0004859059 -0.020358875 0.046950843 0.013277455
-0.012465632 0.036989998 -0.02086699 -0.037785213 -0.05367783 -0.0035872872 0.037948743 -0.011040938
-0.009629572 -0.031513948 0.015395058 -0.012564103 0.058912713 0.0019535339 -0.027680364 0.082182385
-0.022722252 -0.043725196 -0.016329076 -0.0051369956 -0.00902678 -0.036588207 -0.010272807 -0.0135754505
0.0032987585 -0.03802825 -0.017117783 0.06962122 -0.044025343 -0.02448907 -0.032207318 0.008347968
0.026849616 -0.008885885 -0.019166643 -0.013581494 0.024522891 -0.012369859 0.011108036 0.020701673
0.015279691 -0.029245725 0.08118415 -0.0071236487 0.07075303 0.019612793 -0.018664181 -0.035212986
0.016090944 0.027256945 -0.04926033 0.006625203 0.014583742 -0.0059568053 0.0043819705 0.04280993
0.032487635 0.057988554 0.003370564 -0.033627976 0.0060559623 -0.04547976 0.0058231493 0.007060331
0.026636686 0.041421164 -0.003141375 0.023807406 0.037195943 -0.019396018 0.02792575 -0.044934038
-0.004073344 -0.010346854 -0.025078371 0.018406052 0.017922305 0.04967744 0.0055762725 0.003645519
-0.011490488 0.0375701 0.021567434 0.053504933 -0.0048622126 0.036045384 -0.0036869482 0.036661502
0.02745614 -0.01107574 0.029014507 0.05620414 -0.023108106 -0.027952949 -0.04664405 0.036387682
0.023660604 -0.047891818 -0.022883872 -0.025458433 -0.023237785 -0.011061097 0.07702392 0.019081013
-0.03420014 -0.08768109 -0.07617062 0.008191061 0.06150486 -0.023123493 0.028228363 -0.0360699
0.015217212 0.04847094 0.04267774 0.047795445 0.045963194 -0.040913835 -0.02833875 -0.040433142
-0.011545778 0.01386926 -0.0087746205 -0.05810212 -0.008308942 0.038858145 -0.039046574 -0.06862919
0.032751504 0.060393877 -0.028636595 -0.021686729 -0.05686966 -0.0038634667 -0.07998633 0.01178894
-0.015482972 -0.009111102 0.02682031 -0.008848639 0.0314686 -0.00960418 -0.0051472452 0.014013885
-0.04204756 0.0052559427 -1.4051555e-05 0.014838565 -0.040851627 0.060862575 -0.05542231 0.005915747
-0.04657016 0.0027287363 0.041079372 -0.011599848 -0.007808748 -0.020069897 0.026538301 0.042547192
0.034732614 0.03839813 0.003765852 0.030741706 -0.009924936 -0.002257813 -0.017901983 -0.03657142
0.05804402 -0.034777425 -0.0044250884 -0.020775003 0.035047114 -0.016433962 0.036521826 -0.036220346
-0.055784117 -0.039251395 -0.01021971 0.028460314 -0.026603868 -0.017068056 -0.095021375 0.02458648
-0.023127668 -0.02444453 -0.00047810088 -0.011341208 -0.03936802 -0.015443084 0.0048131924 0.039774545
0.012433938 -0.017912537 0.010863349 -0.03873191 0.046924155 0.0015982295 -0.0262952 0.0041655563
0.01981993 0.032546606 -0.05713123 -0.056087565 -0.024037058 -0.02057675 -0.011679043 0.026431797
-0.007699768 0.034273572 0.003234547 0.03602296 -0.013459149 -0.050512783 -0.007879354 -0.017971385
00000000: 34a6 e8bc 1a47 d33b 9dac e93c a2ca 0fbc
00000010: c1b5 0ebc 50ea 973c 2d2f 8cbd 3a88 463d
00000020: 0550 f4bc 7165 83bc e30b 743d 0ca2 11bc
00000030: 1370 dfbc c248 a2bb 3226 70bb ca79 593c
00000040: 1ec8 1abd 2488 3a3d 3631 013c d555 193d
00000050: 3559 b8bb d92c 593b 5704 16bd c068 153d
00000060: 8906 b4bb d4e9 61bd dbeb d63c 2b2b 2a3d
00000070: 39c7 153b 1227 4f3d b0fc 19bd 50f6 c83c
00000080: e39c b73a 93f0 54bd 485a 1f3d e4e3 a8bc
00000090: 30c1 fe39 a8c7 a6bc 874f 403d af89 593c
000000a0: a63c 4cbc d382 173d 40f1 aabc abc4 1abd
000000b0: 49dd 5bbd b118 6bbb 2470 1b3d 0de5 34bc
000000c0: 5ac5 1dbc c514 01bd 8e3b 7c3c abd9 4dbc
000000d0: 754e 713d dc06 003b eec1 e2bc 3d4f a83d
000000e0: 0424 babc 3119 33bd 8ec4 85bc 3e54 a8bb
000000f0: 0fe5 13bc 84dd 15bd 474f 28bc 916b 5ebc
00000100: fc2f 583b 83c3 1bbd 983a 8cbc 9295 8e3d
00000110: eb53 34bd 4d9d c8bc d2eb 03bd eac5 083c
00000120: baf3 db3c 1a96 11bc 5d03 9dbc ea84 5ebc
00000130: 3be4 c83c f3aa 4abc 7bfe 353c 8e96 a93c
00000140: ab57 7a3c bb94 efbc e043 a63d 7f6d e9bb
00000150: f7e6 903d 02ab a03c a0e5 98bc 7e3b 10bd
00000160: 28d1 833c f549 df3c 33c5 49bd 3b18 d93b
00000170: a6f0 6e3c 4e31 c3bb a296 8f3b 7759 2f3d
00000180: c111 053d 6885 6d3d aee4 5c3b 7dbd 09bd
00000190: 1871 c63b fc48 3abd 1ed0 be3b 595a e73b
000001a0: 2e35 da3c 3da9 293d 87df 4dbb c007 c33c
000001b0: c65a 183d 66e4 9ebc 8bc4 e43c c10c 38bd
000001c0: b079 85bb da85 29bc 2871 cdbc 4ac8 963c
000001d0: ccd1 923c 927a 4b3d 2ab9 b63b a9e9 6e3b
000001e0: 9a42 3cbc 1be3 193d 30ae b03c fd27 5b3d
000001f0: 3253 9fbb 53a4 133d baa0 71bb 5f2a 163d
00000200: b3eb e03c 0577 35bc d5af ed3c 5036 663d
00000210: 364d bdbc 95fd e4bc d50d 3fbd 400b 153d
00000220: e2d3 c13c 362a 44bd f576 bbbc 348e d0bc
00000230: 2b5d bebc 9a39 35bc b8be 9d3d c94f 9c3c
00000240: 7215 0cbd 2592 b3bd 58ff 9bbd cd33 063c
00000250: 85ec 7b3d 7b6d bdbc 2b3f e73c 08be 13bd
00000260: 9d51 793c 7789 463d dbce 2e3d 28c5 433d
00000270: e743 3c3d 4495 27bd ab26 e8bc 399d 25bd
00000280: 812a 3dbc e53b 633c 6dc3 0fbc 7dfc 6dbd
00000290: 3b22 08bc b829 1f3d 4def 1fbd 768d 8cbd
000002a0: 7126 063d 925f 773d 4b97 eabc 5ea8 b1bc
000002b0: 29f0 68bd 3732 7dbb dfcf a3bd 6626 413c
000002c0: 4bac 7dbc bb46 15bc 44b6 db3c e2f9 10bc
000002d0: 38e5 003d da5a 1dbc 39aa a8bb 7e9a 653c
000002e0: 103a 2cbd 0b3a ac3b f8be 6bb7 741d 733c
000002f0: 0954 27bd 094b 793d 8102 63bd e2d8 c13b
00000300: 5ac0 3ebd 99d4 323b d842 283d 4a0d 3ebc
00000310: 87e0 ffbb a069 a4bc da66 d93c f745 2e3d
00000320: c943 0e3d 5c47 1d3d 83cc 763b 08d6 fb3c
00000330: 339c 22bc d1f7 13bb 2ea7 92bc eacb 15bd
00000340: 91bf 6d3d c672 0ebd 5500 91bb 5730 aabc
00000350: 908d 0f3d 84a0 86bc e997 153d c95b 14bd
00000360: e37d 64bd 12c6 20bd 9270 27bc 9b25 e93c
00000370: 5bf0 d9bc 4fd2 8bbc 919a c2bd 9669 c93c
00000380: 3c76 bdbc e53f c8bc 9da9 fab9 79d0 39bc
00000390: 5c40 21bd fd04 7dbc fcb7 9d3b a2ea 223d
000003a0: b7b7 4b3c 50bd 92bc 30fc 313c 5aa5 1ebd
000003b0: 8b33 403d af7b d13a 0869 d7bc 387f 883b
000003c0: 685d a23c 974f 053d 7002 6abd 13bc 65bd
000003d0: 5de9 c4bc 9390 a8bc 7559 3fbc 7f87 d83c
000003e0: 564e fcbb 7262 0c3d b2fa 533b d08c 133d
000003f0: c383 5cbc 7ee6 4ebd 6818 01bc ba38 93bc

layer1.3.layer.bias f4 [128]
0.032902256 0.0072708395 0.015014093 0.031604737 -0.02478116 -0.031371575 0.062083792 0.03495843
-0.037524905 0.009705958 -0.033604138 0.0074184746 0.027302861 -0.015365228 -0.0007164428 -0.029671317
-0.03560181 0.011868031 0.0048048156 0.029804654 0.041687105 0.026577683 -0.027720895 -0.034681723
0.008902368 0.036897477 0.039620727 -0.014435265 0.037976176 -0.03630282 0.008353784 0.035865415
-0.0042745587 0.01046221 -0.034125116 -0.025619509 0.032814223 -0.03319681 0.0313464 -0.018264733
-0.0017601283 0.027180472 0.038206175 -0.025076997 -0.015729966 0.023334993 -0.0047619697 0.0029661108
-0.00097351405 0.031662572 0.020307222 0.031729612 0.036458883 -0.0051793074 -0.0050797495 0.0045200624
0.010016963 0.022052145 0.03802239 0.0021453756 -0.038806386 -0.0013507428 -0.010321499 -0.07332792
0.034507025 -0.011900974 -0.013678608 0.030327966 -0.013151115 0.009644206 0.029485773 -0.038846087
-0.052079692 0.029389642 -0.009239827 0.0021346167 0.0029777081 0.026019095 -0.011425861 -0.0064773825
0.014294141 -0.033245202 0.009746056 0.037376724 0.019343551 -0.0028730952 -0.041827742 -0.009596213
-0.007789886 0.03847784 0.033458717 0.025785554 0.037190024 0.09253934 0.010472082 -0.0037577043
0.059089787 0.014949905 -6.647298e-05 0.022393169 0.0051048105 0.0073061655 -0.007614175 -0.0023573127
0.002643944 0.0156955 -0.033066176 0.0029437197 -0.038194593 -0.012082389 -0.030760072 -0.011668586
0.009691033 -0.012288614 0.030150788 -0.018012134 0.03391435 -0.015520595 0.03339351 -0.034815148
-0.00046708368 -0.014593977 0.040765256 0.029652504 0.005132486 -0.009135596 0.03451365 0.0006021784
00000000: 84c4 063d 3940 ee3b acfd 753c f873 013d
00000010: dc01 cbbc 7b7f 00bd 934b 7e3d 9230 0f3d
00000020: b7b3 19bd bd05 1f3c 7ea4 09bd ad16 f33b
00000030: 40aa df3c 70be 7bbc aacf 3bba 4311 f3bc
00000040: 34d3 11bd 2172 423c b771 9d3b e428 f43c
00000050: 19c0 2a3d 71b9 d93c ee16 e3bc 6c0e 0ebd
00000060: 3ddb 113c cf21 173d 5849 223d e481 6cbc
00000070: e88c 1b3d 44b2 14bd 4fde 083c 9de7 123d
00000080: 9911 8cbb b069 2b3c c7c6 0bbd 01e0 d1bc
00000090: 3568 063d 61f9 07bd 1565 003d ec9f 95bc
000000a0: 1bb4 e6ba 95a9 de3c 147e 1c3d 466e cdbc
000000b0: 21dc 80bc 0729 bf3c 4c0a 9cbb 1563 423b
000000c0: 6c33 7fba 9db0 013d 555b a63c e9f6 013d
000000d0: e955 153d 2eb7 a9bb 0774 a6bb 081d 943b
000000e0: 301e 243c b3a6 b43c 5ebd 1b3d 6e99 0c3b
000000f0: 72f3 1ebd 680b b1ba 811b 29bc f32c 96bd
00000100: 3d57 0d3d 4efc 42bc 3e1c 60bc 5b72 f83c
00000110: c677 57bc bb02 1e3c 268c f13c 131d 1fbd
00000120: 8451 55bd 8cc2 f03c a562 17bc ede4 0b3b
00000130: a725 433b ff25 d53c 8933 3bbc 3940 d4bb
00000140: f931 6a3c 1f2c 08bd ecad 1f3c 5618 193d
00000150: 5e76 9e3c 8a4a 3cbb 9153 2bbd 6f39 1dbc
00000160: 4d42 ffbb f19a 1d3d 020c 093d 3a3c d33c
00000170: 9154 183d 4485 bd3d 1893 2b3c d143 76bb
00000180: 2208 723d 72f0 743c 6967 8bb8 e171 b73c
00000190: 4146 a73b 8f68 ef3b 5480 f9bb 257d 1abb
000001a0: 0546 2d3b d993 803c 6670 07bd 6ceb 403b
000001b0: ef71 1cbd 36f5 45bc 8cfc fbbc 992d 3fbc
000001c0: 23c7 1e3c 2f56 49bc c9fe f63c 2f8e 93bc
000001d0: c6e9 0a3d 184a 7ebc a2c7 083d 549a 0ebd
000001e0: e9e2 f4b9 931b 6fbc 78f9 263d cfe9 f23c
000001f0: 6a2e a83b 78ad 15bc 2f5e 0d3d 82db 1d3a
