code/trained_model/metatransferpinn_innerstep5.pth (torch, 519355 bytes, 14 tensors)

layer1.0.layer.weight f4 [256, 3]
0	0x3e996e03	0.29966745
1	0xbea0c4d5	-0.3140017
2	0x3d7e4d9d	0.062085737
3	0x3ba24f13	0.004953274
4	0x3f2f4a76	0.68472993
5	0xbc76f419	-0.015072846
6	0xbe2353ec	-0.15949982
7	0x3f187905	0.5955966
8	0xbcf5fbc1	-0.030027272
9	0x3ecade1e	0.39622587
10	0xbf05fe6a	-0.5234133
11	0xbf1bbf9b	-0.6083924
12	0x3e4292a4	0.19001251
13	0xbe8702ce	-0.26369327
14	0xbe1ac1ff	-0.15113066
15	0x3dafc651	0.08582748
16	0xbf3d257b	-0.73885316
17	0xbea5e84f	-0.324038
18	0xbd3eb9fc	-0.046564087
19	0xbd806e3e	-0.06271027
20	0xbd41bd5f	-0.04729974
21	0x3f08e41a	0.53473055
22	0x3e3620a7	0.17785893
23	0xbebd6c6d	-0.36996785
24	0xbf47b200	-0.7800598
25	0xbebabb89	-0.36471203
26	0xbe47f3d9	-0.19526614
27	0xbef06341	-0.46950725
28	0xbf11236f	-0.5669469
29	0x3ece6464	0.40310967
30	0x3ec5ca45	0.38630882
31	0x3eec1525	0.46109882
32	0x3f0ecf31	0.557849
33	0xbedc0646	-0.42973536
34	0x3cacb6a1	0.021083178
35	0x3dc3863d	0.09547088
36	0xbf1296e9	-0.5726152
37	0xbead513c	-0.3385104
38	0xbf40e14f	-0.75343794
39	0x3f125355	0.57158405
40	0x3eebe96e	0.4607653
41	0x3f1db0e4	0.6159804
42	0x3eca318f	0.39490935
43	0x3e3de8e9	0.1854588
44	0xbeab9771	-0.33513978
45	0xbeb42f09	-0.35192135
46	0xbe9e796f	-0.3095202
47	0x3e87b35c	0.26504028
48	0x3eaa2c8d	0.33237115
49	0xbebd7c0d	-0.37008706
50	0xbe61e196	-0.2205871
51	0xbedbff07	-0.42968008
52	0x3dec05cf	0.115245454
53	0x3f0edc3b	0.55804795
54	0x3dae2e81	0.08504964
55	0x3f036114	0.51320004
56	0xbc973d83	-0.018461948
57	0xbf46bb94	-0.7762997
58	0x3c8256e5	0.015910575
59	0xbf1533b8	-0.5828204
60	0x3f0df419	0.5545059
61	0x3f4948e0	0.78626823
62	0x3f1b2583	0.60604113
63	0x3c2cc3dc	0.010544743
64	0xbea81c58	-0.32834125
65	0xbdbca3e0	-0.09210944
66	0xbe14b4ef	-0.14522146
67	0xbf6330aa	-0.8874613
68	0xbc9d77a1	-0.019222083
69	0x3f5daf34	0.86595464
70	0x3b3b31cd	0.002856362
71	0x3f385665	0.7200683
72	0x3d1c947f	0.038227554
73	0x3f290a91	0.6603175
74	0x3eaa80df	0.33301446
75	0xbd93107f	-0.07180881
76	0xbd8c47b1	-0.068496116
77	0xbd8d66d6	-0.0690438
78	0x3f3f30a3	0.7468359
79	0x3ef75608	0.48307824
80	0x3f1f9dbf	0.62350076
81	0xbd9408b8	-0.072282255
82	0xbf6b9782	-0.9202806
83	0xbd31f035	-0.04344197
84	0xbe675549	-0.22591127
85	0xbf680099	-0.9062591
86	0xbdd2caf7	-0.10292619
87	0x3efddcbf	0.49582478
88	0x3d579f3f	0.052642103
89	0xbec7ed06	-0.39048022
90	0x3f10fec5	0.5663875
91	0x3d93f43f	0.072243206
92	0xbead86e8	-0.33891988
93	0xbe96fef3	-0.29491386
94	0x3e2336d5	0.15938886
95	0x3df6818f	0.1203643
96	0x3eadf27c	0.33974063
97	0x3f289273	0.65848464
98	0xbe8e7dc9	-0.2783034
99	0xbeb2426c	-0.348163
100	0xbf2a0dee	-0.66427505
101	0x3dd6a54f	0.10480749
102	0x3ed58df7	0.41709873
103	0x3eb90081	0.36133197
104	0xbea3900b	-0.31945834
105	0x3e58b59c	0.21163028
106	0x3f3c5e9e	0.73581874
107	0xbe27b4de	-0.16377589
108	0xbf2354c6	-0.6380123
109	0xbf189a2f	-0.59610265
110	0xbf37f64c	-0.71860194
111	0xbc36ab22	-0.0111492
112	0x3ed54af7	0.41658756
113	0xbeb61a9d	-0.3556718
114	0xbcf8017b	-0.030274143
115	0xbf666d1f	-0.90010256
116	0xbdec1e64	-0.11529234
117	0x3e789807	0.24276744
118	0xbdd33497	-0.10312765
119	0xbec7c4ef	-0.39017436
120	0x3eaf1263	0.34193715
121	0x3f1c13b9	0.60967594
122	0xbe7d52cf	-0.2473862
123	0x3f3a7fff	0.72851557
124	0xbeaaaaab	-0.33333334
125	0x3f1afdf0	0.6054373
126	0x3edb24b1	0.4280143
127	0x3f2cdfea	0.67529166
128	0x3f0a3aeb	0.5399615
129	0x3f0c3d53	0.54781073
130	0xbcd5b125	-0.026085446
131	0x3f55ee43	0.83566684
132	0xbf1132d6	-0.56718194
133	0xbf2b11e1	-0.66824156
134	0xbeda5419	-0.42642286
135	0xbeb81b73	-0.35958442
136	0xbf0ecbdc	-0.55779815
137	0x3e11dc14	0.1424411
138	0x3ef66d55	0.4813029
139	0x3f1f156a	0.6214205
140	0x3f7178af	0.94324774
141	0xbedcc035	-0.43115392
142	0xbcda38c4	-0.026638396
143	0xbf410952	-0.75404847
144	0xbedb98aa	-0.4288991
145	0x3f2a31b1	0.66482073
146	0xbf5a1528	-0.8518853
147	0x3e5bed54	0.21477252
148	0xbf4f5e97	-0.8100371
149	0xbea49301	-0.32143405
150	0x3e8af11d	0.2713708
151	0xbf873602	-1.0563357
152	0xbdfee3cf	-0.12445795
153	0x3eaf118f	0.34193084
154	0x3d4656e0	0.048422694
155	0xbeb84c7e	-0.3599586
156	0xbef35ab2	-0.47530133
157	0x3eca4590	0.39506197
158	0x3f041fbf	0.5161094
159	0x3de87900	0.11351204
160	0x3f0ab849	0.54187447
161	0xbd88941b	-0.06668874
162	0xbf1b2ef9	-0.6061855
163	0xbbc51e09	-0.0060155434
164	0x3ecd4f1c	0.40099418
165	0xbeb03771	-0.34417298
166	0x3edb8e8f	0.428822
167	0xbcc7f1bd	-0.024407262
168	0x3f265121	0.6496754
169	0xbf0e0baf	-0.5548658
170	0x3f3abbfd	0.729431
171	0x3ea3c5a5	0.31986728
172	0xbe304548	-0.17213929
173	0x3d2dd878	0.04244277
174	0xbf424ae5	-0.7589553
175	0xbe3161a5	-0.17322405
176	0xbf237afa	-0.6385952
177	0x3cf6e77c	0.030139677
178	0xbf1a2132	-0.602069
179	0xbe2365b5	-0.15956767
180	0x3f125069	0.57153946
181	0x3e115234	0.14191514
182	0x3f5689b9	0.838039
183	0x3efa3a4e	0.48872608
184	0x3d9ea2de	0.07745908
185	0x3eabaa99	0.33528593
186	0x3ede1047	0.43371794
187	0x3f038d79	0.51387745
188	0xbea3f5b6	-0.320234
189	0x3e3dee8d	0.18548031
190	0x3f092676	0.5357431
191	0x3e3845b4	0.1799534
192	0x3e8b30fb	0.27185807
193	0x3f1263bc	0.5718343
194	0xbebeaae2	-0.37239748
195	0x3f3e2a64	0.7428343
196	0xbeec4e17	-0.46153328
197	0x3f26a3cd	0.6509369
198	0xbf40a235	-0.7524751
199	0x3e6af6bc	0.22945684
200	0xbf23ff5b	-0.64061517
201	0x3f2cd4a6	0.67511976
202	0x3f1f3ca7	0.62201923
203	0x3eeb25a1	0.45927146
204	0x3ea8fdc1	0.330061
205	0x3c943ae2	0.018094484
206	0xbeb1584e	-0.34637684
207	0x3e66cb2f	0.22538446
208	0xbf4e183c	-0.8050573
209	0xbe750f06	-0.23931512
210	0xbd9a7522	-0.075418726
211	0xbec62980	-0.38703537
212	0x3e74f7b6	0.23922619
213	0xbead83d1	-0.3388963
214	0x3d88da2a	0.066822365
215	0x3e42da81	0.19028665
216	0x3f177737	0.5916628
217	0x3caf4720	0.02139622
218	0x3f15f799	0.5858093
219	0xbf1b5ebb	-0.6069142
220	0xbe9d9bb2	-0.3078285
221	0x3ea26e19	0.31724623
222	0xbef84773	-0.4849201
223	0xbed7de07	-0.4216158
224	0x3dd38fcf	0.10330164
225	0xbf1e06df	-0.61729234
226	0xbf0dd848	-0.55408144
227	0xbf3a5c2d	-0.727969
228	0xbf4590c2	-0.7717401
229	0xbe86a29c	-0.26295936
230	0xbf2c6b33	-0.67351073
231	0x3e84f5f9	0.25968912
232	0xbe2b1281	-0.16706277
233	0xbec75673	-0.38933143
234	0xbf5c1f3e	-0.8598517
235	0xbf4db096	-0.80347574
236	0xbe9a92e8	-0.30190206
237	0xbeb08b08	-0.34481072
238	0x3ea13580	0.3148613
239	0x3e93d30b	0.2887195
240	0xbde0bdd6	-0.10973708
241	0xbe1d216a	-0.15344778
242	0x3bf8251f	0.0075727846
243	0x3dd92451	0.1060263
244	0x3e88d749	0.2672675
245	0xbede281f	-0.43389985
246	0x3eba0ef4	0.36339533
247	0x3e5854b3	0.2112606
248	0x3f11b461	0.5691586
249	0x3f3fccef	0.7492208
250	0x3f067299	0.5251861
251	0x3ef2d77f	0.47430035
252	0xbf3a1fb4	-0.72704625
253	0xbece3a46	-0.40278834
254	0xbec898f5	-0.39179197
255	0xbf36561d	-0.7122515

layer1.0.layer.bias f4 [256]
0	0xbf0a7bf6	-0.540954
1	0x3e42453a	0.1897172
2	0x3ed62e1d	0.41832057
3	0x3ea74da2	0.32676417
4	0xbd381767	-0.044944193
5	0x3ea33010	0.31872606
6	0xbcbd8f65	-0.023139665
7	0xbe646e01	-0.22307588
8	0x3da6f852	0.08152832
9	0xb88ae2ae	-6.622575e-05
10	0x3f417fd0	0.7558565
11	0x3efb574b	0.49090037
12	0xbf0b90c5	-0.54517776
13	0x3f2368f0	0.63831997
14	0x3d3de976	0.046365224
15	0x3bc22d3b	0.005925802
16	0xbe66a3dc	-0.22523445
17	0xbefee20a	-0.4978183
18	0xbd14517b	-0.03621052
19	0xbecf8130	-0.4052825
20	0x3f0293b2	0.51006615
21	0x3e045d8f	0.12926315
22	0x3e1703d2	0.14747551
23	0xbeb8095b	-0.35944638
24	0xbec07b4a	-0.37594062
25	0x3e84219c	0.25806892
26	0x3f010338	0.50395536
27	0x3b0e0e30	0.0021675937
28	0x3ef1e22a	0.47242862
29	0x3d0e9316	0.03480824
30	0xbef872bd	-0.48525038
31	0x3f006ec2	0.50169003
32	0x3e1baf55	0.15203603
33	0x3ec0fc07	0.37692282
34	0x3c637580	0.013882995
35	0x3e3483fb	0.17628472
36	0xbef30684	-0.4746591
37	0x3f38aa81	0.7213517
38	0x3d0f705b	0.03501926
39	0x3ef14b82	0.4712792
40	0x3bc06a73	0.0058720647
41	0x3f471050	0.77759266
42	0x3eb5d14d	0.35511246
43	0x3ec8df46	0.39232844
44	0xbf5a08b0	-0.85169506
45	0x3e85d30b	0.26137576
46	0x3ea57c82	0.32321554
47	0xbf597239	-0.84939915
48	0xbf44c3c0	-0.7686119
49	0x3cfaad37	0.030600173
50	0xbe878cd0	-0.2647462
51	0x3ea076fe	0.31340784
52	0xbcd2e4e5	-0.025743911
53	0x3e1eb0b3	0.15497093
54	0x3ed0be76	0.4077031
55	0x3f400bcc	0.75018
56	0x3e3d19ec	0.1846692
57	0xbf1eb939	-0.6200138
58	0xbd0295fe	-0.031881325
59	0x3d87fcd8	0.06640023
60	0x3e67c5cc	0.22634047
61	0x3f27844a	0.6543623
62	0xbe3ad45a	-0.18245068
63	0xbf0d3c09	-0.5516973
64	0x3ef66653	0.48124942
65	0x3f0cef6e	0.5505284
66	0xbec942d9	-0.39308813
67	0x3f0b51ba	0.5442158
68	0x3e7ea9c8	0.24869454
69	0xbe1133f2	-0.14179972
70	0xbf044e19	-0.5168167
71	0x3e9acf6a	0.3023637
72	0xba3d4aff	-0.0007220953
73	0x3efc341c	0.49258506
74	0x3f0a307d	0.5398024
75	0xbf067ef9	-0.52537495
76	0x3e3a8b17	0.18217121
77	0x3ecd9737	0.4015443
78	0xbe5b0e5b	-0.21392195
79	0x3db73a87	0.0894671
80	0x3e0495c1	0.12947752
81	0x3f2bac06	0.6705936
82	0x3f2518fc	0.6449125
83	0x3efa6291	0.48903325
84	0xbf763549	-0.96175057
85	0xbdfb9ee6	-0.12286167
86	0xbe060cec	-0.13090867
87	0x3f399582	0.72493756
88	0xbe8ce4a1	-0.2751818
89	0xbe8bde2d	-0.27317944
90	0x3bc2b13a	0.005941537
91	0x3e3ee0e3	0.18640475
92	0xbf159474	-0.58429646
93	0x3f384dd5	0.7199376
94	0x3f2fa77f	0.68614954
95	0x3f1c182a	0.6097437
96	0xbdf306a9	-0.11866505
97	0xbdb1ea4d	-0.086872675
98	0xbefecb38	-0.4976442
99	0xbe341ae6	-0.17588386
100	0x3f544588	0.82918596
101	0xbef23274	-0.47304118
102	0x3f148a80	0.58023834
103	0xbee83f4a	-0.45360786
104	0x3e1a91df	0.15094708
105	0x3f0959de	0.5365275
106	0x3f5d2bd8	0.86395025
107	0x3e504c51	0.20341612
108	0xbd92ae01	-0.07162095
109	0xbec38baa	-0.38192493
110	0xbd9ee016	-0.07757585
111	0x3e25dd6d	0.16197748
112	0xbe782c4a	-0.24235645
113	0x3e46a667	0.19399415
114	0xbf2cd894	-0.6751797
115	0xbed96f51	-0.4246774
116	0x3f3fa37e	0.74858844
117	0xbe1501eb	-0.14551513
118	0x3e6f4963	0.23367839
119	0xbf3780e8	-0.7168107
120	0x3f13941b	0.57647866
121	0x3f79943c	0.9749181
122	0x3f3ebeac	0.7450969
123	0xbd87a7b1	-0.066237815
124	0xbf24411a	-0.6416184
125	0xbf0e95ec	-0.5569751
126	0xbe6011a3	-0.21881728
127	0xbf098d60	-0.53731346
128	0x3f35ac34	0.70965886
129	0x3e1edf2d	0.15514822
130	0xbe71689e	-0.23575065
131	0x3d4f10fc	0.050553307
132	0xbf16e9c7	-0.58950466
133	0xbf0d5afb	-0.5521695
134	0x3e7629ea	0.24039426
135	0xbf72ad17	-0.94795364
136	0x3f43049a	0.76178896
137	0xbe23c68d	-0.1599371
138	0x3f1ea58a	0.6197134
139	0x3c9b411d	0.018951947
140	0x3d1a0fab	0.0376126
141	0xbd2ac79f	-0.04169428
142	0x3f0ba01e	0.54541194
143	0xbeb5e66c	-0.3552736
144	0x3e4ea547	0.20180236
145	0x3db34568	0.087534726
146	0xbaceb866	-0.0015771508
147	0xbdf0403f	-0.11731004
148	0xbc5334d6	-0.012891015
149	0x3edae054	0.42749274
150	0xbf03ce98	-0.5148711
151	0x3db0f60d	0.086406805
152	0xbf0f9444	-0.5608561
153	0x3e4379ec	0.19089478
154	0xbe0df220	-0.13861895
155	0xbefe2ab2	-0.4964195
156	0x3f210823	0.6290304
157	0x3eb29b37	0.34884045
158	0xbf31ade2	-0.6940595
159	0x3d66f4de	0.056385867
160	0x3e9e58ef	0.30927226
161	0xbf29dd29	-0.6635309
162	0xbf69e51b	-0.9136521
163	0x3d96aee9	0.0735758
164	0xbe0240ec	-0.12720078
165	0x3d64e5b7	0.055883136
166	0x3eb24edb	0.34825787
167	0xbf2922f6	-0.6606897
168	0xbeb92c8a	-0.36166793
169	0x3e6e6df8	0.23284137
170	0xbebcc3ea	-0.3686822
171	0x3ef02f83	0.4691125
172	0x3e8d9ebc	0.27660167
173	0xbdd3c4cf	-0.10340273
174	0x3e1d225a	0.15345135
175	0xbeb43c49	-0.35202244
176	0xbe3f23f1	-0.18666054
177	0xbd62688d	-0.05527549
178	0xbe12e0e6	-0.14343604
179	0x3eb95277	0.36195728
180	0xbb5b58dc	-0.0033469712
181	0x3cd40427	0.025880886
182	0xbec4ff5d	-0.38476077
183	0x3e9c07cd	0.30474702
184	0x3e8a2b7b	0.26986298
185	0x3eea77a2	0.45794398
186	0x3be11f21	0.006870166
187	0x3e6ad3cf	0.22932361
188	0x3d2ec4a7	0.04266801
189	0xbea79d22	-0.3273707
190	0x3e37fbce	0.1796715
191	0xbe993361	-0.29922011
192	0xbde6396f	-0.11241423
193	0x3f0564ef	0.5210714
194	0x3e2aa828	0.16665709
195	0xbea9e5b6	-0.33183068
196	0x3d67219e	0.056428544
197	0xbf14f446	-0.5818523
198	0xbd25d681	-0.04048777
199	0xbd98f575	-0.07468692
200	0xbd5c0258	-0.053713173
201	0xbc991396	-0.018686097
202	0xbe861cd2	-0.26193863
203	0x3f290618	0.66024923
204	0x3eb21381	0.34780505
205	0x3f2336f0	0.637557
206	0x3eb9b9ae	0.36274475
207	0xbde0f7bb	-0.10984751
208	0xbdcf2806	-0.10115056
209	0xbf43ae72	-0.7643806
210	0x3ed4b80c	0.41546667
211	0x3d4a7ce0	0.049435496
212	0xbe753513	-0.23946027
213	0x3f60edea	0.8786303
214	0x3da23fac	0.07922301
215	0xbd3a915e	-0.04554879
216	0xbf7a0e1c	-0.9767778
217	0x3e8f5c1c	0.2799996
218	0xbf3915a6	-0.7229866
219	0x3d83f951	0.06444038
220	0x3ebf93cf	0.37417457
221	0x3eec5f67	0.46166536
222	0x3defec50	0.11714995
223	0xbe2c0595	-0.16799004
224	0xbe76221c	-0.24036449
225	0xbebd7c28	-0.37008786
226	0x3ef977ef	0.48724315
227	0x3ec9c7b5	0.39410177
228	0xbe488a5e	-0.19584033
229	0xbe62a105	-0.22131737
230	0xbef73555	-0.48282877
231	0x3d75c789	0.060004745
232	0x3f4391b9	0.7639423
233	0xbf5374af	-0.8259992
234	0x3e82f665	0.2557861
235	0x3e01deca	0.12682644
236	0xbf023174	-0.5085671
237	0x3f1e7799	0.6190124
238	0x3db6dbc6	0.08928637
239	0x3ee1a6af	0.44072482
240	0x3d47d887	0.04879048
241	0x3e3e3d48	0.18578064
242	0x3ed0d940	0.4079075
243	0x3e8e3776	0.27776688
244	0xbdbd6cd4	-0.09249273
245	0xbed651f8	-0.41859412
246	0x3e66e727	0.22549115
247	0xbf29fd6d	-0.6640232
248	0xbf28ddcc	-0.65963435
249	0x3e9cacd7	0.30600616
250	0xbf25a9d8	-0.64712286
251	0xbef2d827	-0.47430536
252	0x3dab61d0	0.08368266
253	0x3e953eaf	0.29149386
254	0xbea5d5ab	-0.32389578
255	0xbcb2e218	-0.021836326

layer1.1.layer.weight f4 [256, 256]
0	0xbd96ce10	-0.07363522
1	0x3bc2132e	0.0059226966
2	0x3d814d82	0.063136116
3	0xbe2a20b3	-0.16614036
4	0xbdb7265e	-0.08942865
5	0xbe1d40ae	-0.15356705
6	0x3c210b81	0.009829403
7	0xbd04790c	-0.032342
8	0xbdeb8d3f	-0.1150155
9	0x3d6a8125	0.057252068
10	0x3d8f479f	0.069960825
11	0xbc377eab	-0.011199634
12	0xbc76afd6	-0.015056571
13	0x3e098c62	0.13432458
14	0xbcdb1774	-0.026744582
15	0x3d09f797	0.033683386
16	0xbde3ad5d	-0.11117051
17	0x3d8ac093	0.06775012
18	0xbd5c370b	-0.05376343
19	0xbd50377f	-0.050834175
20	0x3dcb715f	0.09933733
21	0xbd340ad8	-0.043955654
22	0x3bb47676	0.0055072857
23	0x3cd49619	0.025950478
24	0x3e0bf8f5	0.13669188
25	0xbda6e4b3	-0.0814909
26	0x3d91ad30	0.07113111
27	0xbd160cac	-0.03663318
28	0xbddf556f	-0.10904967
29	0xbdfbf20b	-0.123020254
30	0xbdcec929	-0.10096962
31	0x3c9d8562	0.019228641
32	0xbc955fe4	-0.0182342
33	0x3cf0fee8	0.029418424
34	0x3b6c6d6f	0.003607597
35	0xbc85f0d3	-0.016350185
36	0xbd3c2a96	-0.04593905
37	0xbccc120a	-0.024910945
38	0x3ce8265b	0.028338602
39	0xbdb025d8	-0.08600968
40	0x3bb4f059	0.0055218157
41	0x3dc384ba	0.095468
42	0x3cff6d03	0.03117991
43	0x3c8a67c6	0.016895186
44	0xbde0dad9	-0.10979242
45	0x3c8e810a	0.017395515
46	0x3d881f5c	0.06646606
47	0xbdd8b15c	-0.105807036
48	0xbb79b375	-0.003810135
49	0xbe0d52f1	-0.13801171
50	0xbcd6e13e	-0.02623045
51	0xbc67167d	-0.014104483
52	0x3dc89006	0.09793095
53	0xbc07ad16	-0.008281013
54	0x3d7f6ef9	0.06236169
55	0x3bb84bbd	0.005624263
56	0xbc252612	-0.010079877
57	0xbda1d346	-0.07901625
58	0xbdee5fbe	-0.11639355
59	0xbd174836	-0.0369341
60	0x3ca0edf8	0.019644722
61	0x3ba7339e	0.005102589
62	0xbdb1adc1	-0.08675719
63	0x3d2e348c	0.04253058
64	0x3b8660d8	0.0041009
65	0xbaab254c	-0.001305738
66	0xbcb8649d	-0.022508914
67	0x3d3a5d24	0.045498982
68	0xbd68a4ee	-0.056797914
69	0xbd647ee3	-0.05578507
70	0xbd1368da	-0.035988666
71	0x3df9c264	0.1219528
72	0x3d0d126d	0.0344414
73	0xbb999a8b	-0.0046876124
74	0x3c57f7e9	0.013181665
75	0xbc18c8a8	-0.009325184
76	0xbd5326fc	-0.05155085
77	0xbdca87a3	-0.09889152
78	0xbcdaf528	-0.026728228
79	0x3cfeef20	0.031119883
80	0x3b8cd7d1	0.0042981883
81	0xbc058ba6	-0.008150971
82	0x3c150871	0.009096251
83	0x3d9f8406	0.07788853
84	0xbd946147	-0.07245117
85	0xbd66820b	-0.056276362
86	0xbd390d1c	-0.045178518
87	0x3d9f6a3a	0.07783933
88	0x3c4661c9	0.012108275
89	0xbcd6f57a	-0.0262401
90	0xbcfcf4ed	-0.030878508
91	0x3a992391	0.0011683573
92	0xbd2c8623	-0.04212011
93	0x3cbfd2da	0.023415972
94	0x3b63b7b4	0.0034746947
95	0x3dd8b5ee	0.10581575
96	0x3d8eaf50	0.06967032
97	0x3d92b4b6	0.07163374
98	0xbca26dd3	-0.019827759
99	0xbd818d5d	-0.06325791
100	0x3cdf4793	0.027255809
101	0xbb2f3f92	-0.0026740772
102	0xbd4528c5	-0.048134584
103	0xbd900a9a	-0.07033272
104	0xbd39f3a5	-0.045398373
105	0xbd111a84	-0.035425678
106	0x3c30a47f	0.010781406
107	0xbd84ba77	-0.06480878
108	0x3dc75879	0.09733672
109	0xbd3f6864	-0.046730414
110	0x3d94f759	0.0727374
111	0x3de0862b	0.109630905
112	0xbdf07201	-0.117404945
113	0xbc1c7b0a	-0.009550819
114	0xbc412963	-0.0117896525
115	0xbaaaffbe	-0.0013046188
116	0x3df343d1	0.11878169
117	0xbdedc67c	-0.116101235
118	0xbd8ba19e	-0.068179354
119	0xbcdbb72e	-0.026820745
120	0x3d0363b0	0.03207749
121	0xbbb60937	-0.0055552977
122	0x3db693d0	0.08914912
123	0xbe2721f2	-0.16321543
124	0x3c2e5ab6	0.010641744
125	0x3cae2201	0.021256449
126	0x3d7c0589	0.061528716
127	0x3c989dd3	0.018629944
128	0x3cea9c45	0.028638968
129	0x3da88c79	0.08229918
130	0x3d985558	0.07438153
131	0xbd2f3b6e	-0.042781286
132	0x3b9fb2ea	0.004873623
133	0xbd42a3b7	-0.047519412
134	0x3d5ce406	0.053928398
135	0x3cbab06d	0.022789204
136	0x3b23c581	0.0024989548
137	0x3a560ba7	0.00081651885
138	0x3c923cdf	0.017851291
139	0xbd0783a5	-0.03308453
140	0xbd019b63	-0.03164233
141	0xbd957cab	-0.07299169
142	0xba861419	-0.0010229378
143	0xbd6d98b1	-0.058006946
144	0xbd73c1f9	-0.05951116
145	0x3c850c1e	0.01624113
146	0x3df0eb8a	0.117636755
147	0x3d7949ad	0.06086128
148	0x3db29f3a	0.08721776
149	0x3d211f4c	0.039336488
150	0xbdc5f6d8	-0.09666222
151	0x3df1585b	0.117844306
152	0xbcbd9d7b	-0.023146382
153	0x3d363587	0.04448464
154	0xbc2a3b04	-0.010390047
155	0x3d02bd8c	0.031919047
156	0xbb40329e	-0.0029327045
157	0xbdf57b7f	-0.11986446
158	0xbb2beab8	-0.0026232433
159	0x3dd07003	0.101776145
160	0x3d238623	0.039922845
161	0xbd32c5fb	-0.04364584
162	0xbb8ada47	-0.0042374465
163	0xbca1b92b	-0.019741615
164	0x3b29e938	0.0025926363
165	0x3d7bfadd	0.06151854
166	0x3d0491d1	0.032365624
167	0xbd7521b0	-0.05984658
168	0x3ca552e1	0.020181121
169	0x3d1e71ee	0.03868287
170	0xbd6e0fb0	-0.05812043
171	0x3c80c2de	0.01571792
172	0x3daafc38	0.08348888
173	0x3c356f68	0.011073925
174	0xbb973d60	-0.0046154708
175	0xbdb2da90	-0.08733094
176	0x3dfc3c22	0.12316157
177	0x3dace2a5	0.084416665
178	0xbda78f13	-0.08181586
179	0x3e03b9bf	0.12863825
180	0xbc2731fb	-0.010204787
181	0xbd7121e2	-0.058870204
182	0x3d646991	0.05576474
183	0x3cb8ffd3	0.022582924
184	0x3d267847	0.04064205
185	0x3dd94fae	0.10610901
186	0xbd9b76b2	-0.07590999
187	0xbd1a86df	-0.03772628
188	0xbd70031c	-0.058596715
189	0xbc9157d8	-0.017742082
190	0xbdc43ee1	-0.09582306
191	0xbaa66eed	-0.0012697853
192	0x3de367b9	0.11103768
193	0x3d684225	0.056703705
194	0x3dd227d7	0.10261505
195	0xbde898ee	-0.11357294
196	0xbc8b13f4	-0.016977288
197	0x3d1c9267	0.038225558
198	0x3db8a9c5	0.09016756
199	0xbd8aede3	-0.067836545
200	0x3d871167	0.06595116
201	0x3d5f8e89	0.05457929
202	0xbcb68f0f	-0.022285013
203	0x3d9a3ba6	0.07530908
204	0x3d7c9071	0.061661188
205	0x3d2d5876	0.04232069
206	0x3cf42488	0.029802576
207	0x3d324de6	0.04353132
208	0x3dd0090a	0.10157974
209	0xbd509234	-0.05092068
210	0xbce3b079	-0.02779411
211	0x3d1fc425	0.039005417
212	0xbc838522	-0.016054694
213	0x3cd941de	0.026520666
214	0xbdcab48b	-0.09897717
215	0xbdbe71e9	-0.092990704
216	0x3c8a0d98	0.016852185
217	0xbd3d79e0	-0.046258807
218	0xbc16c761	-0.009202809
219	0x3d319541	0.04335523
220	0x3c5c8139	0.013458543
221	0xbcf788ed	-0.030216658
222	0x3ccdaacf	0.025105862
223	0x3da495d9	0.08036394
224	0x3cbb4c56	0.022863548
225	0xbd16340d	-0.036670733
226	0x3d6871b5	0.056749064
227	0x3d780dc4	0.060560003
228	0x3dba1d84	0.09087661
229	0xbc8ec23c	-0.017426603
230	0xbd9c258d	-0.0762435
231	0x3e132dd4	0.14372951
232	0x3cb2fc69	0.021848874
233	0xbd2d679a	-0.04233513
234	0xbdcf3e78	-0.10119337
235	0xbdafd5c6	-0.08585696
236	0xbc9da7e1	-0.01924509
237	0x3cbdbf32	0.023162458
238	0x3d869f43	0.065733455
239	0xbab26a39	-0.0013611979
240	0x3c69e90b	0.014276753
241	0xbcb608fd	-0.022221083
242	0xbe3ec570	-0.18630004
243	0xbd694993	-0.05695493
244	0xbcc24719	-0.023715543
245	0x3d0c03d4	0.03418334
246	0xbd19294d	-0.037392903
247	0xbdfba054	-0.122864395
248	0x3cc0906d	0.023506368
249	0x3d8a7e87	0.067624144
250	0xbd7bc43d	-0.061466444
251	0xbd0bbf4a	-0.034117974
252	0xbe0cc054	-0.13745242
253	0xbc01bc6a	-0.007918457
254	0x3c2c130b	0.010502587
255	0x3b44415c	0.0029946184

layer1.1.layer.bias f4 [256]
0	0x3b44bb5c	0.0030018901
1	0xbd501999	-0.05080566
2	0x3cf71e74	0.030165888
3	0x3c3eb99e	0.011640934
4	0xbd1ce1a6	-0.038301133
5	0xbd0ed3c8	-0.03486994
6	0x3c3f2cf8	0.011668436
7	0xbd1795f1	-0.03700823
8	0xbd2d91c9	-0.04237536
9	0xbb9815b9	-0.0046412614
10	0x3b28bba9	0.002574662
11	0xbc8016fe	-0.015635964
12	0x3c4e8c73	0.012606728
13	0x3a693c01	0.0008897186
14	0x3c167bcb	0.009184788
15	0xbd949546	-0.07255034
16	0xbb3cfde8	-0.0028837863
17	0xbe0c44d4	-0.13698131
18	0xbdbba524	-0.091623574
19	0xbc4da051	-0.012550429
20	0xbd1c2590	-0.03812176
21	0xb9e3057a	-0.00043300894
22	0xbde0998c	-0.10966787
23	0xbcd9c3ac	-0.026582561
24	0xbd5c559c	-0.05379258
25	0xbe12f4aa	-0.14351144
26	0x3d051f85	0.032500762
27	0xbd391513	-0.045186114
28	0x3d3d08f3	0.046151113
29	0x3dc6d331	0.0970825
30	0xbd3475b3	-0.04405756
31	0xbcb1bfa1	-0.021697821
32	0xbd71dfec	-0.05905144
33	0xbc8d5d26	-0.01725633
34	0xbce1ffde	-0.027587827
35	0x3c57e5db	0.01317736
36	0x3d882c2a	0.066490486
37	0xbc84942a	-0.016183931
38	0x3c47819d	0.012176898
39	0x3c8c1ff3	0.017105078
40	0xbd6126cf	-0.05496865
41	0x39b23d35	0.00033996408
42	0xbd20d883	-0.03926898
43	0x3d438fc4	0.047744527
44	0x3c8cfc49	0.017210143
45	0xbd66ece9	-0.05637828
46	0xbcbc01e4	-0.02295012
47	0xbd09dcea	-0.033657946
48	0xbd7fe178	-0.062470883
49	0x3c24ad77	0.010051123
50	0x3d3bc7d1	0.045844857
51	0x3bc850e9	0.006113161
52	0x3c785503	0.015156987
53	0x3ca3381d	0.019924218
54	0x3d514d4b	0.051099103
55	0xbe122713	-0.14272718
56	0x3ccfe769	0.0253789
57	0xbc4d140f	-0.012516989
58	0x3dab6013	0.08367934
59	0xbd3652e9	-0.044512663
60	0xbd8601aa	-0.06543286
61	0xbd3008f6	-0.042977296
62	0xbe092c41	-0.13395788
63	0x3d791688	0.060812503
64	0x3dbab54a	0.091166094
65	0x3df23bea	0.11827834
66	0x3dfe3d64	0.12414053
67	0xbdb30e72	-0.087429896
68	0x3d195407	0.03743365
69	0x3d686342	0.056735285
70	0x3d30da96	0.04317721
71	0xbb6b41dd	-0.0035897412
72	0xbda5fd21	-0.08104921
73	0x3b263de9	0.0025366491
74	0x3c49ee02	0.012324812
75	0xbc97dddd	-0.01853841
76	0xbc9525e6	-0.018206548
77	0x3d053501	0.03252125
78	0xbd11e2f7	-0.03561684
79	0xbc3a78bc	-0.011381324
80	0x3d105f3d	0.035247076
81	0x3be1e2fd	0.006893514
82	0x3d99e174	0.07513705
83	0xbccf1a99	-0.025281237
84	0xbce003fc	-0.02734565
85	0x3d83895f	0.06422686
86	0xbd33ee0e	-0.0439282
87	0xbbd576b9	-0.006514397
88	0x3e19206e	0.14953777
89	0xbdb1bdfa	-0.08678813
90	0x3dbbdb49	0.09172685
91	0x3d9102df	0.07080626
92	0x3d862fc2	0.06552078
93	0xbd50ce79	-0.050978158
94	0xbd62a97e	-0.05533742
95	0x3c8c272e	0.017108526
96	0x3d73edf0	0.059553087
97	0xbc6cb627	-0.014447725
98	0xbd993420	-0.07480645
99	0x3dd82cad	0.10555396
100	0x3c76070d	0.0150163295
101	0xbca97417	-0.020685239
102	0x3c9e3ead	0.019316996
103	0xbd9bcff9	-0.07608027
104	0x3d39fc6f	0.045406755
105	0x3dac54df	0.084146254
106	0x3da37b2c	0.079824775
107	0xbced3a74	-0.028958537
108	0xb9b5a346	-0.00034644658
109	0x3cf37cde	0.029722627
110	0x3da150a3	0.07876708
111	0xbc8a2ddc	-0.01686757
112	0x3d1ba03b	0.037994605
113	0xbdba505d	-0.09097359
114	0x3d332175	0.04373308
115	0xbcefd11a	-0.029274512
116	0xbdbe7709	-0.09300048
117	0xbcd1ba2b	-0.025601467
118	0xbe270945	-0.1631213
119	0xbc476e55	-0.012172301
120	0xbd4f0379	-0.05054042
121	0x3bfbd05c	0.0076847505
122	0xbd6ca123	-0.05777086
123	0xbc772ada	-0.0150859
124	0xbc01dddd	-0.0079264315
125	0xbd3dccab	-0.046337765
126	0x3cd3c338	0.025849923
127	0xbd1f262a	-0.038854755
128	0x3dbbd933	0.09172287
129	0x3d750087	0.059814956
130	0xbd4d5c72	-0.05013699
131	0xbd2e3689	-0.042532478
132	0xbd46c076	-0.04852339
133	0x3c21479b	0.009843732
134	0xbc0e88c5	-0.008699601
135	0x3d669595	0.056294996
136	0x3d682a7e	0.05668115
137	0xbd7d0f79	-0.061782334
138	0xbd1cf7bc	-0.038322195
139	0xbc976158	-0.018479034
140	0x3ce5c9e5	0.028050372
141	0x3dc59bcb	0.09648856
142	0x3d39d2e4	0.045367137
143	0x3cf66bb4	0.030080654
144	0x3cbfd075	0.02341483
145	0xbced4bb0	-0.028966755
146	0x3d0bbaeb	0.034113806
147	0xbd80f525	-0.062967576
148	0x3c7151b8	0.014728956
149	0xbd1f7a13	-0.03893478
150	0xbdde6ea8	-0.1086095
151	0xbdbb4205	-0.091434516
152	0x3d4c3e11	0.04986388
153	0x3c211c3a	0.00983339
154	0x3c6534f4	0.013989676
155	0x3dc28838	0.09498638
156	0x3d66eb2c	0.05637662
157	0x3bfe7a20	0.0077660233
158	0x3d5e70d3	0.054306816
159	0xbc8d56c7	-0.017253293
160	0xbc9c42a2	-0.019074742
161	0x3d615e1c	0.05502139
162	0x3d3c7fbe	0.046020262
163	0xbc2f6838	-0.010706
164	0x3d263e22	0.0405866
165	0x3d915957	0.07097118
166	0xbd9023b9	-0.070380636
167	0x3c148b26	0.009066379
168	0x3dd5d6fe	0.10441397
169	0x3de472c2	0.11154701
170	0x3d61deaa	0.05514399
171	0xbd1fa86b	-0.038978975
172	0x3c6f0aba	0.01458996
173	0x3c1a9328	0.009434499
174	0x3d88edd6	0.066859886
175	0x3d8108fb	0.06300541
176	0x3d59010e	0.05297952
177	0x3de29a88	0.11064631
178	0xbcd1802b	-0.02557381
179	0xbccd2c4c	-0.025045536
180	0x3ca65744	0.020305283
181	0x3bda2d6d	0.006658247
182	0x3df4ac36	0.11946909
183	0xbd6318ef	-0.0554437
184	0x3d6d486e	0.057930402
185	0xbddc5783	-0.10758879
186	0xbd6c76f1	-0.05773062
187	0xbc949ba3	-0.01814062
188	0x3df9cc38	0.12197155
189	0xbc24e474	-0.010064233
190	0x3c9d6c9e	0.019216832
191	0x3c373843	0.011182847
192	0x3d6b7634	0.057485774
193	0xbd2b8c57	-0.041881885
194	0x3de22a8b	0.11043271
195	0xbdd186c3	-0.10230782
196	0xbd14c69b	-0.036322217
197	0x3a63f450	0.0008695768
198	0xbd8f7541	-0.07004786
199	0xbd92927e	-0.071568474
200	0x3d7dd60c	0.06197171
201	0x3c3ff164	0.011715267
202	0x3c9a491d	0.018833691
203	0x3dd5bdc0	0.104365826
204	0x3c8179e6	0.015805196
205	0x3d88ecc2	0.06685783
206	0x3c9e630f	0.019334344
207	0x3d830c13	0.06398787
208	0x3cbf5db2	0.023360107
209	0x3d039f8b	0.032134574
210	0xbce337c1	-0.027736546
211	0xbda2cc23	-0.07949092
212	0xbc5413b6	-0.012944153
213	0xbdce212a	-0.10064919
214	0x3d25d3a4	0.04048504
215	0x3c7cd54c	0.015431713
216	0xbd87ef31	-0.06637419
217	0xbccff32e	-0.025384512
218	0xbd29b93f	-0.04143643
219	0x3d277069	0.040878687
220	0xbb66c90c	-0.0035215048
221	0xbd62d5bc	-0.055379614
222	0xbd35a019	-0.044342134
223	0x3d9065b7	0.070506506
224	0xbcdd81ec	-0.02703949
225	0x3d112606	0.035436653
226	0x3c286164	0.010277126
227	0x3c398464	0.011323068
228	0xbe4cf2ed	-0.20014544
229	0xbc0e879e	-0.008699326
230	0x3ca2a00f	0.019851713
231	0x3d98d296	0.07462041
232	0x3d3e29aa	0.046426453
233	0x3b5f5678	0.003407864
234	0xbbfbb4d3	-0.007681468
235	0x3c5a484e	0.013322903
236	0xbd92933f	-0.07156991
237	0x3d3c6c20	0.046001554
238	0x3d3fcabf	0.046824213
239	0xbc022574	-0.0079435
240	0x3da7cfae	0.08193909
241	0x3dcefdf9	0.10107035
242	0xbd27f46d	-0.041004587
243	0x3cffea68	0.031239703
244	0xbd9c529e	-0.076329455
245	0xbdd2b3dc	-0.10288212
246	0xbdcd2e25	-0.10018567
247	0xbcc4c24c	-0.02401843
248	0x3d0d7d9b	0.034543615
249	0x3d326d63	0.04356135
250	0xbd2bd809	-0.041954074
251	0x3da1fb8c	0.07909307
252	0x3d1dd6c7	0.038534906
253	0xbe0eacb2	-0.13933066
254	0x3d108d63	0.035291087
255	0x3dd41708	0.10355955

layer1.2.layer.weight f4 [128, 256]
0	0x3bbf204a	0.0058327066
1	0x3d00d7fb	0.031455975
2	0x3da3872b	0.079847656
3	0x3df3abc8	0.11897999
4	0x3e33a350	0.17542768
5	0x3dca8c0e	0.098899946
6	0xbba9d6dc	-0.005183084
7	0x3e05c1b5	0.13062175
8	0xbda30b7d	-0.079611756
9	0x3dbc0d19	0.09182186
10	0xbd0e1dfa	-0.034696557
11	0xbda2b4e7	-0.07944661
12	0xbda098b6	-0.07841627
13	0x3c4d7ff2	0.012542712
14	0x3d586bfb	0.052837353
15	0xbe24343f	-0.16035555
16	0x3c8f08f6	0.017460328
17	0xbc9a5074	-0.018837191
18	0xbdaadc2b	-0.08342775
19	0xbc92c019	-0.017913865
20	0xbde7b4e8	-0.11313802
21	0x3d70cafa	0.058787324
22	0xbd9af006	-0.07565312
23	0x3c98cab3	0.018651342
24	0xbbf7d14f	-0.0075627933
25	0x3ca231fe	0.019799229
26	0x3d3cb9e5	0.04607572
27	0xbb4f7c9b	-0.0031659964
28	0xbe0642ec	-0.13111466
29	0xbd180150	-0.037110627
30	0xbbe1bb32	-0.0068887705
31	0x3db884ac	0.0900968
32	0xbd2fa21c	-0.04287921
33	0xbbd33517	-0.006445538
34	0xbda97da4	-0.08275917
35	0x39a5dc21	0.0003163526
36	0xbe21e4f9	-0.15810002
37	0xbdb2b6ea	-0.08726294
38	0xbdebd4a0	-0.115151644
39	0xbc1d4802	-0.0095996875
40	0xbc88d184	-0.016701467
41	0xbd00126e	-0.031267576
42	0xbd6605c0	-0.056157827
43	0x3e15ea07	0.14640056
44	0xbe0d50c1	-0.13800336
45	0xbd8df669	-0.06931765
46	0xbdcbb06b	-0.099457584
47	0x3d1e4f4a	0.038649835
48	0x3d10ee11	0.035383288
49	0xba8e45ae	-0.0010854506
50	0x3e167e9e	0.14696738
51	0xbd270145	-0.040772695
52	0xbda6d1af	-0.08145463
53	0x3dfc9694	0.12333408
54	0xbd306c15	-0.043071825
55	0x3d605bf3	0.05477519
56	0x3d7ee12c	0.06222646
57	0xbd1ca0ce	-0.038239293
58	0xbcca3b9d	-0.024686629
59	0xbdb1673a	-0.08662267
60	0x3d90db0e	0.07073031
61	0x3d4c3572	0.049855657
62	0x3d2a3dad	0.041562725
63	0xbda3ebc8	-0.08003956
64	0xbd5e3ffd	-0.054260243
65	0xbd5e2aa1	-0.054239873
66	0x3e010067	0.1259781
67	0xbd85d925	-0.06535558
68	0x3d5c7c88	0.0538297
69	0x3d78067e	0.060553066
70	0x3d72f139	0.05931208
71	0xbbc836b1	-0.0061100353
72	0x3d676a2e	0.056497745
73	0xbd9f85fe	-0.07789229
74	0xbb8c130d	-0.004274732
75	0x3d2d71ef	0.042344984
76	0xbd5821e2	-0.05276669
77	0xbcff1774	-0.031139113
78	0x3d9f99d8	0.07793015
79	0xbd6a0a82	-0.057138927
80	0x3c1920f1	0.009346233
81	0x3dd20057	0.10253971
82	0x3db09994	0.08623043
83	0xbd66bf12	-0.056334563
84	0x3dcf4957	0.1012141
85	0xbdedacf1	-0.116052516
86	0x3d31bc22	0.043392308
87	0xbe4ead76	-0.20183358
88	0xbcd82a5f	-0.026387392
89	0xbc5f255e	-0.013619749
90	0x3e394fa0	0.18096781
91	0xbca8df17	-0.02061419
92	0xbcc71321	-0.024301114
93	0xbdf205c6	-0.118175074
94	0x3e1b191d	0.15146299
95	0xbde5b2aa	-0.11215718
96	0x3d09e1db	0.03366266
97	0x3e0714a5	0.13191469
98	0xbdf95f62	-0.12176396
99	0xbb9e854a	-0.0048376666
100	0x3a3a9ab6	0.00071183906
101	0xbdc25fb7	-0.094909124
102	0x3cbfb10c	0.023399852
103	0x3db690df	0.08914351
104	0x3dee6c7c	0.116417855
105	0xbdda10f8	-0.10647768
106	0x3ddc9a8f	0.10771667
107	0x3c28703d	0.010280666
108	0x3d9a29d8	0.07527512
109	0x3dec4096	0.11535756
110	0xbd6987b8	-0.057014197
111	0x3c23fd91	0.010009185
112	0xbd896f36	-0.06710665
113	0xbcb7b726	-0.0224262
114	0x3d038436	0.032108508
115	0xbe0f5847	-0.13998519
116	0xbd9ab346	-0.07553725
117	0x3d85cd3d	0.06533287
118	0x3ab5ee09	0.0013880144
119	0x3ddcc81c	0.10780355
120	0x3dc5b1d0	0.09653056
121	0xbdcd7842	-0.10032703
122	0xbe04c066	-0.12964019
123	0x3be9b96a	0.007132699
124	0x3dc7f29c	0.09763071
125	0x3d2bf10e	0.041977935
126	0x3d55516b	0.0520796
127	0x3e10e6c7	0.14150535
128	0x3cde513c	0.027138345
129	0xbad6e86c	-0.0016396171
130	0x3dccfca5	0.100091256
131	0x3cebf859	0.028804945
132	0x3d10e04d	0.03537016
133	0x3d4e18ed	0.05031674
134	0x3d6422eb	0.055697363
135	0xbdd73c55	-0.10509554
136	0xbe1111eb	-0.14166991
137	0x3dfd4c80	0.12368107
138	0xbe088b63	-0.13334422
139	0x3e3a2851	0.18179442
140	0xbdb1fb66	-0.086905286
141	0x3d013b37	0.031550612
142	0x3df0a996	0.11751096
143	0xbc6b9989	-0.014379867
144	0xbdda653a	-0.10663839
145	0x3da07cf4	0.07836333
146	0xbdc02d27	-0.09383612
147	0x3e19ffb3	0.15038948
148	0x3e137bc4	0.14402682
149	0xbad76202	-0.0016432407
150	0xbcb023c0	-0.021501422
151	0x3e0460c9	0.12927546
152	0xbe214949	-0.15750612
153	0x3de9d37b	0.1141729
154	0x3e4b688d	0.19864102
155	0x3e023119	0.12714042
156	0xbdc9c8d8	-0.09852761
157	0xbda61e35	-0.0811123
158	0x3e008ed1	0.1255448
159	0xbd935a53	-0.07194962
160	0xbc75b654	-0.014997084
161	0x3acf632e	0.0015822405
162	0x3d300fb6	0.042983733
163	0xbdaafc6d	-0.08348928
164	0xbcf317e8	-0.029674485
165	0xbd0bd2d4	-0.03413661
166	0xb91cff23	-0.00014972365
167	0xbd5c5c33	-0.053798866
168	0x3d286414	0.041111067
169	0xbd041d34	-0.032254413
170	0x3cfd9108	0.030952945
171	0xbd918864	-0.071060926
172	0xbc844ef9	-0.016150938
173	0xbe266bce	-0.16252062
174	0xbbd22361	-0.006412909
175	0xbd745f95	-0.059661467
176	0xbe29dc85	-0.16588028
177	0xbdb4c4a5	-0.088265695
178	0xbcf31b0d	-0.029675985
179	0x3ddb6e72	0.10714425
180	0x3e0c17d5	0.13680966
181	0x3d0a604a	0.033783235
182	0x3e1c3584	0.1525479
183	0xbd6f4008	-0.058410674
184	0x3cde1386	0.027108919
185	0xbc51e26e	-0.012810333
186	0x3d096f70	0.03355354
187	0x3d92e595	0.071726955
188	0xbd85bd3d	-0.06530235
189	0xbd79e5c3	-0.061010133
190	0xbdafb6f3	-0.08579817
191	0x3d3f6787	0.04672959
192	0xbd0aae2a	-0.033857502
193	0x3d2f78e8	0.042839915
194	0xbdbf6fb4	-0.093474776
195	0xbe0d6445	-0.13807781
196	0xbd9b9ca7	-0.075982384
197	0x3db99b70	0.090628505
198	0xbe10cbeb	-0.14140289
199	0x3d140c8b	0.036144774
200	0xbe34c927	-0.17654859
201	0x3da82959	0.082110114
202	0xbe0ee13a	-0.13953105
203	0xbe090c9e	-0.1338372
204	0x3b45600c	0.0030117063
205	0xbd55e42d	-0.05221956
206	0x3d9f7ebe	0.07787846
207	0x3d032a63	0.032022845
208	0x3d30a362	0.043124564
209	0x3d746337	0.05966493
210	0x3d4d15b7	0.050069537
211	0xba899d45	-0.001049914
212	0xbcfdaf03	-0.030967241
213	0xbb6bc675	-0.0035976444
214	0xbd902631	-0.070385344
215	0x3df3b03f	0.11898851
216	0x3d5faca4	0.054608002
217	0xbd839daa	-0.064265564
218	0xbdae04b1	-0.084969886
219	0xbd8910a9	-0.06692631
220	0x3dfcf49f	0.12351345
221	0xbd607432	-0.054798312
222	0x3a8f7862	0.0010945911
223	0x3cbf2c28	0.023336485
224	0xbcffb8f1	-0.031216117
225	0x3d2a2381	0.041537765
226	0xbda95ee5	-0.08270053
227	0x3d4b3c2d	0.049617935
228	0xbd872450	-0.06598723
229	0x3ddc6936	0.10762255
230	0xbb095a90	-0.002095852
231	0xbdc27669	-0.09495241
232	0xbd9413e2	-0.07230355
233	0xbd95fc1b	-0.07323476
234	0x3d4509eb	0.04810516
235	0x3ca9ad99	0.02071266
236	0x3e364efe	0.1780357
237	0xbb7d73bc	-0.003867372
238	0xbd20d0f2	-0.039261766
239	0x3de630ec	0.112398
240	0xbe3349fc	-0.17508692
241	0xbdb7c1a8	-0.08972484
242	0xbd1543ec	-0.03644173
243	0xbd93b232	-0.072117224
244	0xbc84164b	-0.016123911
245	0x3e25abee	0.16178867
246	0x3d8b4122	0.067995325
247	0xbd653591	-0.055959288
248	0x3d957a4d	0.07298718
249	0x3d408906	0.047005676
250	0xbc622451	-0.013802604
251	0xbd2aa53b	-0.041661482
252	0xbde8d3f9	-0.113685556
253	0xbc1eec36	-0.009699872
254	0xbdc64189	-0.096804686
255	0xbc84b9e2	-0.016201917

layer1.2.layer.bias f4 [128]
0	0xbda82040	-0.08209276
1	0xbd7faf8d	-0.062423278
2	0xbc8c3881	-0.017116787
3	0xbba11ea0	-0.004916981
4	0x3c4e9ee8	0.012611128
5	0xbc1a5ad9	-0.009421074
6	0xbd24d0dc	-0.040238246
7	0x3beb15b2	0.007174217
8	0x3d44a20e	0.04800611
9	0x3c45d198	0.012073897
10	0xbc0aa9bd	-0.00846332
11	0x3d472dad	0.048627544
12	0x3d9daff4	0.07699576
13	0x3c973581	0.01845813
14	0xbd059dc9	-0.03262118
15	0x3c575b37	0.013144306
16	0x3d290492	0.041264124
17	0x3b671112	0.0035257977
18	0x3c655445	0.013997142
19	0xbbe0eb00	-0.0068639517
20	0xbc87e392	-0.016588006
21	0x3d463667	0.048391726
22	0xbd31cc4c	-0.043407723
23	0x3c619655	0.013768752
24	0xbc9d365b	-0.019190958
25	0xbcd9af9c	-0.026572995
26	0x3d6bf516	0.05760678
27	0xba2c0b2e	-0.0006562945
28	0xbcc88331	-0.02447662
29	0x3cb8079a	0.022464562
30	0x3afa4ea9	0.0019096929
31	0xbb4e8961	-0.003151499
32	0xbd28c9a6	-0.041207932
33	0xbbf4de6c	-0.007472804
34	0xbcb0dcc8	-0.021589652
35	0xbb98d1b3	-0.00466367
36	0xbcbbf662	-0.022944633
37	0xbcea5b6e	-0.02860805
38	0x3cf213d5	0.029550472
39	0xbacf4179	-0.0015812359
40	0x3d561572	0.052266546
41	0xbd826902	-0.06367685
42	0x3cc75d5a	0.024336506
43	0x3bee451b	0.0072714216
44	0x3b460988	0.0030218083
45	0x3ddd3dc8	0.108027995
46	0xbb06144c	-0.0020458875
47	0x3c8b0f71	0.016975136
48	0xbc4f1f64	-0.012641761
49	0xbd53d402	-0.05171586
50	0xbc00ce93	-0.007861751
51	0x3d3a4fdb	0.045486312
52	0xbb615089	-0.0034380278
53	0x3d1803bd	0.03711294
54	0x3c61b22c	0.01377539
55	0x3cbf16cb	0.023326298
56	0x3bfec330	0.007774733
57	0x3c805775	0.015666703
58	0xbd999644	-0.07499364
59	0xbc2b8f72	-0.010471212
60	0xbd1ed68d	-0.03877883
61	0xbddbce83	-0.10732748
62	0xbc757fa1	-0.014984042
63	0xbd53128b	-0.051531356
64	0x3c0ab5cd	0.008466196
65	0x3c8a7965	0.016903589
66	0xbde33f59	-0.11096067
67	0x3c321db2	0.010871338
68	0xbd414df0	-0.047193468
69	0x3cbf4837	0.023349864
70	0xbd1c8e13	-0.03822143
71	0x3b55426e	0.0032540816
72	0x3d690f27	0.056899216
73	0x3cc53a2e	0.024075594
74	0x3bb5c5b7	0.005547251
75	0xbc857a85	-0.016293773
76	0xbd02aadf	-0.031901237
77	0x3c90489c	0.017612748
78	0xbd20d2a6	-0.03926339
79	0x3cae6df2	0.02129266
80	0xbcd785fe	-0.02630901
81	0xbd13f19f	-0.0361191
82	0xbd47a690	-0.04874283
83	0x3bf370a9	0.0074292016
84	0xbb97ab1c	-0.004628552
85	0x3cc4be15	0.02401642
86	0xbc140411	-0.009034173
87	0x3cf5defc	0.030013554
88	0xbc159e62	-0.009132
89	0xbc730442	-0.014832558
90	0x3ad44f1e	0.0016197895
91	0xbd068642	-0.032842882
92	0x3cc95491	0.024576457
93	0xbd2b12ca	-0.041765966
94	0x3d0ae196	0.03390654
95	0xbbb341bf	-0.005470484
96	0xbd439d93	-0.047757696
97	0x3d246174	0.040132
98	0x3c3496c1	0.011022271
99	0x3cfd83dd	0.030946666
100	0x3dbca8be	0.092118725
101	0xbd8bea68	-0.06831819
102	0x3d1caf86	0.03825333
103	0xbca55ea5	-0.020186732
104	0x37e0bc67	2.6790613e-05
105	0x3c413e23	0.0117946
106	0xba9ebe4a	-0.0012111154
107	0x3b26a8d8	0.0025430229
108	0x3d2e657e	0.04257726
109	0xbc8d44eb	-0.017244777
110	0x3d1557ba	0.036460616
111	0xbadf2ed8	-0.001702751
112	0x3bd687ab	0.0065469346
113	0x3d6a5d49	0.05721787
114	0xbc858b25	-0.0163017
115	0x3b55162d	0.0032514438
116	0xbd4be836	-0.049782
117	0xbcdde0b3	-0.027084684
118	0xb976161d	-0.00023468626
119	0x3c3fadec	0.011699181
120	0xbd629ea6	-0.05532708
121	0x3c8381df	0.016053138
122	0x3caaf92f	0.020870773
123	0xbc5cb3e5	-0.013470625
124	0x3b2c8964	0.0026327008
125	0xbc96f4d6	-0.018427294
126	0xbd2dfe17	-0.042478647
127	0xbbb8808d	-0.005630559

layer1.3.layer.weight f4 [128, 128]
0	0xbc9fc042	-0.019500855
1	0xbb185ebd	-0.0023249828
2	0x3c82e0b4	0.015976287
3	0xbbf306bb	-0.007416574
4	0xbc8df0c7	-0.017326726
5	0x3cccf7d9	0.025020527
6	0xba165e97	-0.0005736141
7	0x3c1c2396	0.009529969
8	0x3aab1bbb	0.0013054529
9	0xbceccfc7	-0.02890767
10	0x3bb5e977	0.005551513
11	0xbc1b53d9	-0.00948044
12	0xbcd6b0ff	-0.026207445
13	0xb9487fb2	-0.00019121057
14	0xbcbff0f2	-0.023430321
15	0xbce4d3ba	-0.02793299
16	0xbcadbe98	-0.021209046
17	0x3b030efe	0.001999795
18	0xbc6950dc	-0.01424047
19	0x3d428c2c	0.04749696
20	0x3a2e7147	0.0006654453
21	0x3cdb66b2	0.026782367
22	0x3cb878f7	0.022518618
23	0xbcc13078	-0.023582682
24	0xbd331649	-0.043722425
25	0xbd398dd3	-0.04530127
26	0x3c7f29ac	0.0155739
27	0x3b21b81d	0.002467639
28	0x3c9c41a3	0.019074267
29	0xbba83708	-0.0051335134
30	0xbd40bce9	-0.04705516
31	0x3cfc9ed0	0.030837446
32	0xba185068	-0.00058103213
33	0x3c7f5d9c	0.015586283
34	0x3b780bd8	0.0037848856
35	0xbd211e21	-0.039335374
36	0xbce700ad	-0.028198564
37	0x3d2dd490	0.042439044
38	0x3d8f6a81	0.07002736
39	0x3c4f5860	0.012655348
40	0xbcf9a5b9	-0.03047453
41	0xbc195b22	-0.009360107
42	0xbd4fb572	-0.05071015
43	0xbcf9275d	-0.030414278
44	0x3c3d7933	0.011564541
45	0xbd5d4f5f	-0.054030772
46	0xbd08fffb	-0.033447247
47	0xbc8ea88d	-0.017414356
48	0x3bb7747e	0.0055986037
49	0xbd09b6d5	-0.033621628
50	0x3d71f16b	0.059068125
51	0x3c4f72ef	0.01266168
52	0x3d9f8bd8	0.07790345
53	0xbd099a71	-0.033594552
54	0xbcad49db	-0.021153381
55	0x3d7a45e5	0.061101813
56	0x3d234e9a	0.039869882
57	0x3c5aa2c2	0.013344469
58	0xbce97d22	-0.02850205
59	0xbd880c14	-0.06642929
60	0x3c20576e	0.00978647
61	0xbceec030	-0.029144377
62	0x3d87cf66	0.06631355
63	0x3c981587	0.018564953
64	0xbd2659f2	-0.040613122
65	0x3b0272a1	0.001990475
66	0x3c16dd97	0.009208105
67	0xbbb75faf	-0.005596123
68	0x3b1a3e5a	0.00235357
69	0xbcf42908	-0.029804721
70	0xbd34b4e6	-0.04411783
71	0xbb92d6ed	-0.0044811876
72	0x3cba0907	0.022709383
73	0xbcd7777a	-0.026302088
74	0xbcc28fec	-0.023750268
75	0x3cf1cf0f	0.029517679
76	0x3d15d3d0	0.036578953
77	0xbc042412	-0.00806524
78	0x3da06f4c	0.07833728
79	0x3be9e410	0.007137783
80	0xbb6337d8	-0.0034670737
81	0x3cb15cad	0.021650637
82	0x3d077140	0.033066988
83	0x3d2081cb	0.03918628
84	0x3d717ba9	0.058955822
85	0x3d48aa2f	0.048990425
86	0x3cffb35a	0.031213451
87	0xbd79039b	-0.060794454
88	0x3c982177	0.018570645
89	0xbbad95a7	-0.005297381
90	0xbd5d3ad4	-0.05401118
91	0xbc997687	-0.018733276
92	0xbd01a5f5	-0.03165241
93	0xbcdbf790	-0.026851445
94	0x3d5dd14e	0.054154687
95	0xbd1d25f0	-0.03836626
96	0xbaff4141	-0.0019474403
97	0x3cd6b10e	0.026207473
98	0xbd8eb66e	-0.069683895
99	0xbcd0abb8	-0.025472507
100	0x3d263db7	0.0405862
101	0xbcd9ca47	-0.026585711
102	0x3c41eede	0.0118367355
103	0x3caa9846	0.020824563
104	0x3c814fa3	0.015785044
105	0x3d82a157	0.063784294
106	0x3c99543e	0.018716928
107	0x3d42b88e	0.047539286
108	0xbc38d415	-0.011281033
109	0x3d38b67f	0.045095917
110	0x3d0a6767	0.03379002
111	0xbd2e789b	-0.042595487
112	0x3c5e2428	0.013558425
113	0xbccfbc6f	-0.025358407
114	0xbc4ff9a8	-0.0126938
115	0x3c787498	0.015164517
116	0x3b89c174	0.0042039696
117	0x3d5c85ce	0.053838544
118	0xbc7cbc9d	-0.015425828
119	0xbd232d9d	-0.039838422
120	0x3cf84431	0.030305954
121	0x3cea5df2	0.02860925
122	0x3cf3e529	0.029772358
123	0xbd143a51	-0.036188427
124	0xbc83755c	-0.016047172
125	0x3aabb41a	0.0013099939
126	0xbd006493	-0.031345915
127	0xbbde1444	-0.006777318
128	0x3a6135ea	0.00085911027
129	0xbcfe2369	-0.031022744
130	0xbc22c99b	-0.009935762
131	0xbca6ce0f	-0.020361928
132	0x3c2f8bfe	0.010714529
133	0xbc58b876	-0.013227573
134	0xbd24d9d7	-0.04024681
135	0xbada5409	-0.0016657125
136	0x3a49be74	0.0007695921
137	0xbd22134b	-0.03956918
138	0xbb56c20b	-0.0032769467
139	0xbba45f39	-0.0050162342
140	0xbd278638	-0.040899485
141	0xbc1bd9f2	-0.009512411
142	0x3d99a332	0.0750183
143	0x3d0520e8	0.032502085
144	0x3c0b1390	0.008488551
145	0xbd8a0e6a	-0.067410305
146	0x3c68a156	0.014198622
147	0x3d2a83b0	0.041629493
148	0x3d1e3f0b	0.03863434
149	0xbd3206b1	-0.043463413
150	0x3ce0aa7c	0.027425043
151	0xbcf81a65	-0.030286023
152	0x3c80fa46	0.01574434
153	0xbcd80a35	-0.026372055
154	0x3cc776c7	0.02434863
155	0x3bbfc77b	0.0058526373
156	0x3cea0c91	0.028570445
157	0xbd506df4	-0.05088611
158	0x3c5d5a64	0.01351032
159	0x3a8c8592	0.0010720959
160	0xbc922ced	-0.017843688
161	0x3ceaf623	0.02868182
162	0xbbfb3f62	-0.007667468
163	0x3c24b572	0.010053026
164	0x3ccdc27e	0.025117155
165	0x3c58bec3	0.013229075
166	0xbcd1783a	-0.025570024
167	0xbcb93e84	-0.022612818
168	0x3d5c6a6b	0.053812426
169	0x3ba9a57d	0.0051771984
170	0xbd0166de	-0.031592242
171	0xbcb23d71	-0.021757813
172	0x3aaac7fc	0.0013029571
173	0xbd06b95d	-0.03289162
174	0xbdbd8b12	-0.09255041
175	0x3ca903e7	0.020631744
176	0xbc86c081	-0.016449215
177	0xbd08e6ce	-0.033423238
178	0x3ceacb5e	0.028661426
179	0x3b940ba8	0.004517991
180	0x3d25a947	0.04044464
181	0x3cbc2591	0.022967132
182	0xbc4d7e56	-0.012542328
183	0x3d5edecf	0.054411706
184	0xbd1ef33d	-0.03880619
185	0xbbf89986	-0.007586661
186	0x3cbdabe4	0.023153253
187	0x3cba76d3	0.022761738
188	0x3ad88954	0.0016520419
189	0x3ce4e9a1	0.027943434
190	0x3cfcb8cb	0.030849835
191	0x3cf96df2	0.030447934
192	0xbd53df24	-0.051726475
193	0xbb57e604	-0.0032943496
194	0x3d0d9bef	0.034572538
195	0x3c88fbc8	0.016721621
196	0xbc993dc4	-0.01870621
197	0xbb97cfd1	-0.004632928
198	0xbd04706a	-0.03233377
199	0x3bfa8795	0.007645557
200	0x3b5476f1	0.0032419527
201	0x3d61d5e1	0.05513561
202	0x3c126bbf	0.0089368215
203	0x3d05b792	0.03264577
204	0xba8ea113	-0.0010881744
205	0xbcfd536a	-0.030923564
206	0x3c207f86	0.009796029
207	0xbd128664	-0.035772696
208	0x3cca3e65	0.024687955
209	0xbc9d1183	-0.01917339
210	0xbc2642e4	-0.010147784
211	0x3c88345e	0.016626533
212	0x3bccb729	0.0062474203
213	0xbcf9e2de	-0.030503687
214	0x3b5f552b	0.0034077864
215	0xbc89bec5	-0.016814599
216	0xbacc136e	-0.0015569755
217	0x3b2eb3cb	0.0026657458
218	0xbc5d1ad4	-0.013495166
219	0x3b02d0bf	0.0019960848
220	0xbcc5ba4a	-0.024136681
221	0xbb5b9970	-0.0033508204
222	0xbcb23ebd	-0.021758432
223	0xbc11ecdb	-0.008906568
224	0xb91ba823	-0.00014844588
225	0x3c922ad8	0.017842695
226	0x3bcf1a51	0.006320276
227	0xbcb76396	-0.022386353
228	0xbd804df8	-0.06264871
229	0x3c4811f9	0.012211316
230	0xb9c274d6	-0.00037089613
231	0xbc7f7ffe	-0.015594481
232	0x3d1b09f9	0.037851308
233	0xbcaacdeb	-0.020850142
234	0x3c8ab91c	0.01693397
235	0xbc99d9d6	-0.01878063
236	0x3bfbca75	0.007684047
237	0x3b8b0fc1	0.0042438214
238	0x3b7a8ba8	0.0038230214
239	0x3bce0d14	0.00628818
240	0x3cc55914	0.024090327
241	0x3d37dcb7	0.044888224
242	0xbcb42650	-0.021990925
243	0x3d2dbe03	0.042417537
244	0x3c8cca0a	0.017186183
245	0xbc3791aa	-0.011204163
246	0xbc280dc5	-0.010257189
247	0x3d00b0c5	0.03141858
248	0xbcc438b0	-0.023952812
249	0xbcade1f9	-0.021225916
250	0xbcad3524	-0.021143503
251	0xbc660983	-0.014040354
252	0x3a9cbb26	0.001195763
253	0x3bb2510a	0.0054417895
254	0xbce54127	-0.027985169
255	0xbc950d19	-0.018194722

layer1.3.layer.bias f4 [128]
0	0xbc25844a	-0.010102341
1	0x3ac549cb	0.0015051899
2	0x3d019eda	0.031645633
3	0xbb89f0fb	-0.0042096353
4	0xbb6f3514	-0.0036500143
5	0xbb9c655a	-0.0047728242
6	0xbbb318c4	-0.005465599
7	0x3b2f9307	0.0026790516
8	0xbb1edf51	-0.0024241994
9	0x3cdcfbcd	0.026975537
10	0xbbc2e1d5	-0.0059473314
11	0xbcab7775	-0.020930985
12	0x3c3b3cae	0.011428041
13	0x3b682cab	0.0035427015
14	0x3d14a7bd	0.03629278
15	0xbb65f109	-0.0035086295
16	0xbbe5da6e	-0.0070145642
17	0x3cf650f4	0.030067898
18	0x3b4db01d	0.003138549
19	0x3ca021b4	0.01954732
20	0xbbc67ffd	-0.006057738
21	0x3b9a1a6c	0.0047028568
22	0xbb035b3a	-0.002004339
23	0xbbd667b7	-0.0065431255
24	0x3c8ee977	0.01744531
25	0x3c9f26b3	0.019427633
26	0x3c8acef3	0.016944384
27	0xbc819b46	-0.01582111
28	0xbbc61cec	-0.006045928
29	0xbc6163dc	-0.0137567185
30	0x3b41a5ab	0.0029548209
31	0xbcca9406	-0.024728786
32	0xbca75dc4	-0.020430453
33	0xbc9422f9	-0.018083083
34	0x3b267e92	0.0025405032
35	0x3b3b899e	0.0028615962
36	0x3bd77dbd	0.0065762685
37	0xbc364e85	-0.011127119
38	0xbb87ae1c	-0.0041406285
39	0xbc9230c5	-0.01784552
40	0xbba7407f	-0.005104124
41	0x3d14c9c4	0.03632523
42	0xbcb7d2b2	-0.022439335
43	0x3b586133	0.003301692
44	0x3bd00f1c	0.0063494574
45	0xbb142c25	-0.002260932
46	0x3c3b220a	0.01142169
47	0x3c9b69ce	0.01897135
48	0xbbae018a	-0.005310242
49	0x3cd194e8	0.0255837
50	0x3b61e53b	0.0034468907
51	0x3baca1b3	0.0052682995
52	0x3cf09a2b	0.029370388
53	0x3bbc4a7a	0.005746183
54	0xb9c3e40d	-0.0003736321
55	0xbca9579d	-0.02067166
56	0xbbd7bb47	-0.0065836045
57	0xba84c5fd	-0.0010129806
58	0x3c3d576f	0.01155649
59	0xbc97b31f	-0.018518029
60	0x3d017c98	0.031612962
61	0xbcb1efaf	-0.021720735
62	0x3a54aac5	0.0008112605
63	0x3b875f74	0.004131252
64	0x3c58b54d	0.013226819
65	0x3cc31e8d	0.023818279
66	0x3cff6f37	0.031180961
67	0x3cd6604b	0.026168963
68	0xbc94b766	-0.018153857
69	0x3bc82221	0.006107584
70	0xba3c2808	-0.0007177596
71	0x3c1be865	0.009515856
72	0x3c6d4a92	0.014483111
73	0xbc1f8845	-0.009737079
74	0xbbf2100f	-0.0073871682
75	0x3d0171f3	0.03160281
76	0x3c34e8a0	0.01104179
77	0x3a71f688	0.00092301564
78	0x3c95df27	0.018294884
79	0x3b2ab869	0.0026049858
80	0xbc7c0b45	-0.015383546
81	0xbb99a91a	-0.004689348
82	0xbcca9218	-0.024727866
83	0xbcc51822	-0.024059359
84	0x3a9a866c	0.0011789328
85	0xba329cae	-0.0006813508
86	0xbbe2725c	-0.0069106054
87	0x3c38cd7d	0.011279461
88	0x3c9de79e	0.019275483
89	0x3d02b0eb	0.031907003
90	0xbc3c1311	-0.011479155
91	0x3ba6269b	0.00507052
92	0xbcf46cae	-0.029836979
93	0x3b22a712	0.002481882
94	0xbc1d55ed	-0.009603006
95	0xbc002f20	-0.0078237355
96	0xbc1d4cba	-0.009600813
97	0xbc523af8	-0.012831442
98	0x3bd507aa	0.006501158
99	0x3c31da1d	0.010855225
100	0x3b01284d	0.001970786
101	0xbc4be283	-0.012444141
102	0xbbbffb90	-0.005858846
103	0xbbd33e50	-0.006446637
104	0x3ba5fe87	0.0050657424
105	0xbc03ea9d	-0.008051542
106	0x3bea3e9c	0.007148577
107	0xbaf57f0c	-0.001872988
108	0xbc630d8e	-0.013858212
109	0xbce0a9ca	-0.027424712
110	0x3a568981	0.0008183942
111	0x3caa59e1	0.02079481
112	0xbc92b1d4	-0.01790706
113	0xbcba11fa	-0.02271365
114	0x3c0568f6	0.0081427
115	0x39df9d63	0.00042651137
116	0xbcb7547d	-0.022379154
117	0xbc98dd1f	-0.018660126
118	0x3b62cc69	0.0034606701
119	0xbc985bbd	-0.018598432
120	0x3cc49efd	0.024001593
121	0xbbce8876	-0.0063028885
122	0xbc5b849f	-0.013398319
123	0xbbd3f84b	-0.006468808
124	0x3b589aaa	0.0033051171
125	0xbc28809a	-0.010284567
126	0x3ad166d8	0.0015976084
127	0xbbd597e7	-0.0065183523
