code/trained_model/metatransferpinn_ntask5.pth (torch, 519355 bytes, 14 tensors)

layer1.0.layer.weight f4 [256, 3]
00000000: 69d8 bf3e 3e31 0abe 3951 8dbd ee1a 1f3d
00000010: 26fd 8e3e f4d8 02bd 33cd a3be 851e 833e
00000020: 2b8b 653c 48e6 f63e 9cae 0abf c01c 0ebf
00000030: b25b 343e 5bb3 bbbb b9d3 13be cd5a 223e
00000040: 4945 27bf a852 72be 5a92 113d 61bf ac3d
00000050: b02c 043b 30be 163f 818c f83d d5d9 b2be
00000060: e135 f4be df9b 8dbe 9eb1 893e 69f4 04bf
00000070: 7bd4 22bf 8e63 043f 9663 8c3e d2a9 413f
00000080: 201e ed3e 4a95 c4be d06d 343d f7cb 013e
00000090: cbf0 b1be ad0d 0fbf ceae 0abf ffb1 d33e
000000a0: f30d 2a3f 01b6 c13e 3b27 b63e 78e5 eb3d
000000b0: 2075 afbe 1b4b a7be fd98 10be 847c 803e
000000c0: 57d3 cd3e 55f6 80be d6e1 1dbe cdad e3be
000000d0: 24d7 5a3e 7e66 0d3f 122f cf3c e4d8 b53d
000000e0: 3c55 53bc eb83 35bf 7d61 dbbc c93d 05bf
000000f0: 2e69 cb3e 06bc 543f ba4d c33e 3ce1 e73c
00000100: c7a6 bebe 7389 bcbd 4cf8 f5bd ded0 18bf
00000110: 7f9f e73c cd8c aa3e 21f0 85bd 7785 f53c
00000120: be25 1abd 9363 0f3f 6d55 1e3e b4c5 88bc
00000130: a82b 42be 0843 91bd a95d 023f add9 113f
00000140: 82e1 a53e cd58 9fbd 64b7 30bf 464c 3f3c
00000150: 8921 1fbe f57c 06bf 8db3 9ebd e2db fb3e
00000160: fdd5 ac3d 7620 f6be 8dd5 253f 9aca e93d
00000170: 9d44 92be bd62 b6be dcdf d93c 2062 d33d
00000180: 8cbe 7e3e b780 013f 7641 b7be d03d d8be
00000190: 1016 6abe ead1 1b3e 712f bc3e a2f6 9c3e
000001a0: a133 b9be 716b 563e 79ee ba3e c87d 26be
000001b0: c1f9 d8be b263 3dbf 2748 ecbe c074 1b3e
000001c0: 213b 173d dbc7 c8be de5a 9fbb 7517 23bf
000001d0: 4502 9abc 57d2 953e cc4e 2dbe d188 bfbe
000001e0: 8cef a03e 567a ce3e 81aa 99be 01f6 2d3f
000001f0: 4eef 70be 21cb 053f e40a b73e 0dc9 453f
00000200: 6da8 ed3e 06b0 923e 8ea3 563e 840b 223f
00000210: e88e 01bf 46f8 3ebf f3a9 93be 3bf9 9bbe
00000220: 5c6d b8be 08d9 613e 3bfe 513e ecf1 3f3f
00000230: d4ce 463f 5071 57be 9c08 24bf 600f 13bf
00000240: ffe0 b9be 0a06 d33e b751 45bf 93e1 963e
00000250: 8284 50bf be63 9dbe 9c35 a93e 838a 74bf
00000260: 8f81 19be bba0 ae3e 22dd bebd 5e46 cfbe
00000270: 8687 0cbf 21d0 713e cc3e 093f 819e 0d3e
00000280: c6dc 893d 4068 0ebe 0ac8 28bf f21c 96bd
00000290: ba31 9f3e 433a b9be 6a47 c93c fc63 443d
000002a0: e417 2d3f 981e a2be 65ef 503f 3f2e ab3e
000002b0: f88f 02bd 400d 6fbd 4dd0 0abf 92c3 1ebf
000002c0: 8eb5 d2be f99c be3d 82ac 37be a40d 93bd
000002d0: 7b50 d13e f8eb ac3e d37b 343f aed8 ea3e
000002e0: 5026 6d3e 7456 933e d0cf ec3e f9b5 cf3e
000002f0: 9dca afbe 509b ef3d 3fdb f73e 4cba 073e
00000300: a6f1 5b3e 643a a93e 581b f3be 9513 363f
00000310: a097 0bbf 4055 173f f819 2dbf 5416 473e
00000320: c5d2 1fbf 5655 1e3f 8a26 473f 27df a73e
00000330: 3523 a63e cc3e b4bd 7567 b3be e3e5 bf3e
00000340: 12fb 22bf 0528 15be ef24 03be 6cc2 373d
00000350: 66ca 933e 1946 e3be 607f 813d dea8 ef3d
00000360: 769e 2a3f 6a14 793e 4eed 283f 2a4e 1dbf
00000370: 933a 3bbe 3278 8f3e 5fdb 03bf 0196 37be
00000380: 2f77 2e3e a590 d3be 9460 20bf 3c07 01bf
00000390: a2b9 37bf 75de 02bf 5a32 19bf 2f0c 973e
000003a0: 7b39 40be 4a81 b7be 55af 51bf e3ae 47bf
000003b0: b6eb dfbd 3b8d e5be d8d5 a63e f0cc 183e
000003c0: 43f6 e7bd 59ae f4bd 8273 5c3d 9c32 2a3e
000003d0: ebd7 f1bc 674f e2be 1a2b 963e 7874 123f
000003e0: 3435 f63e d80c 0d3f f619 2b3f e0aa 9e3e
000003f0: 70dd 26bf 068f 02bf 23e8 45be 561a 08bf
0.37469795 -0.13495347 -0.069002576 0.03884404 0.27927512 -0.031945184 -0.31992492 0.25609222
0.014010231 0.48222566 -0.5417268 -0.5551262 0.17613104 -0.005728168 -0.14436235 0.1585495
-0.65340096 -0.23664343 0.035539962 0.0843494 0.0020168237 0.58883953 0.12136174 -0.34931818
-0.47697356 -0.27657983 0.26893324 -0.5193544 -0.6360547 0.5171441 0.27419728 0.7564975
0.46312046 -0.3839515 0.044050038 0.12675463 -0.34754023 -0.5588024 -0.5417298 0.41346738
0.66427535 0.3783417 0.35576805 0.11518377 -0.34269047 -0.32674488 -0.1412086 0.25094998
0.40200302 -0.25187936 -0.15418181 -0.44468537 0.21371132 0.55234516 0.025291 0.08879259
-0.012898739 -0.70904416 -0.026779884 -0.520474 0.39728683 0.830994 0.38145238 0.028305642
-0.37236616 -0.09205904 -0.120102495 -0.59693706 0.028274296 0.33310547 -0.065399416 0.029970868
-0.03763365 0.56011313 0.15462275 -0.016695835 -0.18961966 -0.07092863 0.50924164 0.5697277
0.3239861 -0.07780609 -0.6902983 0.0116759 -0.15540136 -0.5253442 -0.0774909 0.49191195
0.084392525 -0.4807164 0.6477898 0.11415596 -0.28567973 -0.35622206 0.026596002 0.1032145
0.24877375 0.5058703 -0.3579213 -0.4223466 -0.22859979 0.15216795 0.36754945 0.30656916
-0.36172202 0.20939423 0.36510065 -0.16258919 -0.42378047 -0.7398025 -0.46148798 0.15181255
0.036921624 -0.39214978 -0.004863127 -0.6370767 -0.01879991 0.2926204 -0.1692459 -0.3740907
0.3143276 0.4032771 -0.30012897 0.679535 -0.23528787 0.52263075 0.35750496 0.77259904
0.4641756 0.2864992 0.20960829 0.6329882 -0.5060868 -0.74597585 -0.28840598 -0.30463585
-0.36020935 0.22055447 0.20507137 0.7497852 0.77659345 -0.21039319 -0.64075637 -0.57445335
-0.3630447 0.41215545 -0.7707781 0.29468974 -0.8145219 -0.3074016 0.33048713 -0.9552385
-0.14990829 0.34107003 -0.093195215 -0.40483373 -0.5489429 0.23614551 0.53611445 0.13829996
0.06731562 -0.13906956 -0.65930235 -0.0732974 0.31092626 -0.36177263 0.024570186 0.047946915
0.6761458 -0.31663966 0.8161529 0.3343372 -0.03187558 -0.058362246 -0.5422409 -0.62017167
-0.4115414 0.09307284 -0.179369 -0.07180336 0.40881714 0.3377378 0.7050144 0.45868438
0.23159146 0.28776896 0.46252298 0.40568522 -0.3433427 0.116995454 0.4840946 0.1325466
0.214789 0.3305236 -0.474818 0.7112363 -0.54528236 0.59114456 -0.6761775 0.19442111
-0.62430984 0.6184896 0.7779318 0.3278744 0.32448736 -0.0880104 -0.3503987 0.37480077
-0.6366435 -0.14566047 -0.12807058 0.04486315 0.28865355 -0.44389418 0.06323123 0.11702131
0.6664804 0.24324194 0.659871 -0.61447394 -0.18284063 0.2802139 -0.5150661 -0.17928316
0.17037652 -0.41321293 -0.62647367 -0.50401664 -0.7176763 -0.5112069 -0.59842455 0.29501483
-0.18771927 -0.35840827 -0.8190816 -0.7800123 -0.1093363 -0.44834313 0.32585025 0.14921927
-0.113262676 -0.11947317 0.053821094 0.16620868 -0.029521903 -0.44201204 0.2932976 0.5720897
0.48087466 0.55097723 0.6683649 0.30989742 -0.65181637 -0.50999486 -0.19326834 -0.53165185

layer1.0.layer.bias f4 [256]
00000000: b6b9 11bf 1cda 583c afe7 013f d77e d73e
00000010: be9b 89bd 8e92 cb3e 3402 d5bd 156b cebe
00000020: ed90 da3e 8dba 923c 1412 1d3f 0b7a ee3e
00000030: 6252 84be 5636 b03e fe8a 4fbd 8ef0 3c3e
00000040: fede a7be f616 e6be e5c6 79bc ed75 62be
00000050: e9a9 923e 4bbd 913e e8b9 873e df11 4dbf
00000060: d587 d3be 57c6 8e3e 3bf0 5a3e 85d8 da3d
00000070: b9c6 143f e248 c3bb 5e53 15bf 1e9a 103f
00000080: b0a1 2e3e 22ae 0f3f ff20 b0bd d7aa 82bd
00000090: 74b3 05be 48d9 0b3f 4e05 3c3e 1abd f23e
000000a0: 7e06 abbd d074 333f d5c0 883e 9e76 583e
000000b0: 8727 24bf 51cd 8c3e f987 90bd cc2e 2cbf
000000c0: b513 33bf a5d7 1d3e 4d55 92be 04ac 7b3e
000000d0: 52ef cd3b 2930 053c 96d6 023f 160d 383f
000000e0: 9a0e 913d 1e34 21bf fb05 c33d 1fe8 293d
000000f0: 4eb5 a3bc 225e 1a3f 1b7f bebe af25 1cbf
00000100: 2270 ea3e a711 123f 11dc b2be 0e0d 483e
00000110: 2479 4d3e 21b0 5ebe 6322 d0be 4fd6 e63e
00000120: e5d6 b6bc ee80 1b3f a92b 193f ec49 6ebe
00000130: b849 da3e 5844 ae3e 337f f5bd cf7c 193e
00000140: bb32 163e fc09 0a3f 3902 053f 4f9d 763e
00000150: 713e 4ebf 83e1 7c3e 3d24 45be 233a 203f
00000160: 2fd1 98ba 4c72 03bf 4e5a 5b3c ab53 873d
00000170: 7b24 0cbf 7523 343f 0645 1d3f 011f 233f
00000180: c3e8 fabe 6563 c5bd 6f51 e0be f1f5 84bc
00000190: f988 2b3f 8852 ecbe d22d fd3e c03a b5be
000001a0: 4a7c f33c 00c2 163f 0bd9 213f fd35 463e
000001b0: 5c99 8cbc ffaf 6dbe 1f65 d2bd 750b 503e
000001c0: 3272 86be a409 dfbe 5386 e0be 1e17 6dbe
000001d0: 0332 143f 6a6e f43d 8899 b63e 58f2 41bf
000001e0: 325b 153f 0d99 3d3f 980f 0d3f fb5a 68be
000001f0: 88cb 0abf e95d 97be 985f 52be 3620 04bf
00000200: 5497 313f 0737 833e 5a98 45be 92a4 043e
00000210: 2cd9 e4be 79ca 24bf 3037 cc3e 448a 5abf
00000220: ee8d f63e d500 cdbe 1a58 d83e cd6d 243e
00000230: 206f 803d 2095 acbd 90d1 0b3f 3c5d 7ebe
00000240: 8eaa a23e 47fb 643e 6c30 fdbb 261c 27be
00000250: bc1a 07be cc23 1b3e 6cd0 f4be 1bfe edbd
00000260: d4ff bbbe 74b7 693d c3c6 f4bd 7f4b 00bf
00000270: dd24 0e3f 9216 af3e 91f3 2cbf 9a24 fd3e
00000280: 182f c03e 4ee0 18bf a89e 31bf 4070 293e
00000290: e72e 1bbe edf1 4fbe 128e ac3e 02d5 22bf
000002a0: 682d 193c 855f 633e 1423 06bf 9881 f63e
000002b0: 1f6f 0e3c cc8c 78be 7b22 613d b04d e8be
000002c0: cb0d 2fbe 4d76 78be 342c 62be 7cb8 d23e
000002d0: eb89 edbd fde4 0f3b b406 d8be 91af df3d
000002e0: 1e9c d93e e012 063f c21b 253e 9b09 373e
000002f0: ee8b 103e 58d3 e8bd 6bd1 533e 6c53 d5be
00000300: db01 a5bd a946 d13e 0d8d 363e ecdc dfbe
00000310: 3623 233e 0cf0 c4be 4a09 49be 2f70 07be
00000320: be4f dcbd a105 2b3d 7550 583d 403d 153f
00000330: 89a0 0a3f 6261 96bd f0f1 9e3e be79 87be
00000340: 96fc 73bd bdb0 2cbf cdd2 2fbe 3016 3cbe
00000350: dc23 8bbe e574 263f 1424 b33d 30ca 42bd
00000360: bc6f 39bf fa1e 963e f934 bcbe 73fd 3c3e
00000370: f2ca c33e cc08 f33e a7fd 203f 16fb 90bd
00000380: 32ab 36bf fade 9bbe 0242 123f 6a3f d43e
00000390: 6cc9 5dbe da4f 9cbe d8fe 253d e021 173e
000003a0: 9e23 263f 18b4 35bf a767 153e 39fa 8a3d
000003b0: 420f bebe e481 a43e 71f2 373e e0e0 e23e
000003c0: 3fbd c4bd 1f8f 6f3e 66af d43e f543 cb3e
000003d0: 36cd 82be 07c1 b9be 5441 203e 00e2 10bf
000003e0: c053 10bf 436b fa3e 59ae 2dbf a294 c9be
000003f0: 0569 4b3e caf0 e43e 38eb a4be 98fd 13bd
-0.56924 0.013235595 0.50744146 0.4208896 -0.067191586 0.3976025 -0.10400811 -0.40316072
0.42688695 0.01791122 0.6135571 0.46577486 -0.25844103 0.34416455 -0.050669663 0.1845114
-0.32787317 -0.44939393 -0.015245174 -0.22115298 0.28645256 0.28464732 0.26509023 -0.80105394
-0.4131457 0.27885696 0.21380703 0.10685829 0.58115727 -0.005959616 -0.58330333 0.56485164
0.17053866 0.5612508 -0.086000435 -0.06380241 -0.13056737 0.5462842 0.18361399 0.47409898
-0.08350848 0.70100117 0.2670962 0.21138999 -0.64122814 0.27500394 -0.07057185 -0.67258906
-0.69951946 0.15414293 -0.28580704 0.24577338 0.0062846327 0.008129158 0.5110868 0.7189497
0.07082863 -0.6297015 0.09522625 0.041481134 -0.019983914 0.60299885 -0.3720635 -0.60995
0.45788676 0.57058185 -0.34933522 0.1953623 0.20065743 -0.21746875 -0.40651235 0.4508538
-0.022319267 0.60743606 0.59832245 -0.23270386 0.42634368 0.34036517 -0.11987152 0.14989017
0.1466779 0.53921485 0.51956517 0.24083446 -0.8056403 0.24695401 -0.19252105 0.6258871
-0.0011659021 -0.5134628 0.0133882295 0.06607755 -0.54743165 0.70366603 0.61433446 0.63719183
-0.49005708 -0.096380986 -0.4381213 -0.016230555 0.6700588 -0.46156716 0.4944902 -0.35396385
0.029722352 0.5888977 0.63221806 0.19356532 -0.017162971 -0.23211668 -0.102731936 0.2031687
-0.26259 -0.43562043 -0.4385248 -0.2315335 0.5788881 0.11935122 0.3566401 -0.7576041
0.5834228 0.7406166 0.5510192 -0.22690956 -0.54216814 -0.29563835 -0.20544279 -0.5161165
0.69371533 0.2562792 -0.19296399 0.12953404 -0.4469694 -0.6437145 0.39885855 -0.85367227
0.4815516 -0.40039697 0.42254716 0.1605751 0.062711954 -0.08426881 0.5461664 -0.24840254
0.31770748 0.2236148 -0.0077267196 -0.16319332 -0.13193792 0.15150374 -0.47815263 -0.116207324
-0.3671862 0.05705972 -0.11951973 -0.501152 0.55525 0.34196907 -0.6755915 0.49441987
0.3753593 -0.5971726 -0.69382715 0.16546726 -0.1515461 -0.20307131 0.3370214 -0.63606274
0.009349205 0.22204407 -0.52397275 0.48145747 0.0086934855 -0.2427246 0.054964524 -0.4537177
-0.17095105 -0.24263878 -0.22087175 0.41156375 -0.115985714 0.0021956556 -0.42192614 0.109221585
0.4250192 0.5237255 0.1612387 0.17874758 0.14115879 -0.113684356 0.20685355 -0.41665208
-0.080569945 0.40874222 0.17827244 -0.43723238 0.159314 -0.3846439 -0.1963245 -0.13226388
-0.10757397 0.041753415 0.052811105 0.58296585 0.5415121 -0.07342793 0.3104396 -0.2646007
-0.059567057 -0.6745718 -0.17170258 -0.18367839 -0.27175796 0.65022117 0.08747116 -0.047556102
-0.7243612 0.29320508 -0.36759165 0.18456058 0.38240772 0.4746765 0.6288704 -0.07079141
-0.71354973 -0.30443555 0.5713197 0.4145463 -0.21658868 -0.30529672 0.04052624 0.14759016
0.648981 -0.70977926 0.14590321 0.067860074 -0.37121016 0.3213035 0.17963578 0.4431219
-0.09606408 0.2339444 0.41540068 0.39700285 -0.2554719 -0.3628008 0.1564992 -0.5659485
-0.5637779 0.4890996 -0.6784416 -0.3937121 0.1986428 0.44714957 -0.32210708 -0.036130518

layer1.1.layer.weight f4 [256, 256]
00000000: 0524 e0bd 5b4d ca3c 7c89 ab3c 9f47 9c3d
00000010: faca cabc b975 ff3d d02a 97bd dfa1 e6ba
00000020: 243d b93c e76d c73d 0983 de3d 7060 87ba
00000030: 7915 93bd 848b 4b3e bdf2 823b 93ea 643d
00000040: 9e16 e1bd 7064 6abd e37c d7bc 6f68 ecbd
00000050: 3dc7 163e ac78 a43d d5f2 9d3c 31b2 e5bc
00000060: 252d babd e37c 7b3d e0cf 0a3e a000 5e3d
00000070: 6ce7 6d3d 9541 cd3b 91ed aabd aabe 9b3c
00000080: d292 8cbd c0c0 0b3e 656a af3c 7050 bfbc
00000090: 464d d2bd 6c56 00bc e642 233e 04af cbbc
000000a0: 78b3 7ebd df7e 1f3e 8bc1 903d bd46 b03d
000000b0: e06d 14be 268f c53d e572 073e a0aa 09be
000000c0: f879 97bc 84f6 2d3d d82c 4f3d 01c4 993d
000000d0: 2858 51bd b987 733c 24a7 323c 9b54 af3b
000000e0: a67a 733d 2b5d a8bd 301f 11be 655b 20bc
000000f0: c158 123d 2cf4 623d b8f3 2abe 6829 16be
00000100: adaf 8fbc 99f0 e53c b5d3 6fbd 795a 713d
00000110: 45b7 4cba 93b1 703d f48a 8bbd 12c2 e63d
00000120: 7d9e 8c3d a745 953d e2a3 b43d 06dd e4bd
00000130: 32eb cdbd 33a3 07bc b67e aebd c0ba 2abc
00000140: 1a27 0abd 0529 823d ed4b 773d 67f4 c73d
00000150: a32b dbbd f383 ffbd eb6b d53c 2cbe d83d
00000160: a150 543d 52e6 a6bd cfbc 473c f63f be3a
00000170: d75c 97bc 12e8 573d fc89 153d 09f1 943d
00000180: bb8f 3dbd eced dfbd 1501 263c 9dae dabd
00000190: f478 cf3d 5ceb 7fbd 33f7 953d 7052 98bd
000001a0: aa68 48bd 060c e03c 3e3c 863d 588f e23c
000001b0: e03a f9bc 1b84 7dbd d81b 17be 7dd1 4dbd
000001c0: 955b 5f3d 4b01 cebd 37eb 02be 6717 1ebd
000001d0: 3cfc 163e 5387 26be 4686 673d c76f 93ba
000001e0: c956 d3bd 5224 343d fb97 ed3d 8fbb 09be
000001f0: cd68 eabd 42d2 5abd f685 25bd 63da 39bd
00000200: 9de8 e43a 3d65 863d a936 963c 440c 373d
00000210: 982a 00bd 85f7 873d cca4 023e f3f8 84bc
00000220: d8fe b03d 3171 d73b abe7 a13d a720 b63d
00000230: 7690 903d b905 133d 24f2 813d 2f37 bebd
00000240: c544 92bd 4c59 3b3d 5978 a0bd 22bc cdbd
00000250: 5d2f 79bd 449a 523d 06eb 28bd f53e 223e
00000260: a0b7 a6bd 2062 c33d 613e 3abd 62fc efbd
00000270: 3380 37bd b4a3 1bbc 356a 4dbd 7732 c23d
00000280: 0e99 cfbc ca3a 8dbd 5eb4 46bd fc04 003e
00000290: 7f46 893c af28 b03d 3218 e43c 7589 b5bd
000002a0: 46bc 213d 711b 8b3c b7e7 30be e0cf 8dbc
000002b0: f406 f63d c5fb 7f3d 38ff 23bd 26bd 19bd
000002c0: f77a 183c 4491 063e 180d 30bc 0463 483d
000002d0: 0163 f4bd d327 093d b76a e43c 549c 693d
000002e0: 315a b73d 0506 c03d 4a67 933d 5d67 243d
000002f0: 11d9 84bd f6f4 b3bd afcd 7b3c 490b 28bc
00000300: 617f 8ebc 5179 dc3d fd24 9d3d c0e2 d8bd
00000310: f386 e33d 4509 31bd 6e27 dabd 0f05 7ebd
00000320: 1e08 f3bc e67b adbc ceeb 79bd 0bd4 48bc
00000330: 8b6a df3d 8aba 29bd 4a62 893d 4e36 86bc
00000340: 5a41 2ebd eff0 4bbd 3b53 7ebd 1262 cd3d
00000350: 8e4b babd 6787 ca3d 9430 8bbc 4297 71bc
00000360: 5c02 4cbd 58e2 9ebc bd98 babd 5bda bbbd
00000370: 9355 da3d be1f 563d ebdf 8e3c fb3d 683c
00000380: 9e0c 443d 8763 863d 201f 763d 0a81 e6bd
00000390: 2222 4fbd 4ab6 9a3d d638 f0bd d078 e73d
000003a0: 490e a23d 2e4f b8bd 2990 fbbc 7708 593c
000003b0: a19d 72bd 36e3 fd3d d8cf 2ebc 318a d93c
000003c0: 3349 6ebd e1e6 4e3c 82f6 9d3d 0b17 f53d
000003d0: 68e4 95bc 8f49 debc 6c7e 773d 3b76 f5bd
000003e0: d958 2e3d 8eab cb3d 5190 1bbd 2463 35bd
000003f0: c5ef 25be 17bd 3a3d cc26 b63d e583 82bd
-0.1094437 0.02469509 0.020939581 0.07630848 -0.02475499 0.12473626 -0.07381213 -0.0017595849
0.022612162 0.09737759 0.10864837 -0.0010328423 -0.0718183 0.1987744 0.003996222 0.05588777
-0.10990642 -0.05722469 -0.026304668 -0.115433566 0.14724441 0.08030829 0.01928083 -0.02803907
-0.09090642 0.061398398 0.1355586 0.054199815 0.05808203 0.0062639215 -0.083460934 0.019011814
-0.06863941 0.13647747 0.021413038 -0.023353785 -0.10268645 -0.007833105 0.15943488 -0.024863727
-0.062182873 0.15575741 0.070681654 0.08607242 -0.14495039 0.09646444 0.13227423 -0.13443995
-0.018490776 0.042471424 0.050579876 0.07508088 -0.051109463 0.014863902 0.010904107 0.005350662
0.05944314 -0.082208954 -0.14172053 -0.009787415 0.035729174 0.05540864 -0.16694534 -0.14664233
-0.017539823 0.028068827 -0.05855151 0.058924172 -0.0007809292 0.058763098 -0.068136126 0.11267485
0.06866167 0.07288676 0.08820321 -0.111749694 -0.100546256 -0.008278656 -0.08520262 -0.010420501
-0.033728696 0.0635548 0.060375143 0.09763413 -0.107016824 -0.12476339 0.026052436 0.105831474
0.051834706 -0.08149399 0.012191012 0.0014514911 -0.018476887 0.052711554 0.036508545 0.07272536
-0.04627965 -0.10934052 0.010132094 -0.10677836 0.10130492 -0.062480316 0.0732254 -0.07437599
-0.04892794 0.027349483 0.06554459 0.027656242 -0.030423582 -0.061893564 -0.14756715 -0.05024861
0.0545307 -0.1005884 -0.1278504 -0.038596537 0.14744657 -0.1626256 0.056524538 -0.0011248522
-0.10319287 0.04397995 0.116012536 -0.13450454 -0.114457704 -0.053423174 -0.04041096 -0.045374285
0.0017464344 0.065622784 0.01833661 0.04468943 -0.03129062 0.066390075 0.12758178 -0.01623199
0.086423576 0.0065747728 0.07905515 0.08892947 0.07058804 0.03589413 0.06345013 -0.09287869
-0.07142023 0.045739457 -0.078354545 -0.10045649 -0.060836185 0.05141665 -0.04123976 0.15844329
-0.081404924 0.095402 -0.045469645 -0.1171806 -0.044799995 -0.009499479 -0.050150115 0.09482282
-0.025341537 -0.06895979 -0.048511855 0.12501901 0.016757248 0.0860151 0.027843568 -0.088641085
0.039486192 0.016980859 -0.17275892 -0.017311037 0.12013045 0.062495966 -0.040038317 -0.0375339
0.009306661 0.13141352 -0.010745309 0.048922554 -0.11932946 0.033485245 0.027882917 0.05703385
0.089527495 0.09376148 0.07197435 0.040137637 -0.06486715 -0.08786957 0.015368863 -0.010256597
-0.017394723 0.10765327 0.076730706 -0.10590124 0.11109724 -0.04322173 -0.10652052 -0.062016543
-0.029666957 -0.021177243 -0.061015896 -0.012257586 0.10908993 -0.041437663 0.067082 -0.016383316
-0.042542793 -0.04979032 -0.062091094 0.10028471 -0.09096442 0.09889107 -0.016990937 -0.014745535
-0.049806938 -0.019395038 -0.09111164 -0.091725074 0.10660853 0.052276365 0.017440757 0.014174934
0.047863595 0.06561952 0.060088277 -0.11255081 -0.05056966 0.075543 -0.117295906 0.1130234
0.07912881 -0.08999477 -0.03070839 0.013246647 -0.059232358 0.12396853 -0.010669671 0.026555153
-0.058175277 0.012628288 0.07713033 0.11967286 -0.01829739 -0.027134685 0.0604233 -0.11985441
0.0425652 0.09944831 -0.037979428 -0.044284 -0.16204746 0.045590486 0.08894119 -0.06372813

layer1.1.layer.bias f4 [256]
00000000: b61f 8bbd a54c 5fbd f563 983d db35 a1bb
00000010: 7dba 1dbd 1bf3 e23a b2a7 8ebc 4c10 aa3c
00000020: 441e 51bd 5c5b 733d 2b9c 013e 0fef a1bd
00000030: 75fc 113d 8e2a ba3c f318 563d be67 a8bd
00000040: 1356 a6bd dac2 05bd fd9e 8fbd 2ef0 87bc
00000050: a395 6bbd 3592 173e e530 80bd 8fa9 5fbd
00000060: e949 113d 3692 90bd 507a 98bd bbbb bcbd
00000070: 732a ea3d 6f01 2dbd 77b9 363d bab8 643c
00000080: e8cf 073c 9574 393d 9d0b 0fbd 9cd4 fd3b
00000090: 398d 0dbd 4ab2 fdbd cbc6 2cbd ea65 a2bd
000000a0: 579d 6f3d 3378 ebbc 5e72 00ba ef83 7e3d
000000b0: abd5 d2bc 9f67 e639 b876 93bc fb48 3f3d
000000c0: c11e dbbc 4f9b 29bd b739 203d 42b0 453d
000000d0: f13c e73d 3de7 1dbd e8ce e13b 747e 32bd
000000e0: 20c5 d8bd 1273 343d dfe2 783d 0a43 ad3d
000000f0: cf42 b13d 9a36 bdba 45f1 6abd e7fc 233d
00000100: bad8 ccbc 9548 2d3d 421c 063d 96ac 6b3c
00000110: 9e53 8abc c79c a23d 2b17 383d 3f32 c3bd
00000120: 067b 103d e7ba 47bc ada9 953d b97b a53a
00000130: b33a bdbc 6e1d f2bc 210e 0337 1ac5 33bd
00000140: b356 cdbd bb43 ca3d c570 89bd b967 7d3d
00000150: 673d 9f3c 0519 403d 24f4 80bd ae96 a7bc
00000160: 3a08 763d 2f78 95bc 6d9c e7bc fad3 4c3e
00000170: e13f 2e3d f710 a73d 3b60 05bd 71b2 a0bb
00000180: 2c3f ae3d 9acc 46bd 3d04 58bd 9fac b83d
00000190: e03c 4c3d 26ae e63b eb04 0b3d 9138 1bbd
000001a0: 7137 beba 2aab 1abc 09c9 2bbc 4c9e de3c
000001b0: 31cc 5f3d d755 99bd f3dd 02bd 3425 90bd
000001c0: b3d8 a03b 4db2 5fbd 7c4b 36bb 0ec2 87bc
000001d0: acdd 0a3d 82d9 083c bb9f 28bd d08c 653d
000001e0: 0e26 78bc 887f 47bd 4692 1f3c ae39 83bc
000001f0: f385 cfbc 8c71 793b e7b7 c23c 42d2 aa3d
00000200: 1b5b 153d dee9 a83a 9cf8 01bd 103f 39be
00000210: 0694 d5bd 505d 493d 67a4 4abd 2e54 02bd
00000220: b76c 4dbc 3b1d e33b 9be6 813d d6a5 d2bc
00000230: 2623 8e3b d27f 30bd 12be 8d3d 088d c23c
00000240: c3a8 a53d 4cca 42bb c59a 6d3d 10ba f8bb
00000250: 2c8c 3cbc d6e2 663d bfc6 81bc e06a aabd
00000260: 28e6 e23d 644f 903d babf 9ebd 5ce7 bd3c
00000270: 1d19 9f3c b028 6dbd 3ad7 cabc 1197 04bc
00000280: 2eb5 223d 74c8 5a3c dcb5 9e3d 34b1 183e
00000290: a5e6 20bd 959e c53d ef60 0cbd 39ed c43d
000002a0: 4e6c cd3c f5d3 c2bb 6c0d 183d a36a 363d
000002b0: 210a 27bc ce31 aabc 40b3 8e3d 943c 713d
000002c0: bcbb 8dbc d70e 483d 7422 31bd 233a 6abd
000002d0: b313 7dbb 2401 b6bd 433d 793d e6ee 10bc
000002e0: 89c9 6c3c 5560 1abd 75cc 4fbc 4f35 443c
000002f0: 1a20 f4bd c369 3c3d 3ead 6a3d ca17 e6bc
00000300: a864 243e f5bb 85bc 70c2 463d 15bf d1bc
00000310: 8821 c3bc 3bd3 c7ba 3314 a1bc f82b 2cbd
00000320: 89c5 073e e22c c0bd 0920 6fbd 4f38 fe3d
00000330: 4a33 2d3d 5144 b83d 97a1 9c3d 04e6 6fbb
00000340: 1536 12bd d436 c13c 24e2 983d 22dc 41bd
00000350: 11ba e13c 6029 8abc cfb3 25bd fae6 86bd
00000360: 1855 abbc eb25 d03b a677 8cbd 60eb 0fbd
00000370: 919b 843d aff1 203b df5a 363d 4668 8b3c
00000380: 288e 4abd 4562 223d 6dc3 663d c755 9f3a
00000390: 208f be3c a99a a53d 7aa8 d839 5622 5cbd
000003a0: c11b 1bbd 1174 f7bd 7a9f 4bbd 6a04 65bd
000003b0: 1186 473c fe32 ed3c 6c68 f83c 131d 003d
000003c0: 4158 453d 6056 7f3c 04bf b13d f2ca a0bc
000003d0: ca31 58bd 2167 67bd 4422 cebc e6ad 87bb
000003e0: e425 e73d a432 b4bd eb3d 4fbd 019c b3bd
000003f0: 76cb c03b bc26 28bd b080 b4bc e0a1 063e
-0.06793158 -0.054516453 0.0744094 -0.00491975 -0.038507927 0.0017314883 -0.017413948 0.020759724
-0.051054254 0.0594133 0.1265723 -0.07906925 0.035641152 0.02272537 0.052269887 -0.08222912
-0.08121886 -0.032656528 -0.070127465 -0.016594019 -0.05751575 0.14801867 -0.06259326 -0.054605063
0.035470877 -0.070591375 -0.07445204 -0.09215494 0.11433878 -0.042237695 0.044610467 0.013960058
0.008289315 0.045277197 -0.034923185 0.0077462923 -0.03455851 -0.123875216 -0.04218177 -0.07929595
0.05849966 -0.028743839 -0.00048998545 0.06213754 -0.02573665 0.00043946222 -0.018000945 0.04670046
-0.026748063 -0.04140788 0.03911754 0.048263796 0.112909205 -0.038550604 0.00689112 -0.043577626
-0.105844736 0.044055052 0.060763236 0.08460052 0.08655321 -0.0014435828 -0.057359 0.04003611
-0.025005687 0.042305548 0.032741793 0.014384409 -0.016885575 0.07940059 0.04494397 -0.09531068
0.035273574 -0.012190557 0.07307754 0.0012625373 -0.023099279 -0.029555049 7.811498e-06 -0.043889143
-0.10026302 0.098762 -0.06710962 0.061866496 0.019438459 0.04689886 -0.06296566 -0.020457592
0.06006644 -0.018245785 -0.028272832 0.20002738 0.04254139 0.08157533 -0.032562476 -0.0049040844
0.08508143 -0.048534967 -0.052738417 0.090173 0.049862742 0.007039803 0.033940237 -0.037895743
-0.0014512372 -0.009440223 -0.010484942 0.027175091 0.05463809 -0.07487076 -0.03194995 -0.07038346
0.004908645 -0.0546134 -0.0027815988 -0.016572025 0.03390281 0.008352639 -0.041167956 0.056042492
-0.015145792 -0.048705608 0.009739464 -0.016018715 -0.025332427 0.0038062064 0.023769332 0.08340885
0.036463838 0.0012887081 -0.031731233 -0.18090463 -0.10428624 0.049161255 -0.049473193 -0.03181856
-0.012538127 0.006930975 0.06342813 -0.025713842 0.004337686 -0.04309065 0.06921019 0.02374889
0.08088829 -0.002972263 0.058008928 -0.0075905398 -0.011508029 0.05636867 -0.01584184 -0.08321166
0.11079055 0.070463926 -0.07751413 0.02318161 0.019421155 -0.05790013 -0.024760831 -0.008092658
0.039723568 0.013353456 0.07749531 0.14911348 -0.03928246 0.09649388 -0.03427213 0.09615559
0.025076058 -0.0059456774 0.037122175 0.04453529 -0.010195286 -0.020775702 0.06967783 0.058895662
-0.017301433 0.048842277 -0.043245748 -0.05718435 -0.0038616478 -0.08886936 0.06084944 -0.00884602
0.014452347 -0.037689526 -0.012683024 0.0119756 -0.119201854 0.0459993 0.057294123 -0.028087515
0.16054022 -0.016324976 0.048525274 -0.02560381 -0.0238197 -0.0015245447 -0.019662952 -0.04203412
0.13258947 -0.09383561 -0.05838016 0.12413084 0.04228524 0.08997405 0.07648008 -0.0036605606
-0.035696108 0.023585714 0.07465008 -0.047329076 0.027554544 -0.016865432 -0.040454682 -0.06587024
-0.0209146 0.0063521764 -0.06858759 -0.03513658 0.064749844 0.0024558117 0.044520255 0.017017495
-0.049451977 0.0396445 0.056338716 0.0012156301 0.023261607 0.0808614 0.00041324255 -0.053743683
-0.037868265 -0.12082685 -0.049712636 -0.055912413 0.01217796 0.028954979 0.03032323 0.031277727
0.04817987 0.015584558 0.086790115 -0.019628022 -0.052781858 -0.056494836 -0.025162823 -0.0041406034
0.11286524 -0.087987214 -0.05059616 -0.0876999 0.0058836294 -0.041052565 -0.02203402 0.13147688

layer1.2.layer.weight f4 [128, 256]
00000000: 422d 643d fcd7 16bd bae1 0e3d d90b e23c
00000010: 6b91 feba b717 9f3c 7076 66bc 7aa9 823c
00000020: caed d4bc 055a a73d 19b1 873d 0deb dfbc
00000030: 7ed0 473d 5292 b5ba 53f1 2e3d e486 e9bb
00000040: bcff b63c bf06 03be 12fa 5cbc 05ef 0d3d
00000050: efcb babc d2b1 803d 6b1a 8ebd 6613 a43c
00000060: c759 b13c 7cdc 43bd 426f 4a3d cf4a bd3c
00000070: fca0 62bc b6ca 0f3d 7404 523c cf52 7abd
00000080: 89ea ffbc 21a1 883d 319a 7ebd a708 ae3c
00000090: a12a ebbc d35e febb b67d 5abd 54c7 173b
000000a0: 2599 ed3c fe8d e7bc 3aed 753d cc39 923d
000000b0: 9577 023d e016 d83c e28a 903d b3c7 b0bb
000000c0: 17a4 903c 095a 473d 464d 683b 3c36 8c3c
000000d0: b362 50bc 5852 353d e764 9b3c afbb 00bd
000000e0: 11a8 0b3d 065f 83bd 3bc0 e3bc bd30 b7bc
000000f0: 50e9 10bc fe56 c9bd eb9e e53b b5ab babc
00000100: 728a d23c fd14 883d c260 463d 6d6c c73d
00000110: 4a6f 1dbd 211d cdbc 497f cb3d f079 a1bc
00000120: 5e49 a93b 5070 b3bc 025d 40bd 3311 dabb
00000130: 790d 873d 837e 96bd 6844 19bb 6f3f 283c
00000140: 8a00 12bc 9aed 603c d836 e4bc 3e6e b33d
00000150: 0434 a8bc 04f0 02bb 4bb2 0d3d 29b4 38bd
00000160: c7bd 86bd ae16 f4bd 3ef4 94bc c6d9 e93c
00000170: 7cb8 093d 9e82 54bc 0653 eebc da73 1b3d
00000180: 3e12 013d a677 0ebd 1bc2 203b 3880 be3d
00000190: b03b 2abb 6879 27bd 2592 023c 9e7f 25bc
000001a0: 0906 65bd d226 38bd 3edf ca3b d3f7 5bbd
000001b0: 0084 26bb 52fe a93d 0568 c2bb 848c c1bb
000001c0: 751a 283d 4334 073d e9b6 88bb 4594 1ebc
000001d0: a326 89bc 4820 703d 8d72 153c 9737 da3d
000001e0: 3d8a f8bc e647 54bd 69d6 373d 5f2c b23c
000001f0: fe59 453d dd3f e73c 326c 033c 545f 123d
00000200: e39a 263d 5aaf c6bd 1a6b 60bd c549 bf3c
00000210: 5b6c 84bd 0ebf e6bd ebe2 6bbc 93a1 04bd
00000220: cbcb 65bd bae7 b23c 6dad 85bd cda8 643d
00000230: 4e46 98bd e1e3 f53c f2d8 993c b3c6 3fbd
00000240: 84fe 14be c5b3 e33b 62b1 4e3c 014c 053d
00000250: b5a5 843d 3fe9 ddbc 8476 8b3a 4a98 62bc
00000260: c456 cc3c 8d52 69bd 54d8 843d 71b4 b23d
00000270: d206 13bd dd74 1abe d2f0 0d3b a97f 0abe
00000280: 4739 553c 4142 4cbd b54a b6bd fb91 5f3b
00000290: 1ac5 da3b 13fa 82bb ee80 b4bc 9b8a d9bc
000002a0: 9e14 08bd ea14 e6bc 6f89 35bd a2f7 ae39
000002b0: 5a05 c23d 0be7 1cbd 5840 ab3c a145 5dbb
000002c0: 3f5a 3dbd b9c5 e1bc 7283 9a3d 4ebb 00bd
000002d0: f85a bfbb 6633 a4bd 444c 8c3b 8bf0 0c3d
000002e0: 0b11 b3bd b685 e5bd 1122 fa3c 03a0 2fbd
000002f0: efc4 863d d311 c43c bab5 ad3d 869b 8dbb
00000300: b16c c2ba f7c5 55bd fb86 a43c 74fe 5dbd
00000310: 725a 673c 9115 c33b 2a48 8cbd 010c 0cbd
00000320: 6039 0abd a53b 50bc 8e96 25bd e5ea 94bd
00000330: 0b5e 2ebd aa1e fdbc 97d2 2c3d 7751 093c
00000340: 264c 02bd e38f 8d3b 65fd 0a3c 93e3 a7bc
00000350: 3d8a 8a3c c1c5 ce3c 324c d3bc 5fd8 88bc
00000360: 9995 1f3d 5a78 1c3c 9ff9 bd3d 5962 393d
00000370: a810 9c3d e2bd 873c 21c9 273d eff7 153d
00000380: 2b86 6c3c 9d50 36bd 12f6 19bd 6dc7 8f3b
00000390: a563 c8bc aa63 2c3d d5e4 c3bc 80cb b6bc
000003a0: a416 123c 6d92 22bd e91d 493b fd62 d73b
000003b0: 584f a23c fe14 0cbc 3c24 8a3d c9cd 743d
000003c0: 82e2 99bd 8b2c 14bd 7cc8 1fbd 7c93 debb
000003d0: 845d 8e3b 320f 15bc f8c9 8abd 25c8 2abd
000003e0: fa14 b0bc 58b5 cf3b 41cc 55bd d0e7 1cbc
000003f0: db6a 713d 79d4 fa3d 7d59 8d3c 9959 c1bc
0.055707224 -0.036827073 0.03488324 0.02759354 -0.0019422 0.019420488 -0.014066324 0.015949953
-0.025992293 0.08171467 0.066255756 -0.02733376 0.048782818 -0.0013852811 0.042710613 -0.007126676
0.02233874 -0.12795542 -0.013487356 0.034651775 -0.022802321 0.062839165 -0.069386326 0.020028781
0.021649254 -0.047817692 0.04942251 0.02310696 -0.013832327 0.03510543 0.0128184445 -0.06111413
-0.031239765 0.06671358 -0.062158767 0.02124436 -0.02870685 -0.007762769 -0.053342544 0.002315958
0.029003689 -0.02826595 0.06004069 0.0713993 0.031852324 0.026378095 0.0705774 -0.0053948998
0.01765637 0.04866985 0.003544645 0.017115705 -0.012718844 0.044267982 0.018969012 -0.03142899
0.034095827 -0.06414609 -0.027801624 -0.022362107 -0.008844689 -0.098310456 0.00700747 -0.022786954
0.025700781 0.06644628 0.04843212 0.097374775 -0.03843621 -0.025038304 0.09936387 -0.019711465
0.0051662168 -0.02190414 -0.0469637 -0.0066548823 0.065943666 -0.07348349 -0.002338672 0.01026903
-0.008911261 0.013728524 -0.027858183 0.087612614 -0.020532615 -0.0019979486 0.03459386 -0.04509369
-0.06579166 -0.11918388 -0.01818287 0.028546225 0.033623204 -0.012970595 -0.029092323 0.03795228
0.031511538 -0.034782074 0.0024529758 0.093017995 -0.0025975518 -0.040887266 0.007969414 -0.010101227
-0.05591396 -0.044958897 0.0061911633 -0.05370314 -0.0025408268 0.08300461 -0.0059328103 -0.0059066433
0.041040856 0.033008825 -0.004172195 -0.009678905 -0.016742056 0.058624536 0.009121549 0.10655134
-0.030339355 -0.05182638 0.04488221 0.021749673 0.048181526 0.028228695 0.008021401 0.035735443
0.040675055 -0.097014144 -0.05478964 0.023350606 -0.0646598 -0.112669095 -0.014397363 -0.03238065
-0.056102555 0.021839011 -0.06527219 0.055825043 -0.074352846 0.030015888 0.018780205 -0.046820354
-0.14550215 0.0069489204 0.012615534 0.032543186 0.064769186 -0.02708876 0.0010640179 -0.013830254
0.024943717 -0.056963492 0.06486574 0.08725823 -0.035895176 -0.15083642 0.0021658433 -0.13525261
0.013014144 -0.049867872 -0.08900968 0.003411411 0.0066763284 -0.0039970963 -0.022034135 -0.02655535
-0.033222787 -0.028086144 -0.04432052 0.00033372367 0.09473677 -0.038306277 0.020904705 -0.0033763426
-0.046228644 -0.027560102 0.075446025 -0.031428628 -0.0058397017 -0.08017616 0.0042815525 0.034409087
-0.08743485 -0.11207144 0.030533822 -0.04287721 0.06580531 0.02393428 0.08481927 -0.0043215184
-0.0014833418 -0.052190747 0.020083895 -0.054197744 0.014120685 0.0059534987 -0.06849702 -0.034191135
-0.033746123 -0.012709533 -0.040426783 -0.07271365 -0.042570155 -0.03089841 0.04219302 0.008381239
-0.031810902 0.004320131 0.0084832655 -0.020494258 0.01691162 0.02524078 -0.025793169 -0.016704736
0.038961027 0.009550178 0.09276127 0.045259807 0.076203644 0.016570035 0.040963296 0.0366134
0.014436285 -0.044510473 -0.037588187 0.004387787 -0.024461577 0.042087235 -0.023912827 -0.022313833
0.008916531 -0.039690424 0.0030687994 0.0065730796 0.019813225 -0.008549927 0.067451924 0.059766565
-0.07513906 -0.036175292 -0.039009556 -0.006792484 0.004344644 -0.009097861 -0.06776804 -0.04169478
-0.021494377 0.0063387565 -0.052196745 -0.009576753 0.058939796 0.12247557 0.017254585 -0.023602294

layer1.2.layer.bias f4 [128]
00000000: 79b8 4d3c bd72 e4bc 353c d8bb 4d69 233c
00000010: e4a6 98bc 3fb5 7f3c c073 a9bc 4725 793d
00000020: 7df7 83bd 43c6 973d 2c81 a8bb 9999 0c3c
00000030: f1c8 953d 39d5 0a3d b617 91bd d93a 813d
00000040: 211c a23d eee7 c9bc 6f76 85bd 03ce 713c
00000050: e3a2 42bd 8cd7 513d c64f afbc f530 3abc
00000060: ab07 04bd 521c 133d c42e 163d babb 9f3c
00000070: 792a c9bd 79b0 b53c ee9b 7d3d 6a23 08bd
00000080: 204b 52bc b995 043d 79bb c7ba b65d 05bd
00000090: 5e86 2bbc d339 8c3d 3cc1 59bc 6a99 e4bd
000000a0: 6e19 7c3d b891 85bd 87a9 93bc c3d0 fcbc
000000b0: 93a5 4f3d 4c7b e23d 853d 2dbd 9e8a 503d
000000c0: 5005 0ebd 2d19 893c 8452 8f3b 46e4 553d
000000d0: 4cc0 37bd 066e 793c ba18 713a 9359 953d
000000e0: 707c 01bc f7f1 a63c 9389 ddbd 9ec1 1ebd
000000f0: bc01 743d cb6b 55bd 2bf8 54bc 03aa 963c
00000100: 6b92 0fbd 8d6f 2fbd 013f c3bd 7dae e13c
00000110: 97c5 a3bb b641 d6bc 87b4 203d 6bb0 2b3c
00000120: dbb0 783c 2d68 2a3d b613 5c3d 8dfe 383d
00000130: eba8 48bc 2514 0fbd 1ce1 253c bed7 ba3d
00000140: 4160 863b 5c0b 94bd dfc5 f0bb 4f34 56bd
00000150: 9d74 44bb 1220 86bc 90b6 56bd 6e49 623d
00000160: 2a9d 5a3d 3d05 24bd 410f 3e3b 0197 603d
00000170: bb9c 90bd ae07 653d b5d4 123d 3c43 07bc
00000180: f625 ee3c 3c1d 34bb 23e0 8fbb 0c2a f23a
00000190: 3238 843d f0cd e63c 432b 673c 6384 25bd
000001a0: e6b9 d9bb be57 49bd f55c 8cbc e337 643d
000001b0: 5ac6 1c3d dcc8 9abb af83 cd3c eeed 723d
000001c0: fc41 c1bd a4a6 f23b 8f3f 003e 90ad 803d
000001d0: 0f8f 80bd ae02 5a3d 5b88 9bbc 71a8 9c3c
000001e0: c0d4 e0bd 2fb9 31bd 8812 4a3d 998c d7ba
000001f0: 0bf5 79bb 44cf c5bd 40ad 41bd 72e9 57bd
0.012556189 -0.027886743 -0.006598974 0.009973836 -0.018634267 0.015607177 -0.020685077 0.060826566
-0.06443689 0.07410862 -0.0051423516 0.008581542 0.07313717 0.03389475 -0.070846006 0.063100524
0.079155214 -0.024646726 -0.0651673 0.01475859 -0.047518622 0.051230952 -0.021400344 -0.011364211
-0.032233875 0.03591568 0.036665693 0.019498695 -0.09822554 0.022178875 0.061916284 -0.0332369
-0.012835294 0.03236935 -0.0015238366 -0.032560073 -0.010469047 0.068469666 -0.0132907 -0.11162074
0.06154769 -0.06521934 -0.018025173 -0.030861264 0.050695013 0.11058673 -0.042294998 0.050913446
-0.034673035 0.016735638 0.0043738503 0.05221965 -0.044861123 0.015223986 0.0009197105 0.072924756
-0.007903203 0.02037905 -0.10817256 -0.038758866 0.059571967 -0.052104753 -0.012998621 0.018391615
-0.035051744 -0.042830992 -0.095335014 0.027549023 -0.00499792 -0.02615438 0.039234664 0.010479073
0.015178884 0.041603256 0.053729735 0.045164634 -0.012247304 -0.03493132 0.010124471 0.09123181
0.00410083 -0.07228729 -0.007347807 -0.05229598 -0.0029976733 -0.016372714 -0.0524202 0.05524581
0.05337254 -0.040044058 0.0029000791 0.05483151 -0.07061144 0.055915527 0.035847384 -0.008255776
0.029070836 -0.0027483245 -0.004390733 0.0018475666 0.06456031 0.02817437 0.0141094355 -0.040409457
-0.0066444753 -0.049155943 -0.01713417 0.05571736 0.0382751 -0.0047236513 0.025087206 0.05930894
-0.09436414 0.007405119 0.12524246 0.062831044 -0.06277286 0.05322521 -0.018985918 0.019123288
-0.10978079 -0.043389495 0.04933408 -0.00164451 -0.0038140442 -0.096586734 -0.047284365 -0.052712865

layer1.3.layer.weight f4 [128, 128]
00000000: 33db d83c dde7 553c f6be 01bd 5263 b1bb
00000010: 12e0 f63c 6706 f43c e1e0 1dbd 4a14 3c3d
00000020: ee7a 77bd ab93 00bd 33f2 b4bc 46b4 3dbc
00000030: 247e b1bc a357 7ebd 4953 5dbb 4b94 143c
00000040: b9e2 edbc ae00 263d f906 163c 3da1 043d
00000050: 0c40 f03b 8812 38ba 6ad5 23bd 5446 a4bc
00000060: e036 a33b c679 3dbc 8c93 cbbc 3ceb b1bc
00000070: a36d 443b 5689 15bb 8c72 8dbd 9ff2 d93c
00000080: 4b89 be3c 06d4 06bd 5c58 513d 9866 24bd
00000090: 8851 f13b 3860 2b3d efda 3d3c fc93 6e3b
000000a0: bdb0 a43c 201d ddbb 5537 9cbd 06b7 05bd
000000b0: 7113 003d 4f61 8abc 934a 0abd 7aca c4bc
000000c0: 3c0a e9bc 2162 373c b09c bb3d d345 e1bb
000000d0: a101 0ebc 308e 2ebd ff94 61bc d4a7 d23c
000000e0: 86c0 38bd 8c0e 4e3d 7407 33bd af7d ddbc
000000f0: 1de6 093c d5f1 12bc 3823 a3bc e00a 173b
00000100: 8ef9 463c 4b89 7ebc 1153 51bd 4a91 a8bc
00000110: 0958 37bd 7e0e a2bc 0a1b 383b 37e5 a93c
00000120: d1a6 9c3c d852 30bc 4007 873c a9cd 033d
00000130: e72a 213d fa89 393c c025 0d3d b73d f3bc
00000140: 3891 81bc bdcf 0abc 7015 9cbc 4a27 893c
00000150: 2af2 6a3d e491 e33c 73eb 74bd a511 5dbd
00000160: 69f9 853c c4b3 3e3d 777c 54bc 8db7 e0bc
00000170: 5215 21bb 1f9c d93c a7f9 0d3c e590 613c
00000180: f546 a139 177b 2c3d 5700 4cbd 1e39 d13c
00000190: 5d06 51bd c84d 103d 2358 80bc 1258 62bc
000001a0: 085e c43c 3e70 423d 27b3 80bc 204a f43c
000001b0: c748 543c e500 363c 5f7d 7a3d 2ed0 aa3c
000001c0: bbf6 a4bb 05ee 68bd 340b 25bd 2ef6 343d
000001d0: 8418 ec3c d489 30bc 9183 ed3b 396f 78bc
000001e0: ab24 d73c 4683 133c 28c4 d93b 94e2 adbc
000001f0: 845c 3e3d 6f75 983b fff3 cf3c 0aaf 29bd
00000200: 7553 753c f0fa e43c 58ce 6c3d 9c09 4c3c
00000210: acf6 5b3b 06a7 88bd f13b 1abd 38ae 53bc
00000220: d63f 5cbc 6f13 16bd 8c0c 023c 8f96 16bd
00000230: e9ea e63c 0cfa 1c3d 98cf 303c ff1f 643d
00000240: 3880 0dbb 853d 2dbd 739d 48bd e877 97ba
00000250: 1090 8f3d 8350 c1bc f823 d33b 6a31 cfbc
00000260: eba6 2dbc 41b7 ce3c 56a0 853c 0764 243d
00000270: e66e bd3d 1040 fb3c 8d9e 583c f369 0abc
00000280: 060d 6cbc 1b5c 9c3c c93c d7bc 12a0 6cbc
00000290: 0a53 b9bc a97c 813c c6ab a6bc d13d 973b
000002a0: 8b45 2c3c 4e2b 493d d8b0 a3bc d1af 52bd
000002b0: 578b d6bc c5a5 38bd c24c 20bd f7fa 2e3d
000002c0: 3d09 0ebd 5da0 34bb 4855 253d e8a3 8a3c
000002d0: 496d fb3b dc86 08bd 4741 ab3c eb35 813d
000002e0: 7ec9 543d 6b17 32bd df7d ee3b c68f a3bb
000002f0: 18d8 06bd 6dd2 823d 25fe 5cbc 0b41 c83c
00000300: 8f74 443c c8e1 70bb b394 773b 02a7 85bc
00000310: 7c79 eabc 0a21 86bc 01de 0b3b 88a1 e53c
00000320: 6fce ee3b fadf ae3c 3521 12bc e847 843b
00000330: cb70 5f3c 7984 25bc 8fde 843c 7e6a 21bc
00000340: 43bb 0b3c bc0d 68bc 9166 50bd 0171 91bc
00000350: 5e3f 213c c48d dd3c 8394 64bc 7604 bbbb
00000360: 70b5 27bd 6a7c e43b af59 01bc 9f5a 483c
00000370: 26bc 01bc dd23 b5bc 9e40 973c a2e0 2d3c
00000380: 2371 94bc de19 983c 23ef d43c 7850 c3bb
00000390: 96c9 88bc a0e1 143c 599a 84bb 56aa 8b3c
000003a0: c080 fc3c c9ba 0dbb 2deb 473d 1a31 29bc
000003b0: e0c2 043d 5b60 e33b a960 02bd 07db 453c
000003c0: 3c32 d13c d368 313d 0c7b cabc 364f 60bd
000003d0: 8118 92bb dfaa 963c 8547 54bc 0654 163d
000003e0: 1113 55bc c2e0 29bd aed1 20bd bc13 45bb
000003f0: 6591 c3bc be6c 81bc 5c1d 84bd 2844 633c
0.02647171 0.013055769 -0.031676255 -0.005413451 0.030136142 0.02978821 -0.03854454 0.045917787
-0.06041997 -0.031390827 -0.022088146 -0.011578625 -0.021666594 -0.062095296 -0.0033771566 0.009068559
-0.029038774 0.040527992 0.009156936 0.03238033 0.0073318537 -0.00070218043 -0.03999845 -0.020053066
0.004980907 -0.011564678 -0.02485063 -0.021718614 0.0029972575 -0.0022817454 -0.06906614 0.026604949
0.023258826 -0.032917045 0.051109657 -0.040136904 0.0073644556 0.04183981 0.011587842 0.0036404124
0.020103807 -0.0067478567 -0.07627741 -0.032645248 0.03126854 -0.016892103 -0.033762526 -0.02402233
-0.028447263 0.011192829 0.09160745 -0.006874779 -0.008667381 -0.04261607 -0.013768434 0.025714792
-0.04510548 0.05030684 -0.04370828 -0.02703747 0.00841668 -0.00896879 -0.019914255 0.0023047253
0.012144459 -0.015535663 -0.05110461 -0.020577092 -0.04476169 -0.019782301 0.0028092288 0.020739181
0.019122513 -0.010761939 0.01648295 0.032178555 0.039347555 0.0113244 0.03445983 -0.029692514
-0.015816316 -0.00847238 -0.019053191 0.016742367 0.057359852 0.027779527 -0.059794854 -0.053971905
0.01635428 0.046558157 -0.012969128 -0.027431274 -0.0024579358 0.026563702 0.008665479 0.013767456
0.0003076118 0.042109575 -0.04980501 0.02553993 -0.05103146 0.035230428 -0.015667027 -0.013814943
0.023970619 0.047470324 -0.015710426 0.029820502 0.012956805 0.011108612 0.06115472 0.020851221
-0.0050342954 -0.056867618 -0.040293887 0.044180088 0.028820284 -0.010775048 0.00724835 -0.015163236
0.026262602 0.009003466 0.006645698 -0.021226205 0.04647495 0.004652671 0.025384901 -0.041426696
0.014973511 0.027951688 0.057813972 0.012453463 0.0033563776 -0.06672482 -0.03765482 -0.012919955
-0.013442954 -0.036639627 0.007937562 -0.036764678 0.028188186 0.0383244 0.010791682 0.055694576
-0.0021591317 -0.042294998 -0.04897828 -0.0011556121 0.070098996 -0.023597961 0.006443497 -0.025292117
-0.010598878 0.025233867 0.016311806 0.040134456 0.09249668 0.030670196 0.013221395 -0.008448112
-0.014407402 0.019086888 -0.026274102 -0.014442461 -0.022622604 0.015806513 -0.02034558 0.0046155234
0.010514627 0.049113564 -0.019981787 -0.051437203 -0.02618949 -0.045079965 -0.039135702 0.042719807
-0.03467678 -0.0027561404 0.040364534 0.01692386 0.00767294 -0.033331737 0.02090515 0.06309112
0.05194997 -0.043479364 0.0072781886 -0.0049915044 -0.032920927 0.06387792 -0.013488327 0.024445077
0.01199068 -0.003675567 0.003777784 -0.016314987 -0.028622381 -0.016373176 0.0021342041 0.028031126
0.0072877924 0.021347035 -0.00891905 0.004036892 0.013637732 -0.010102385 0.016219405 -0.00985205
0.008528533 -0.014163431 -0.050879065 -0.01775408 0.009841768 0.027045138 -0.013951424 -0.005707319
-0.040944517 0.006972839 -0.007894917 0.012228637 -0.007918393 -0.022111828 0.018463429 0.010612639
-0.018120354 0.018567022 0.025992936 -0.0059605204 -0.016697686 0.009086996 -0.00404672 0.017048996
0.030823112 -0.0021626225 0.048808265 -0.010326648 0.03241241 0.0069389767 -0.031830464 0.012076146
0.025536649 0.04331286 -0.024716876 -0.05476304 -0.0044584875 0.018392025 -0.012956505 0.036701225
-0.013005034 -0.04147411 -0.039262466 -0.0030071577 -0.02387304 -0.015798923 -0.06450912 0.01387123

layer1.3.layer.bias f4 [128]
00000000: 5638 3c3b 7529 1dba a2f4 173b e1f1 0b3b
00000010: 7f3f aeba 8f04 c6b9 6ae9 e1bb c030 cdb9
00000020: b24d 33bb 7198 113b e8d1 27ba 6272 ccb9
00000030: 98e5 00ba 48dd cebb 883e bbbb a521 2abb
00000040: fb1b 573a cd45 623b e69e b0bb 3dac aa3a
00000050: 6082 043b 005c 9d39 00d7 023b 8aac 073c
00000060: 7e75 04bc ff16 1d3a 18cc 9ebb 6b33 c43a
00000070: ebd7 1ebb 3364 463b 12bb 10bb 5bde 783b
00000080: df48 bb3a 04ff c1ba ba7f 71bb 06c4 8bba
00000090: 79eb d23b 78b2 35b9 be58 ddb9 0da0 8239
000000a0: 110d 203b 8f46 64bb 0d8b e2ba 3439 6d3b
000000b0: b0ec 4bbb 6150 f439 8668 42bb 4d57 c6bb
000000c0: 82a4 0cbb 039a 1cba 36dd b03a a43a 1a3b
000000d0: f495 a0ba 67b3 3dbb 5a12 3b3b fad0 aabb
000000e0: 677e e53b 8b1a e93a f37b b83a b1d3 92ba
000000f0: 8f13 a6bb bc91 b739 d2b5 133c df30 f3ba
00000100: 6b20 0aba cbc2 043b 6ba4 0d3c 0ad3 d83a
00000110: 8150 03bc 8f18 0abb 87ff 87ba 86d3 90bb
00000120: edff deba 1072 4e3a 3726 39ba 2c06 9f38
00000130: 6097 533b 120e 5c39 0277 c6bb de9b 99bb
00000140: 3ebb 4fbb 5c70 713a c3c6 86bb 096a d1b9
00000150: 1adc 823b 0b4e 01bb cfaf 0bbb e866 2ebb
00000160: 402c 00bc 1572 37bb 171c 863b 56f6 31bb
00000170: 9b1a fb3a 698b 86ba c0be 76bb ac37 67b9
00000180: d87d a8bb d839 f037 ee3b 5d38 81ad 62bb
00000190: 1029 46bb 4e22 54bb e829 bc3a c187 ebba
000001a0: 7834 63bb 63f2 933a 3652 ea3a 3545 6d3a
000001b0: 66c7 30bb 4702 4a3b 3b8b 18bb 8c73 333b
000001c0: bb8f b6ba b829 e4ba 8bbb 1dbb 9a85 6dbb
000001d0: 520b a83a 88de 973a ef53 96bb 5ba2 fdba
000001e0: c4e4 7b3a c7a0 a63a 72b3 e2ba 9adc a3bb
000001f0: bfd1 b33a 2305 05bb 63b1 643a 6d54 1c3b
0.0028720102 -0.0005995252 0.0023186584 0.0021353888 -0.001329407 -0.000377689 -0.00689428 -0.0003913697
-0.0027359542 0.0022216106 -0.0006401823 -0.00038995134 -0.00049170246 -0.006313 -0.0057142414 -0.0025959995
0.00082057685 0.0034526468 -0.005390036 0.0013021302 0.002021931 0.0003001392 0.0019964576 0.008280883
-0.008084653 0.00059925014 -0.004846107 0.0014968937 -0.0024237584 0.0030272126 -0.002208416 0.003797433
0.0014288685 -0.0014800732 -0.0036849813 -0.0010663278 0.006436762 -0.0001732799 -0.00042218523 0.0002491478
0.002442185 -0.0034832095 -0.0017283872 0.0036197426 -0.0031116419 0.00046599194 -0.0029664352 -0.0060528875
-0.002146036 -0.0005973877 0.001349366 0.0023533488 -0.0012251721 -0.0028946043 0.0028544874 -0.0052129
0.0070035937 0.00177844 0.0014075026 -0.0011202005 -0.0050682495 0.0003501306 0.009015517 -0.0018553993
-0.0005269113 0.0020257707 0.008645157 0.0016542387 -0.008014799 -0.0021071767 -0.0010375836 -0.004419747
-0.0017013528 0.0007875273 -0.00070628844 7.5828604e-05 0.0032286271 0.00020986077 -0.0060566673 -0.0046877703
-0.0031697298 0.0009210163 -0.0041130497 -0.0003994259 0.0039935233 -0.0019730355 -0.0021314507 -0.002661163
-0.00782305 -0.0027991582 0.004092704 -0.0027154884 0.0019157709 -0.0010264936 -0.0037650317 -0.00022050616
-0.005141955 2.8637165e-05 5.274632e-05 -0.003458828 -0.0030236878 -0.003236908 0.0014355751 -0.0017969535
-0.0034668725 0.0011287447 0.0017877284 0.0009051145 -0.002697432 0.0030824111 -0.0023276347 0.0027382104
-0.0013928333 -0.0017407453 -0.0024068083 -0.0036242963 0.0012820757 0.0011586705 -0.0045876424 -0.0019350754
0.0009608979 0.001271271 -0.001729591 -0.005000663 0.0013719125 -0.0020297251 0.00087239424 0.0023854033
