code/trained_model/metatransferpinn_ntask1.pth (torch, 519355 bytes, 14 tensors)

layer1.0.layer.weight f4 [256, 3]
0	0x3ea7a2f5	0.32741514
1	0xbd5bb5c1	-0.05364013
2	0xbda5cc9f	-0.08095669
3	0x3df912d9	0.12161798
4	0x3f23abfc	0.639343
5	0x3d21d9ec	0.039514467
6	0xbe41c801	-0.18923952
7	0x3f252112	0.64503586
8	0xbd8ece61	-0.069729574
9	0x3ed25310	0.41078997
10	0xbec72069	-0.38891914
11	0xbf1b3d68	-0.60640574
12	0x3e99a561	0.30008987
13	0xbdea948a	-0.11454113
14	0xbd9026f6	-0.07038681
15	0x3dd4cae1	0.103902586
16	0xbf1f8111	-0.62306315
17	0xbebb2d16	-0.36557835
18	0x3dd42369	0.103583165
19	0xbdb313f1	-0.08744038
20	0x3dc3eff0	0.09567249
21	0x3f19e86a	0.6012026
22	0x3e5b55c3	0.21419434
23	0xbeb32803	-0.34991464
24	0xbf2bdc59	-0.671331
25	0xbedc91e9	-0.4308007
26	0xbda6d337	-0.08145755
27	0xbec5ab2a	-0.3860715
28	0xbf594dcb	-0.8488433
29	0x3f060f19	0.5236679
30	0x3e9b3179	0.30311182
31	0x3f3e7dc1	0.74410635
32	0x3ed55e02	0.41673285
33	0xbedc62ee	-0.43044227
34	0x3e44115b	0.19147246
35	0x3e353778	0.17696941
36	0xbe9db9b5	-0.30805746
37	0xbecd702e	-0.4012465
38	0xbef0bc42	-0.4701863
39	0x3eba5fdb	0.36401257
40	0x3f260eb4	0.64866185
41	0x3ebeea09	0.3728793
42	0x3e9e940f	0.30972335
43	0x3d80dfb8	0.06292671
44	0xbeba679c	-0.36407173
45	0xbec7c489	-0.39017132
46	0xbf0ef518	-0.55842733
47	0x3df10e5a	0.117703155
48	0x3ec9418a	0.39307815
49	0xbe879c0d	-0.26486245
50	0xbe2700af	-0.16308855
51	0xbeb4c50a	-0.3530658
52	0xbdb86b6b	-0.09004863
53	0x3f0f5600	0.559906
54	0x3e25eca7	0.16203557
55	0x3f20f2e3	0.62870616
56	0x3d21e7a6	0.039527558
57	0xbf12e60d	-0.5738228
58	0xbd513d96	-0.051084124
59	0xbeb097d7	-0.34490845
60	0x3eb7bba9	0.3588536
61	0x3f4b1edc	0.7934396
62	0x3ec7ded8	0.39037204
63	0x3d70a69e	0.05875265
64	0xbe990a88	-0.29890847
65	0xbe845a0a	-0.25849944
66	0xbe6fb2fc	-0.23408121
67	0xbf4df0b5	-0.80445415
68	0xbc81834b	-0.015809676
69	0x3ed35623	0.41276655
70	0xbecacf9d	-0.3961152
71	0x3e846fc3	0.25866517
72	0xbd991530	-0.07474744
73	0x3f099d97	0.5375609
74	0x3e979e30	0.29612875
75	0xbdaf7795	-0.0856773
76	0xbe19f48f	-0.15034698
77	0xbdeaac77	-0.11458676
78	0x3f11becc	0.5693176
79	0x3ec95b61	0.3932753
80	0x3eb08c10	0.3448186
81	0xbe113a49	-0.1418239
82	0xbf4756f9	-0.77867085
83	0xbdadb58b	-0.08481892
84	0xbe854548	-0.2602942
85	0xbf4b7a54	-0.7948353
86	0xbce1dc0d	-0.027570749
87	0x3f1a8aae	0.6036786
88	0x3d97c599	0.07410736
89	0xbebffb98	-0.37496638
90	0x3f1628c2	0.5865594
91	0x3e45f7e5	0.19332846
92	0xbea2b980	-0.3178215
93	0xbf1f9ef9	-0.6235195
94	0x3cfdc3a1	0.030977072
95	0xbe15314f	-0.14569591
96	0x3df95037	0.12173503
97	0x3f6ce437	0.9253573
98	0xbef2b585	-0.47404113
99	0xbec84ee2	-0.39122683
100	0xbf339fbc	-0.7016561
101	0x3de6a1cd	0.1126133
102	0x3e81dc49	0.25363377
103	0x3f084cfe	0.5324248
104	0xbee3339b	-0.4437531
105	0x3ea4e132	0.3220306
106	0x3f444899	0.76673275
107	0xbdb0f68b	-0.08640774
108	0xbeb9a3c2	-0.3625775
109	0xbf12e18e	-0.5737542
110	0xbed1dc14	-0.4098822
111	0x3d5c0704	0.053717628
112	0x3ee1e342	0.44118696
113	0xbec9f8a8	-0.39447522
114	0xbd86d2f8	-0.06583208
115	0xbf455f4b	-0.7709853
116	0xbe366a92	-0.17814091
117	0x3e779e67	0.2418152
118	0x3d10876c	0.0352854
119	0xbeeada91	-0.45869878
120	0x3ed1d225	0.4098064
121	0x3f588004	0.84570336
122	0xbe088c68	-0.1333481
123	0x3f068c07	0.52557415
124	0xbe9910eb	-0.2989572
125	0x3ed39800	0.41326904
126	0x3eb556db	0.35417828
127	0x3f602078	0.87549543
128	0x3ecf4ba6	0.40487403
129	0x3e8c199d	0.2736329
130	0x3e242e0d	0.16033192
131	0x3f231aba	0.63712656
132	0xbefaae51	-0.48961118
133	0xbf35d017	-0.71020645
134	0xbe923b27	-0.28560755
135	0xbed20680	-0.41020584
136	0xbf2362e3	-0.63822764
137	0x3deca46f	0.11554801
138	0x3e4c5b6b	0.19956748
139	0x3f1dc236	0.6162447
140	0x3f229f58	0.6352439
141	0xbe8f9137	-0.28040478
142	0xbf078eff	-0.5295257
143	0xbeeb8ccc	-0.46005857
144	0xbde0ca00	-0.109760284
145	0x3f830e7d	1.0238796
146	0xbefc0208	-0.492203
147	0x3e6336f9	0.22188939
148	0xbf23a3f0	-0.63922024
149	0xbe8cf026	-0.2752697
150	0x3e853250	0.26014948
151	0xbf52dfe8	-0.82372904
152	0xbdecf994	-0.11571041
153	0x3e8679d3	0.2626482
154	0x3e4ddfc4	0.20104891
155	0xbef29f80	-0.47387314
156	0xbf1e81b3	-0.61916655
157	0x3e607a19	0.21921577
158	0x3ecda790	0.40166903
159	0x3e6a6903	0.22891621
160	0x3f1b36fe	0.60630786
161	0xbc90c2c8	-0.017671004
162	0xbf1a8e5c	-0.60373473
163	0xbe2ecfb8	-0.17071426
164	0x3eb3a98d	0.35090294
165	0xbeb58187	-0.35450384
166	0x3e95beec	0.29247224
167	0xbd045762	-0.032309897
168	0x3e98e19c	0.29859626
169	0xbf8884e4	-1.0665555
170	0x3ef37f52	0.47558075
171	0x3e92aac4	0.2864591
172	0xbca3cafb	-0.01999425
173	0xbc851370	-0.01624462
174	0xbf141ff1	-0.5786124
175	0xbef313e2	-0.47476107
176	0xbec389cb	-0.38191065
177	0x3e2c72f7	0.1684073
178	0xbedf5eea	-0.436271
179	0x3b713840	0.003680721
180	0x3e9d8292	0.3076368
181	0x3e36f72b	0.17867725
182	0x3f18ecfc	0.5973661
183	0x3edcfe5b	0.43162808
184	0xbd784111	-0.060608927
185	0x3e6ec4b7	0.23317228
186	0x3f073568	0.52815866
187	0x3f367c18	0.712831
188	0xbe7e19d2	-0.24814537
189	0x3dd9e964	0.10640219
190	0x3f089d08	0.5336461
191	0x3e376276	0.17908654
192	0x3e3e1445	0.1856242
193	0x3f3d1faa	0.7387644
194	0xbeee3fdf	-0.46533105
195	0x3f3e7cf1	0.74409395
196	0xbf48ec33	-0.7848541
197	0x3f2bca62	0.67105687
198	0xbed4de75	-0.4157597
199	0x3f36ad93	0.71358603
200	0xbeb67a3f	-0.3564014
201	0x3f03b04e	0.51440895
202	0x3f1de823	0.6168234
203	0x3e6d7af0	0.23191428
204	0x3e83c47f	0.25735852
205	0x3e1c1ffb	0.15246575
206	0xbeea57d6	-0.45770139
207	0x3ea6ee21	0.32603553
208	0xbf1fe4a1	-0.62458235
209	0xbe2732bf	-0.16327952
210	0xbdb352df	-0.08756041
211	0xbee0f05f	-0.4393339
212	0x3e9f7a72	0.31148106
213	0xbec5e051	-0.38647702
214	0xbdd16514	-0.10224357
215	0x3e094bf3	0.13407879
216	0x3ec40e7b	0.38292298
217	0xbd786ec9	-0.060652528
218	0x3eca1213	0.39466915
219	0xbf140bbb	-0.578304
220	0xbed88aa3	-0.4229327
221	0x3e9b737e	0.3036155
222	0xbef02697	-0.46904442
223	0xbf1706cf	-0.58994764
224	0x3e38452c	0.17995137
225	0xbf13e0af	-0.57764715
226	0xbf033dab	-0.5126597
227	0xbf13d62d	-0.5774868
228	0xbf086f3d	-0.53294736
229	0xbeeaa1e8	-0.4582665
230	0xbec86514	-0.39139616
231	0x3e5b0abd	0.21390815
232	0xbe91c040	-0.28466988
233	0xbeb105d5	-0.34574762
234	0xbf36f037	-0.7146029
235	0xbf1f47ed	-0.62219125
236	0xbd8f1298	-0.06985968
237	0xbecdd1ef	-0.4019923
238	0x3e8df2bd	0.27724257
239	0x3e3ceb87	0.18449222
240	0xbe2eb1ef	-0.17060064
241	0xbeb39952	-0.35077912
242	0xbc1a2537	-0.009408287
243	0x3e266867	0.16250764
244	0x3e95a4fa	0.2922743
245	0xbee9cefb	-0.45665726
246	0x3e90cc70	0.28280973
247	0x3f0f4b8b	0.55974644
248	0x3ee410a9	0.4454396
249	0x3f0857c9	0.5325895
250	0x3f11391d	0.5672777
251	0x3e77459a	0.24147645
252	0xbee2f13d	-0.44324675
253	0xbebd3ea3	-0.3696185
254	0xbcb8639b	-0.022508433
255	0xbf0c28b5	-0.54749614

layer1.0.layer.bias f4 [256]
0	0xbeec0ade	-0.4610204
1	0x3e23e85c	0.16006607
2	0x3ef3aef4	0.47594416
3	0x3efff4b5	0.49991384
4	0xbc40418e	-0.011734379
5	0x3eaeb3e8	0.34121633
6	0x3a1583d5	0.00057035434
7	0xbe998f38	-0.2999208
8	0x3e3b7c69	0.18309177
9	0xbd3838af	-0.044975933
10	0x3f0e4619	0.5557571
11	0x3ec155a7	0.3776066
12	0xbe0488dc	-0.12942833
13	0x3e668c7d	0.2251453
14	0x3d9c3acf	0.07628404
15	0x3dac1dbc	0.08404109
16	0xbe08058c	-0.13283366
17	0xbf0a59de	-0.54043376
18	0x3c6b9a4f	0.014380052
19	0x3d8ff5c8	0.07029301
20	0x3e03dae1	0.12876464
21	0x3e3f2962	0.1866813
22	0x3e04c033	0.12963943
23	0xbf4e51d6	-0.8059362
24	0xbeb553d3	-0.35415515
25	0x3e1fff33	0.15624695
26	0x3d0edfa8	0.034881264
27	0xbdac94e6	-0.084268376
28	0x3ef42ec1	0.4769192
29	0x3ce23821	0.027614655
30	0xbeddd7b0	-0.4332862
31	0x3ef035ef	0.46916148
32	0x3e295816	0.16537508
33	0x3ed86f58	0.4227245
34	0x3c5dd44c	0.013539385
35	0x3db34ad7	0.08754509
36	0x3c010a23	0.007875952
37	0x3f2085b4	0.62704015
38	0x3d2e940b	0.042621654
39	0x3f1539e8	0.5829148
40	0xbad49bb1	-0.0016220716
41	0x3f0cd6a9	0.55015045
42	0x3e333258	0.17499673
43	0x3d0b1b5b	0.033961635
44	0xbf0b5c77	-0.54437965
45	0x3e33c6ec	0.17556351
46	0xbddd763f	-0.10813569
47	0xbf0ee6b6	-0.55820787
48	0xbded7a3c	-0.1159558
49	0x3e68450c	0.2268259
50	0xbe353406	-0.17695627
51	0x3eb48598	0.35258174
52	0xbe0e6b12	-0.13908032
53	0x3e0c171d	0.13680692
54	0x3eb98549	0.362345
55	0x3f461e05	0.77389556
56	0xbf1a1ea1	-0.60202986
57	0xbf02496e	-0.50893295
58	0x3eb6145e	0.35562414
59	0x3dfb9ab2	0.12285365
60	0xbe79e1e9	-0.24402584
61	0x3e8c1c01	0.27365115
62	0xbe8c1808	-0.27362084
63	0xbf0e80b4	-0.55665135
64	0x3ede3607	0.43400595
65	0x3ee1d443	0.44107255
66	0x3e934322	0.28762156
67	0x3c21ae12	0.009868162
68	0x3eacd6ad	0.33757535
69	0xbc133319	-0.008984351
70	0xbefe5f5b	-0.49682125
71	0x3e9d9577	0.30778095
72	0xbedf1757	-0.43572494
73	0x3ee56fd9	0.44811895
74	0x3ef814c6	0.4845335
75	0xbe2d18a3	-0.1690393
76	0x3f2fdfe6	0.68701017
77	0x3ec215e1	0.37907317
78	0x3e0a731a	0.1352047
79	0x3d2dd839	0.042442534
80	0x3c5624b6	0.013070276
81	0x3f13229e	0.57474697
82	0x3ed87f8b	0.42284808
83	0x3da71c23	0.081596635
84	0xbee70978	-0.45124412
85	0x3ec388e4	0.38190377
86	0xbd283372	-0.041064687
87	0x3ee7a966	0.45246428
88	0xbe9fc158	-0.31202197
89	0xbebba6f9	-0.36650828
90	0x3c043bb4	0.008070875
91	0x3e6b960b	0.23006456
92	0xbf083dc0	-0.53219223
93	0x3f1af9be	0.60537326
94	0x3f336f30	0.70091534
95	0x3effe988	0.49982858
96	0xbec2e5b0	-0.38065863
97	0xbe3a7c81	-0.18211557
98	0xbeb9b546	-0.36271113
99	0x3e649205	0.22321327
100	0x3f176655	0.5914052
101	0xbec37621	-0.38176063
102	0x3eebabbd	0.46029463
103	0xbec9744e	-0.39346546
104	0x3d8a6528	0.06757575
105	0x3e0341ab	0.12818019
106	0x3ef82c84	0.48471463
107	0x3e8b8e78	0.27257133
108	0xbdcb6558	-0.09931439
109	0x3d0af0f2	0.03392119
110	0xbe42429d	-0.18970723
111	0x3ddd2903	0.10798838
112	0xbe2fc724	-0.1716581
113	0xbda0dc34	-0.078545004
114	0xbeb3c8f4	-0.35114253
115	0x3e9c5d52	0.30539948
116	0x3ecf3d33	0.4047638
117	0x3e929639	0.28630236
118	0x3e23e476	0.1600512
119	0xbf3bbdf2	-0.7333671
120	0x3f15e0d9	0.58546215
121	0x3f3762eb	0.7163531
122	0x3e747ceb	0.23875777
123	0xbdad79c4	-0.084704906
124	0xbf1b700f	-0.6071786
125	0xbedc7dc3	-0.430647
126	0xbea9aede	-0.33141226
127	0xbf1b9279	-0.60770375
128	0x3f291a2d	0.66055566
129	0x3de3144f	0.11087858
130	0xbeaa9321	-0.33315375
131	0x3e053dee	0.13011906
132	0xbeb6f9a7	-0.35737345
133	0xbef5f808	-0.48040795
134	0x3e99ad54	0.3001505
135	0xbefa8761	-0.4893141
136	0x3ec3ba99	0.382283
137	0xbebc1e7d	-0.3674201
138	0x3ec3a7f4	0.38214076
139	0x3c594bcc	0.0132627
140	0x3e183e1f	0.14867447
141	0x3be3a375	0.006946976
142	0x3d21de13	0.039518427
143	0xbd03ba5c	-0.032160148
144	0x3f12945a	0.57257617
145	0x3d95f963	0.07322957
146	0xbe1909fb	-0.14945213
147	0xbe969291	-0.29408696
148	0xbd0f90de	-0.035050265
149	0xbe856ad4	-0.26058066
150	0xbef43e5d	-0.4770383
151	0xbe93bcec	-0.28855073
152	0xbefd226a	-0.49440318
153	0xbeaaa129	-0.3332608
154	0xbe920361	-0.28518203
155	0xbf15bd4c	-0.5849197
156	0x3f0a8139	0.5410343
157	0x3ed06ace	0.40706486
158	0xbf0f3778	-0.55944014
159	0x3e173b23	0.14768653
160	0x3ea758e6	0.32685012
161	0xbec4c7ed	-0.3843378
162	0xbf18b6b8	-0.59653807
163	0x3dd2ab2c	0.10286555
164	0xbdab074b	-0.083510004
165	0xbee8be49	-0.45457676
166	0x3ec27663	0.37980947
167	0xbedc4162	-0.43018633
168	0x3e40e4ce	0.18837282
169	0x3e2cc77b	0.16872971
170	0xbedbcc08	-0.429291
171	0x3eba60b3	0.364019
172	0xbd9f9086	-0.077912375
173	0xbf29a92a	-0.6627375
174	0x3ded487c	0.11586091
175	0xbea2a373	-0.31765327
176	0xbe89024f	-0.26759574
177	0xbefd4945	-0.49469963
178	0xbe0188c5	-0.1264983
179	0x3e8e64a9	0.27811173
180	0xbcf01a1d	-0.029309327
181	0x3d7df21e	0.06199848
182	0xbe88d7c2	-0.2672711
183	0x3daff4ea	0.085916355
184	0x3ea76642	0.32695204
185	0x3f0cf65c	0.55063415
186	0xbaed1926	-0.001808916
187	0x3e314efe	0.1731529
188	0x3f0250b6	0.50904405
189	0x3cc15861	0.023601713
190	0x3e601fa7	0.21887074
191	0xbe8b3f30	-0.27196646
192	0xbe22c1e2	-0.15894273
193	0x3de24cba	0.11049791
194	0x3d77873e	0.06043171
195	0xbe74b1f2	-0.23896006
196	0x3de2c242	0.11072208
197	0xbe5f7187	-0.21820651
198	0xbdc8de9f	-0.098080866
199	0xbc9a6712	-0.018847976
200	0xbe180837	-0.14846884
201	0xbcd2c5f9	-0.025729166
202	0x3e32ff1c	0.17480129
203	0x3f205960	0.62636375
204	0x3ed92836	0.4241349
205	0x3d4fe972	0.05075974
206	0x3ea25221	0.31703284
207	0xbea18a8e	-0.3155102
208	0xbe2bdd7b	-0.16783707
209	0xbf34c61c	-0.7061479
210	0xbcd7533c	-0.026284806
211	0xbec73fd4	-0.38915884
212	0xbe914928	-0.28376126
213	0x3efeb2d5	0.49745813
214	0x3e2d9b35	0.16953738
215	0xbdfa0857	-0.12208622
216	0xbf37da52	-0.71817505
217	0x3e9b611d	0.3034753
218	0xbf04bc7b	-0.518501
219	0x3da086fa	0.07838245
220	0x3e96ce47	0.29454252
221	0x3ede9954	0.43476355
222	0x3f12b469	0.57306534
223	0xbe192f9b	-0.14959566
224	0xbf471989	-0.7777334
225	0xbed4fc52	-0.41598755
226	0x3edca7e9	0.43096855
227	0x3e877b90	0.26461458
228	0xbe498f09	-0.1968347
229	0xbe64e6f6	-0.2235373
230	0x3de2d249	0.11075265
231	0x3c51813a	0.012787158
232	0x3f0a1d94	0.5395138
233	0xbf1494a8	-0.5803933
234	0x3e8eb984	0.27875912
235	0x3e319e2f	0.17345499
236	0xbf009dbb	-0.5024068
237	0x3e862b6f	0.26205012
238	0x3da466ec	0.08027443
239	0x3e9606a0	0.2930193
240	0xbb46d0b9	-0.003033681
241	0x3dbc3785	0.09190277
242	0x3ed15fab	0.408933
243	0x3e87d7e5	0.26531902
244	0xbe2edd10	-0.17076516
245	0xbee1e18e	-0.44117397
246	0x3e91c53d	0.28470793
247	0xbea864b7	-0.3288934
248	0xbf12ef11	-0.57396036
249	0x3e9daebe	0.3079738
250	0xbf046dc3	-0.51729983
251	0xbeeb33a7	-0.45937845
252	0x3ec64118	0.38721538
253	0x3ea454a0	0.32095814
254	0xbe867026	-0.26257437
255	0x3e504017	0.20336948

layer1.1.layer.weight f4 [256, 256]
0	0xbd5745e7	-0.0525569
1	0xbddee8f0	-0.10884273
2	0xbd16d296	-0.036821924
3	0x3d80c5f7	0.06287759
4	0xbdcb284b	-0.09919795
5	0x3e0dfedb	0.13866751
6	0xbdd31094	-0.103058964
7	0x3b17e48c	0.0023176996
8	0xbdaabcab	-0.08336767
9	0x3d8ee6d7	0.06977623
10	0x3e0b6d9a	0.13616028
11	0xbc19dd01	-0.00939107
12	0xbd331d4d	-0.043729115
13	0x3e38b90b	0.18039338
14	0x3d5b0351	0.05346996
15	0x3e1201c7	0.1425849
16	0xbdb75c1f	-0.089531176
17	0xbd869e76	-0.06573193
18	0xbdf586a5	-0.11988572
19	0xbdc7778b	-0.09739598
20	0x3e0ea43b	0.13929836
21	0x3d04a26f	0.03238147
22	0x3e16cddb	0.14726965
23	0x3d6996ac	0.057028458
24	0xbd33a9ed	-0.043863226
25	0x3c7afc35	0.01531892
26	0x3e19e730	0.15029597
27	0x3e23fa7c	0.16013521
28	0x3daebbad	0.0853189
29	0xbde71d6c	-0.11284909
30	0xbe0c3426	-0.13691768
31	0xbd4f5dbc	-0.0506265
32	0xbd3a65b5	-0.04550715
33	0x3e4c50bd	0.19952674
34	0x3de5450e	0.11194812
35	0xbe2b7024	-0.16741997
36	0xbdbe3f5f	-0.09289431
37	0xbd7431d9	-0.05961785
38	0x3e337b56	0.17527518
39	0x3d571a80	0.052515507
40	0xbe8fb797	-0.28069755
41	0x3dbe0a21	0.09279276
42	0x3deac18f	0.114626996
43	0x3db3890a	0.087663725
44	0xbe192e7b	-0.14959137
45	0x3e1f9d68	0.1558739
46	0x3e1b8831	0.15188672
47	0xbe0cc272	-0.1374605
48	0x3c163503	0.009167912
49	0x3caab75c	0.020839386
50	0x3de8778a	0.11350925
51	0x3e1180d4	0.142093
52	0x3ca455dd	0.020060474
53	0xbe04aedd	-0.1295733
54	0x3d80f122	0.062959924
55	0x377278ad	1.4452421e-05
56	0x3d65ea46	0.056131624
57	0x3c0f839d	0.008759406
58	0xbe5505aa	-0.20802942
59	0xbda8b3a0	-0.08237386
60	0x3dbb58f5	0.091478266
61	0xbbed1490	-0.0072351173
62	0xbeaaae27	-0.33335993
63	0xbd8ed851	-0.06974853
64	0xbcdc4c75	-0.026891926
65	0xbe2f457a	-0.17116347
66	0xbd01da12	-0.03170211
67	0x3d017eed	0.031615186
68	0x3e0db2bb	0.13837712
69	0x3d8c5a60	0.06853175
70	0x3cb7995b	0.022411993
71	0x3e37ed0b	0.17961518
72	0x3cee76e7	0.029109431
73	0x3df1cb5f	0.11806368
74	0x3e1948fe	0.1496925
75	0xbd8edc8c	-0.0697566
76	0xbe097f00	-0.13427353
77	0x3d8b0d24	0.06789616
78	0xbcc0b269	-0.023522573
79	0xbcf90f3b	-0.03040277
80	0x3d95b970	0.0731076
81	0x3d461662	0.04836119
82	0x3d764e02	0.060132988
83	0x3d87bc95	0.06627766
84	0x3c063ff2	0.008193957
85	0xbe27fc84	-0.16404921
86	0x3d13faec	0.03612797
87	0x3dd98613	0.10621276
88	0xbd6256ac	-0.055258438
89	0xbe357a9c	-0.17722553
90	0xbd3b04b1	-0.04565877
91	0xbdf20189	-0.11816699
92	0x3ce27e93	0.027648246
93	0xbdf612ac	-0.1201528
94	0x3b112a8d	0.0022150606
95	0x3d40b6da	0.04704938
96	0xb68d7d27	-4.216697e-06
97	0xbb279443	-0.0025570549
98	0x3d0a9e34	0.03384228
99	0xbe2a20f7	-0.16614138
100	0x3d9980cb	0.074952684
101	0xbcf973b6	-0.030450683
102	0x3d20ae27	0.039228585
103	0xbd214570	-0.03937286
104	0xbc7b165c	-0.015325155
105	0xbd8527f8	-0.06501764
106	0x3c30abd1	0.010783152
107	0x3d172d45	0.036908407
108	0xbde3a82c	-0.111160606
109	0xbdc4abed	-0.09603105
110	0xbd612c98	-0.05497417
111	0x3bcef439	0.0063157347
112	0x3d85dbd4	0.065360695
113	0x3db60b26	0.08888845
114	0xbdb13c75	-0.086541094
115	0x3cbffb64	0.023435302
116	0x3dc9662a	0.098339394
117	0xbe4d599d	-0.20053716
118	0x3d4c3c0c	0.049861953
119	0x3d8b9141	0.06814814
120	0xbe2a8e93	-0.1665595
121	0x3cd07bad	0.025449598
122	0x3d0826c6	0.033240102
123	0xbe03f691	-0.12887026
124	0x3d4858f4	0.048912957
125	0xbd348cab	-0.044079464
126	0xbd90f424	-0.07077816
127	0xbc96621d	-0.018357331
128	0xbd8242f7	-0.06360429
129	0x3dbc9082	0.0920725
130	0xbd932690	-0.071850896
131	0x3cbe671b	0.023242524
132	0xbd3bb913	-0.045830797
133	0x3d5cb728	0.05388561
134	0x3e8da38b	0.27663836
135	0x3d00cf34	0.031447604
136	0x3d96db6d	0.07366071
137	0x3cc7f59e	0.024409112
138	0x3d90a5f6	0.070629045
139	0x3e314e54	0.17315036
140	0x3d8509af	0.064959876
141	0xbca80fa4	-0.02051527
142	0x3d1f03fb	0.038822155
143	0xbdbe4045	-0.09289602
144	0xbe1bdc74	-0.15220815
145	0x3da33a55	0.0797011
146	0xbca09ae4	-0.019605108
147	0xbbca4914	-0.0061732624
148	0xbdc246d4	-0.09486166
149	0xbd40d07c	-0.047073826
150	0x3c844623	0.016146725
151	0x3e2d2b85	0.16911133
152	0xbdbe76b4	-0.092999846
153	0xbcf0bb6d	-0.029386247
154	0x3d3cfaf4	0.046137765
155	0xbdd93bc2	-0.10607101
156	0xbdcc6783	-0.09980681
157	0x3d1d1d52	0.03835804
158	0xbca12415	-0.019670526
159	0x3d85f307	0.065404944
160	0xbd2d3d35	-0.0422947
161	0xbd19a9dc	-0.037515506
162	0xbda490cc	-0.0803543
163	0x3e02f9e5	0.1279064
164	0x3c087d85	0.008330707
165	0x3e0aae12	0.13542965
166	0xbd17e981	-0.03708792
167	0xbd7ad5e6	-0.061239146
168	0xbc9faa28	-0.019490317
169	0xbe00ad57	-0.12566124
170	0xbe8c5da8	-0.27415204
171	0xbd91a3dc	-0.07111332
172	0x3e19433f	0.14967059
173	0xbc2f4036	-0.010696461
174	0x3d494e60	0.04914701
175	0xbca8f881	-0.020626308
176	0xbe238ce2	-0.15971711
177	0x3e3a23a1	0.18177654
178	0x3cadda9b	0.021222403
179	0x3c4294a9	0.011876264
180	0xbe8797c2	-0.2648297
181	0xbd8b9a3d	-0.06816528
182	0xbcef48dc	-0.029209547
183	0x3df1ba6a	0.11803134
184	0x3e2c43ac	0.1682269
185	0xbc65e2b0	-0.014031097
186	0xbc32b67e	-0.010907767
187	0x3b45dbda	0.0030190856
188	0xbd476ce8	-0.048687845
189	0xbd953a46	-0.072865054
190	0xbd306ab1	-0.0430705
191	0xbd7b1277	-0.061296906
192	0x3e214ae0	0.15751219
193	0x3dac851e	0.084238276
194	0x3b9ca0d9	0.0047799167
195	0xbd8674c7	-0.06565242
196	0x3d293d4c	0.041318223
197	0x39d6eec4	0.00040995155
198	0xbdf161cb	-0.11786231
199	0xbbc9efb8	-0.00616261
200	0xbe023ca9	-0.12718453
201	0x3dafda96	0.08586614
202	0xbe0507fe	-0.1299133
203	0xbd8dacc3	-0.06917717
204	0x3de20a89	0.11037166
205	0x3d28ddd1	0.041227166
206	0xbdce9bef	-0.10088336
207	0x3d4b2644	0.04959704
208	0xbe1db9eb	-0.15402953
209	0xbd29f569	-0.041493807
210	0xbd337545	-0.04381301
211	0x3dc138fa	0.094346955
212	0xbdcea9ca	-0.100909784
213	0x3cdc8d46	0.026922833
214	0xbe124e40	-0.14287663
215	0xbd186db5	-0.037214
216	0xbcfe843c	-0.031068914
217	0x3c582c57	0.013194165
218	0xbd906065	-0.07049636
219	0xbda4046a	-0.080086544
220	0x3d817b55	0.06322352
221	0xbd2c9ec9	-0.042143617
222	0xbd551614	-0.05202301
223	0x3e141cea	0.14464155
224	0x3dc0b7b5	0.09410039
225	0x3ddf17a2	0.108931795
226	0x3d4fccab	0.050732296
227	0xbdc9596e	-0.098315105
228	0xbd653a44	-0.05596377
229	0x3dbd858a	0.09253986
230	0xbdfb63b9	-0.1227488
231	0x3e49735f	0.19672917
232	0x3d0506e0	0.03247726
233	0xbcaa444c	-0.02078452
234	0x3d8045b3	0.06263294
235	0x3dde9ef8	0.10870165
236	0x3c0ca6ea	0.008584717
237	0x3d98b4c9	0.07456357
238	0x3c1e80d7	0.0096742725
239	0x3ceae5b9	0.028673993
240	0xbe24c35f	-0.16090153
241	0x3d3e7a1b	0.046503168
242	0x3df31505	0.118692435
243	0x3dae5106	0.08511548
244	0xbe07a54c	-0.1324665
245	0xbd0d6bae	-0.03452652
246	0x3c1f1660	0.009709924
247	0xbdbc6714	-0.09199348
248	0x3d8d9342	0.06912853
249	0x3e0d9301	0.13825609
250	0x3c0aaa7f	0.008463501
251	0xbd82b1d3	-0.063815735
252	0xbe4ff1fc	-0.20307153
253	0x3d92ad07	0.071619086
254	0x3c501631	0.012700603
255	0xbd281f71	-0.04104561

layer1.1.layer.bias f4 [256]
0	0xbdd3d4d7	-0.1034333
1	0x3c3f5ea3	0.011680278
2	0x3c7b3e87	0.015334732
3	0xbd79b96a	-0.06096784
4	0xbde321f2	-0.11090459
5	0x3d830226	0.06396894
6	0x3cba13dd	0.02271455
7	0xbc841fef	-0.016128508
8	0xbe3bee37	-0.1835259
9	0xbd8126fb	-0.06306263
10	0xbba63ad5	-0.0050729313
11	0x3d8f86be	0.07008122
12	0x3cad273c	0.021136872
13	0x3d5467f8	0.051856965
14	0xbca9882d	-0.020694816
15	0xbcba0ffc	-0.0227127
16	0xbe368cea	-0.17827192
17	0xbc14f9af	-0.009092732
18	0x3d102fc0	0.035201788
19	0xbde3593f	-0.11101007
20	0xbb654a1a	-0.0034986795
21	0xbcc3d81a	-0.023906756
22	0xbe1f5bf2	-0.15562418
23	0xbd46fc89	-0.04858068
24	0x3c5de789	0.013543972
25	0x3c888b61	0.016668024
26	0x3d5b0777	0.053473916
27	0xbdc13dba	-0.094356015
28	0xbdc00354	-0.09375635
29	0xbd82042f	-0.06348454
30	0x3c32a778	0.0109041855
31	0x3c1e4b83	0.009661558
32	0xbda5c888	-0.08094889
33	0xbd8db9dd	-0.06920216
34	0x3b864ec4	0.004098745
35	0x3dfad43b	0.12247511
36	0xbd84aaad	-0.06477866
37	0x3be09376	0.006853516
38	0x3cb342a6	0.021882366
39	0x3b66fa78	0.0035244506
40	0xbb0dfec5	-0.0021666747
41	0x3dbfabb6	0.09358923
42	0x3c9a696c	0.018849097
43	0x3da912e5	0.08255557
44	0x3db4a3b1	0.08820284
45	0xbdb47679	-0.08811659
46	0xbc0293ac	-0.007969778
47	0xbcc9c332	-0.02462921
48	0xbd53d75f	-0.051719066
49	0xbd935a9f	-0.07195019
50	0x3cae007b	0.021240463
51	0xbd8651b8	-0.06558555
52	0x3d66331a	0.056201078
53	0xbdb004e8	-0.08594686
54	0x3aa2a72b	0.0012409439
55	0xbd89a0ea	-0.06720145
56	0x3d44004b	0.047851842
57	0xba491ad5	-0.000767154
58	0x3cfe4497	0.031038566
59	0xbd152a37	-0.036417212
60	0x3d00f735	0.031485755
61	0xbd840293	-0.064458035
62	0x3c10c60e	0.008836282
63	0x3c330e35	0.01092868
64	0xbc37d4b5	-0.011220147
65	0x3d3065ff	0.04306602
66	0x3d7f668f	0.062353667
67	0x3d1da6a3	0.038488995
68	0xbded96b8	-0.11601013
69	0x3d731732	0.059348293
70	0xbc1fc6ac	-0.009751957
71	0x3d7b0ede	0.061293475
72	0xbde33f2d	-0.11096034
73	0x3dab6a77	0.08369916
74	0x3e05b9fd	0.1305923
75	0xbc9ab4b0	-0.018884987
76	0x3aeb11fd	0.0017934438
77	0x3d341421	0.04396451
78	0xbe51a43d	-0.20472808
79	0x3d85588f	0.06511032
80	0xbdbcda4b	-0.092213236
81	0xbb37800d	-0.0027999908
82	0xbc867241	-0.016411902
83	0xbda635bf	-0.0811572
84	0x3dd7a0e8	0.10528737
85	0xbd1f14b6	-0.03883811
86	0x3d838d17	0.06423395
87	0x3dc43e04	0.09582141
88	0xbcdf8fd5	-0.027290264
89	0x3bccdb4a	0.006251727
90	0xbd2ce313	-0.042208742
91	0xbddfd883	-0.10929968
92	0xbdc233a7	-0.09482508
93	0xbdb6adab	-0.08919843
94	0xbcac575b	-0.021037748
95	0xbd11b77c	-0.035575375
96	0xbe285c93	-0.16441564
97	0x3ccecc30	0.025243849
98	0xbe04da61	-0.1297393
99	0xbd763007	-0.060104396
100	0xbccc6aac	-0.024953209
101	0xbce50fdd	-0.027961666
102	0xbda7523f	-0.08169984
103	0x3d2e4798	0.042548746
104	0x3dac29fa	0.08406444
105	0xbb837b77	-0.004012521
106	0x3e19a3b9	0.15003861
107	0xbd74dcb6	-0.0597808
108	0x3d1c27d2	0.038123913
109	0xbe3b9f13	-0.18322401
110	0xbd8ce3c9	-0.06879384
111	0xbddb0382	-0.106940284
112	0x3d153878	0.036430806
113	0x3d1c5508	0.03816703
114	0x3d382238	0.04495451
115	0xbd388cf3	-0.045056295
116	0x3d9599bb	0.073047124
117	0xbd30b05d	-0.043136943
118	0xbd0d494b	-0.034493726
119	0xbcf37db7	-0.029723031
120	0x3e2ba228	0.16761076
121	0x3ce96004	0.028488167
122	0x3dd99e67	0.10625916
123	0x3c4749dc	0.012163606
124	0x3d039f08	0.032134086
125	0x3d9190b7	0.0710768
126	0xbae50b13	-0.0017474614
127	0x3d54470b	0.051825564
128	0x3cd986a6	0.026553463
129	0x3b860a91	0.004090615
130	0x3ab45c36	0.0013760391
131	0xbce29ecb	-0.027663609
132	0x3b2d8c92	0.0026481492
133	0x3d668c72	0.056286283
134	0xbd0dd6e6	-0.03462877
135	0xbcd1fe1c	-0.025633864
136	0x3be5d3cf	0.007013775
137	0x3cecd57e	0.028910395
138	0x3dcc2b9e	0.09969257
139	0xbd59fe2e	-0.05322092
140	0x3db562dd	0.08856747
141	0x3d9e2f2b	0.0772384
142	0x3d9bd399	0.076087184
143	0xbde5643c	-0.11200759
144	0x3e3fb161	0.18720008
145	0x3cbcd20f	0.023049382
146	0x3d9551a0	0.07290959
147	0xbdbd41bd	-0.09241054
148	0x3d8975df	0.06711935
149	0x3d6af4a3	0.05736221
150	0xbdf6bf5b	-0.12048217
151	0xbcfddbd9	-0.03098862
152	0x3de554fd	0.11197851
153	0xbd826ad0	-0.06368029
154	0x3c6e8358	0.014557682
155	0x3daacafd	0.08339498
156	0xbdcfa2f7	-0.10138505
157	0x3d343c75	0.04400297
158	0xbd0a8f2d	-0.03382795
159	0x3db2d518	0.08732051
160	0xbd71d0eb	-0.05903713
161	0x3d0450ed	0.03230374
162	0xbab3614e	-0.0013685615
163	0x3d8d65b4	0.06904164
164	0xbd335996	-0.043786608
165	0xbd13a2fe	-0.036044113
166	0xbd754f05	-0.059889812
167	0x3d450e52	0.04810936
168	0x3d17b61d	0.03703891
169	0x3d8c6f3e	0.06857155
170	0xbd3c3f03	-0.04595853
171	0x3cf716ae	0.030162182
172	0xbd4216b9	-0.04738495
173	0x3d9b87c2	0.07594253
174	0x3dfa20f6	0.12213318
175	0x3d8c33a2	0.06845786
176	0x3d7ba119	0.06143293
177	0x3e0e972d	0.13924856
178	0xbd5bd6b8	-0.05367157
179	0xbbaf6032	-0.0053520435
180	0x3dda97dd	0.10673497
181	0x3d943aed	0.07237802
182	0xbcbac762	-0.022800151
183	0xbcbe68ce	-0.023243334
184	0x3d0c99c8	0.034326345
185	0x3c358b83	0.0110806255
186	0x3c5f883e	0.0136433225
187	0x3c65603d	0.013999996
188	0x3d42058b	0.047368567
189	0xbc4cff03	-0.012511971
190	0x3cca9e53	0.024733698
191	0x3d73e8ec	0.059548303
192	0x3d52eda5	0.051496167
193	0x3daba0d4	0.08380285
194	0x3dcebdb7	0.10094779
195	0xbdcc2c5d	-0.09969399
196	0xbc5be9ad	-0.013422412
197	0xbd046ca3	-0.032330167
198	0xbe4bdf0e	-0.19909307
199	0x3cbcef44	0.02306331
200	0x3db9b442	0.090675846
201	0xbceaf494	-0.028681077
202	0xbd9d9bfe	-0.07695769
203	0x3de7ac7d	0.113121964
204	0xbd706308	-0.058688194
205	0x3c1d60c0	0.0096055865
206	0x3d9c332c	0.07626948
207	0x3c57adc1	0.013163985
208	0x3d55050e	0.052006774
209	0xbd821068	-0.063507855
210	0x3d8e8937	0.069597654
211	0x3ca5bc3d	0.02023136
212	0xbdc38109	-0.09546096
213	0x3db50c9a	0.08840294
214	0x3d2392e3	0.039935004
215	0x3d27c54d	0.040959645
216	0x3d639dcc	0.05557041
217	0xbe0923b2	-0.13392523
218	0xbdd912ed	-0.10599313
219	0x3d005eab	0.031340282
220	0x3de60dc9	0.11233098
221	0x3d8d4511	0.06897939
222	0xbd523456	-0.051319443
223	0x3d936870	0.07197654
224	0x3c2b8fa3	0.010471257
225	0x3dd87060	0.10568309
226	0x3dc5436a	0.09631999
227	0x3e131697	0.14364086
228	0xbd638150	-0.055543244
229	0xbdae52cb	-0.08511885
230	0xbc76620d	-0.015038026
231	0x3c96d3ca	0.018411536
232	0x3c3a3b3e	0.0113666635
233	0x3cd5ec99	0.026113795
234	0x3d362db9	0.0444772
235	0xbc9fea09	-0.019520776
236	0x3dc5fe80	0.09667683
237	0xbd3e56d6	-0.046469532
238	0x3e436ff9	0.19085683
239	0x3bce0d5d	0.006288214
240	0x3d8a9426	0.06766538
241	0x3def10e5	0.11673144
242	0xbd8179e3	-0.06322076
243	0xbb35a7c9	-0.0027718416
244	0xbdb5c78b	-0.088759504
245	0xbb4ecc96	-0.0031555048
246	0xbc3833ec	-0.011242848
247	0x3d19a4e3	0.037510764
248	0x3d5bf733	0.053702544
249	0x3d920cfa	0.07131381
250	0xbdd4ef3e	-0.10397194
251	0x3e27d5ec	0.16390198
252	0xbc44d3e4	-0.012013409
253	0xbd4e6935	-0.050393302
254	0xbe130448	-0.14357102
255	0x3e40bad1	0.18821265

layer1.2.layer.weight f4 [128, 256]
0	0x3d4dcda1	0.05024493
1	0xbd12c674	-0.03583379
2	0x3bb609dd	0.005555375
3	0x3d8dc854	0.06922975
4	0x3dd4a794	0.103835255
5	0x3b805478	0.0039163195
6	0xbe1a376e	-0.15060207
7	0x3ca5968f	0.020213393
8	0x3d4f0803	0.05054475
9	0x3d9c7b41	0.07640696
10	0x3d70da5d	0.058801997
11	0xbd634852	-0.055488892
12	0xbd0574c0	-0.032582045
13	0x3d2e3e06	0.04253962
14	0xbb861ffa	-0.0040931674
15	0x3d4f90fc	0.050675377
16	0x3cc19d47	0.023634566
17	0xbddec715	-0.10877816
18	0x3cfdd823	0.030986851
19	0x3dc5eae3	0.09663942
20	0x3c8588f6	0.01630066
21	0x3e5a5053	0.21319704
22	0xbd647c52	-0.055782624
23	0x3e093379	0.13398542
24	0x3ccef11f	0.02526146
25	0xbdce8cc5	-0.100854434
26	0x3d8555c7	0.06510501
27	0xbd9ae54e	-0.07563268
28	0xbdb23c87	-0.08702951
29	0x3d1908a3	0.037361752
30	0x3c17db70	0.009268627
31	0xbd2f01a2	-0.042726167
32	0xbdb95e6d	-0.090512134
33	0x3ca425e8	0.020037606
34	0xbd327f86	-0.043578647
35	0xbdc44c84	-0.09584907
36	0x3dab1e73	0.08355417
37	0x3d13ce64	0.0360855
38	0x3cfd1065	0.030891607
39	0x3c192688	0.0093475655
40	0x3d186881	0.037209038
41	0xbe7db3e3	-0.24775653
42	0x3d1ec0c4	0.038758054
43	0x3cbaea06	0.02281667
44	0xbdcd313f	-0.100191586
45	0xbdf7f265	-0.1210678
46	0x3db0a9af	0.086261146
47	0x3d84f3f1	0.06491841
48	0x3c625e52	0.013816433
49	0xbd42e33b	-0.047579985
50	0xbd2413a5	-0.040057797
51	0x3c822648	0.015887395
52	0xbd52387d	-0.051323403
53	0xbcde76a6	-0.027156185
54	0xbc0511e5	-0.008121942
55	0xbdaebbeb	-0.08531936
56	0xbcd09426	-0.025461268
57	0xba6d64a3	-0.00090558286
58	0xbc9322d5	-0.017960945
59	0x3ca3e887	0.020008339
60	0xbdbe893c	-0.09303519
61	0x3d91cc3d	0.071190335
62	0xbdc7470f	-0.0973035
63	0xb9c2d5d0	-0.00037161866
64	0xbded2985	-0.11580185
65	0xbdd8b310	-0.105810285
66	0xbd2636c6	-0.04057958
67	0x3c904cdc	0.017614774
68	0xbd29d433	-0.041462135
69	0xbe11fd3a	-0.14256755
70	0xbd56de4e	-0.0524581
71	0xbd8f6f27	-0.070036225
72	0xbcdca5b0	-0.026934475
73	0x3bc2bf57	0.0059432196
74	0x3c8232ce	0.015893366
75	0xbda1def7	-0.07903855
76	0x3c6fd3c7	0.014637894
77	0xbce40161	-0.027832689
78	0x3cab12fc	0.020883076
79	0x3c00dbea	0.007864932
80	0xbc1ac8ec	-0.009447318
81	0x3df16197	0.11786192
82	0x3b8230db	0.003973109
83	0x3e045e34	0.1292656
84	0x3cbd0fe2	0.023078863
85	0xbd6aba48	-0.057306558
86	0x3e170b27	0.14750348
87	0xbd0003df	-0.03125369
88	0xbc937d80	-0.018004179
89	0x3e1b78fe	0.15182874
90	0x3cb1ff98	0.021728322
91	0xbd08bc3f	-0.03338265
92	0x3d0e3e94	0.034727648
93	0x3defc4eb	0.11707481
94	0x3dbccac8	0.09218365
95	0xbd0fa02e	-0.03506487
96	0x3e1d312a	0.15350786
97	0x3ada52d8	0.001665677
98	0x3d716368	0.05893269
99	0xbd1ae247	-0.03781345
100	0x3ca4ff50	0.020141274
101	0xbdb0ae76	-0.08627026
102	0x3cb526f1	0.022113295
103	0xbdd9c29d	-0.10632823
104	0x3d642219	0.05569658
105	0x3d885c46	0.06658225
106	0xbc3078d6	-0.010770997
107	0x3d1f4115	0.038880426
108	0xbdc6a770	-0.09699905
109	0x3dc1daee	0.09465586
110	0x3dd7e644	0.105419666
111	0x3dee6987	0.116412215
112	0xbd3f9a94	-0.046778277
113	0xbd883d74	-0.06652346
114	0x3b726125	0.0036984172
115	0x3b210e6b	0.0024575244
116	0xbe22d01d	-0.15899701
117	0x3d281644	0.04103686
118	0xbd075205	-0.033037204
119	0x3de606d2	0.112317696
120	0x3deb84f6	0.1149997
121	0xbc469a7b	-0.012121792
122	0xbd1bf191	-0.038072173
123	0x3b688c80	0.0035484135
124	0xbe11478c	-0.14187449
125	0x3c620d15	0.013797064
126	0xbaaebfa7	-0.0013332263
127	0x3ce7ebb3	0.028310632
128	0xbb0e2e89	-0.0021695218
129	0xbc214569	-0.009843209
130	0xbdde8e46	-0.1086698
131	0xbbf72c85	-0.007543149
132	0xbcae9cb1	-0.02131495
133	0x3da90a8d	0.082539655
134	0x3a86fc0e	0.0010298507
135	0xbd17e0c1	-0.037079576
136	0xbba546a5	-0.005043822
137	0x3e100d5e	0.14067599
138	0xbc74afe0	-0.01493451
139	0x3e622307	0.22083674
140	0xbdd71004	-0.105011016
141	0xbdbf347d	-0.09336183
142	0x3dcc3512	0.0997106
143	0x3d3df294	0.04637392
144	0x3dbcbe79	0.09216017
145	0x3b2f9372	0.0026790765
146	0xbb889218	-0.0041678064
147	0x3db6d8dc	0.089280814
148	0x3c18f479	0.009335631
149	0x3de9b496	0.11411397
150	0xbdd1097b	-0.102068864
151	0x3d50feb6	0.05102416
152	0x3d0fd14a	0.035111703
153	0xbc9a9ba2	-0.01887304
154	0x3e4c8a2b	0.19974582
155	0x3d5a56ab	0.05330531
156	0xbd6788f4	-0.056527093
157	0xbd9c6df2	-0.07638158
158	0x3c86d0a8	0.016456917
159	0x3da6d8d8	0.081468284
160	0x3ca7dc04	0.020490654
161	0xbde91308	-0.11380583
162	0xbd1d4404	-0.038394943
163	0x3e10be8a	0.14135185
164	0x3c5f8df7	0.013644687
165	0xbd90218c	-0.070376486
166	0x3d386107	0.045014407
167	0xbdf382b7	-0.11890166
168	0x3da56606	0.080761
169	0x3bbec924	0.0058223177
170	0x3db08e6a	0.08620913
171	0x3d95c707	0.07313352
172	0xbcbc5887	-0.022991432
173	0xbe03360a	-0.12813583
174	0x3d6485af	0.055791553
175	0xbbb35e06	-0.005473855
176	0xbd99d337	-0.07510989
177	0xbe05071b	-0.12990992
178	0xbc83814a	-0.01605286
179	0x3da2f977	0.07957738
180	0x3dc2ef9e	0.095183596
181	0xbdba6279	-0.091008134
182	0xbd6f015e	-0.058350913
183	0xbd3e4ff1	-0.046462957
184	0xbd4e4458	-0.050358146
185	0x3b68715c	0.0035467958
186	0x3c79f9f8	0.015257351
187	0xbd0197f8	-0.03163907
188	0x3bcb71e8	0.006208647
189	0xbd078b65	-0.03309192
190	0x3da2b750	0.0794512
191	0xbd0d32e4	-0.03447236
192	0xbda8fd1b	-0.08251401
193	0xbe222083	-0.15832715
194	0x3b6f20f0	0.0036488138
195	0x3bdf9dff	0.0068242545
196	0xbd45248a	-0.04813055
197	0xbd63eab4	-0.055643752
198	0x3d8d7cd5	0.069085754
199	0x3dcaab7b	0.098959886
200	0xbe3ae991	-0.18253161
201	0x3d1a2993	0.037637305
202	0x3d7951f6	0.06086918
203	0xbdbb92b9	-0.091588445
204	0x3da50177	0.0805692
205	0xbd0bc995	-0.03412779
206	0xbda7e3f9	-0.08197779
207	0x3ab470fb	0.0013766581
208	0xbc20031a	-0.0097663645
209	0x3dc1e261	0.094670065
210	0x3d08dcb1	0.033413593
211	0xbe0beefd	-0.13665386
212	0x3c906ff2	0.017631505
213	0xbdc53dca	-0.09630926
214	0x3d2f53c4	0.042804495
215	0xba16a434	-0.0005746514
216	0x3ba411b5	0.0050069937
217	0x3cf2a9f4	0.029622056
218	0x3dd57e03	0.104244255
219	0x3d983ab9	0.074330755
220	0xbac18f7a	-0.0014767491
221	0x3ccfaa8b	0.025349876
222	0x3c678266	0.0141302105
223	0xbd0339cf	-0.032037552
224	0xbdab29b4	-0.083575636
225	0xbcc8e022	-0.024520937
226	0x3c7f1305	0.015568499
227	0xbe34834f	-0.17628215
228	0x3d9f9a1a	0.077930644
229	0xbd1c5cbf	-0.038174387
230	0x3d5bb705	0.053641338
231	0xbdbeb191	-0.09311212
232	0xbc7e67f3	-0.015527713
233	0xbc384100	-0.011245966
234	0x3d0ceba1	0.0344044
235	0xbdd84a92	-0.10561098
236	0xbde8a580	-0.113596916
237	0x3cafe60c	0.021472
238	0xbc8da735	-0.017291645
239	0x3d89da18	0.06731051
240	0xbcd068ab	-0.025440535
241	0xbdaf15dd	-0.08549092
242	0x3d2e6b9c	0.042583093
243	0x3cc7c3ee	0.024385419
244	0xbd9ac5da	-0.075572684
245	0x3dd11b1d	0.102102496
246	0x3cf3d07a	0.029762495
247	0xbc9cd7d4	-0.019145884
248	0x3bab932a	0.005236049
249	0xbdce495b	-0.10072585
250	0x3dd2e205	0.10297016
251	0x3c401fbf	0.011726319
252	0x3da00b68	0.078146756
253	0xbd84ce02	-0.06484605
254	0x3c63927a	0.013889903
255	0xbdd163a9	-0.10224087

layer1.2.layer.bias f4 [128]
0	0xbd352043	-0.04422022
1	0xbd3870e0	-0.04502952
2	0xbc82e947	-0.015980376
3	0xbd80c9bc	-0.06288478
4	0x3db62ee6	0.08895664
5	0xb9262f2d	-0.00015848568
6	0xbdc5a1b1	-0.09649981
7	0x3cc5cd4a	0.024145741
8	0xbcdc88b8	-0.026920661
9	0x3cee1d05	0.029066572
10	0x3cb31554	0.021860756
11	0xbdc861f8	-0.09784311
12	0xba9359f6	-0.001124202
13	0xbdbca2c3	-0.09210732
14	0xbbd2579a	-0.0064191343
15	0x3ca4f2f6	0.020135384
16	0x3c8ede31	0.017439933
17	0xbcd9f97c	-0.026608221
18	0xbc062099	-0.008186483
19	0x3b3dbc56	0.0028951368
20	0xbde94b4d	-0.113913156
21	0xbc58ae62	-0.01322517
22	0xb96407d3	-0.00021746689
23	0x3d213a15	0.039362032
24	0x3c1f620f	0.009727969
25	0x3d9cf95e	0.076647505
26	0x3d8c3c38	0.06847423
27	0xbc3c1f9a	-0.011482144
28	0xbcb5390f	-0.022121934
29	0x3d1147c6	0.03546884
30	0x3d0244b7	0.031803813
31	0xbb9f7c24	-0.0048670936
32	0xbd4df763	-0.050284754
33	0x3d2195d5	0.03944953
34	0x3c1a3670	0.009412393
35	0x3a07188b	0.00051534985
36	0x3d116079	0.035492394
37	0x3ce9cb2b	0.02853926
38	0x3d5e81bb	0.05432294
39	0xbcef8cda	-0.029241968
40	0xbb4f48cc	-0.0031629084
41	0xbc97e4ac	-0.018541656
42	0xbc68cdf6	-0.014209261
43	0x3b1605c7	0.0022891627
44	0x3d4af605	0.04955103
45	0xbdbe890f	-0.093034856
46	0x3d7e9a6d	0.06215899
47	0xbd7f0b1a	-0.062266447
48	0xbca77a81	-0.020444157
49	0x3cb82c0b	0.022481939
50	0x3ce06c3d	0.027395362
51	0x3c390a39	0.011293941
52	0xbc8638c7	-0.016384495
53	0x3c94b93e	0.018154737
54	0xbc989ea5	-0.018630335
55	0xbd4385fa	-0.047735192
56	0xba4dd7a2	-0.0007852261
57	0x3cf01519	0.029306935
58	0x3cce50e0	0.025185049
59	0xbc7c4681	-0.015397669
60	0xbd8b015b	-0.06787368
61	0xbcafbf5c	-0.021453552
62	0xbd0a429a	-0.033754922
63	0xbcb0edd7	-0.021597786
64	0xbd0a8343	-0.033816587
65	0x3d34020d	0.04394727
66	0xbcf2bef2	-0.029632065
67	0x3d129a57	0.03579172
68	0x3c8d15e9	0.017222362
69	0x3d165b0e	0.03670793
70	0xbd85cf70	-0.06533706
71	0x3c1c7474	0.009549249
72	0xbc78bb91	-0.015181438
73	0xbcc83e87	-0.024443878
74	0x3d25cb95	0.040477354
75	0xbc9dd54c	-0.019266747
76	0xbc236a55	-0.009974082
77	0x3ca5da35	0.02024565
78	0xbd9e3009	-0.07724006
79	0xbbe5f48b	-0.007017677
80	0xbb4581dc	-0.0030137217
81	0xbd1a862f	-0.037725624
82	0xbc552c2b	-0.013011019
83	0xbdc3b8a6	-0.09556703
84	0x3ba6fb60	0.005095884
85	0xbd1b425d	-0.037905086
86	0xbcfa8b6e	-0.030584063
87	0xbc7d329e	-0.015453963
88	0x3df5d689	0.1200381
89	0x3d2f8a96	0.042856775
90	0xbccdbc24	-0.025114127
91	0x3d1a30e1	0.03764427
92	0xbc424139	-0.011856371
93	0x3bd9df29	0.006648917
94	0xbc01f07b	-0.00793087
95	0x3c892221	0.016739907
96	0xbc93de23	-0.018050259
97	0x3b149a34	0.002267492
98	0x3d753473	0.059864473
99	0x3d1ad68b	0.03780226
100	0x3d458a74	0.048227742
101	0xbd1508af	-0.036385234
102	0xbd988b15	-0.07448403
103	0xbcd71302	-0.02625418
104	0xbcbabf8f	-0.02279642
105	0x3d346432	0.044040866
106	0xbc8df299	-0.017327594
107	0x3b5bb48c	0.0033524362
108	0x3ab25cfb	0.0013608033
109	0xbcbab397	-0.022790713
110	0x3d88e638	0.06684536
111	0xbd1b52fa	-0.03792093
112	0xbd4631cf	-0.048387345
113	0xbd2236d4	-0.03960307
114	0xbd431fd2	-0.047637768
115	0x3d171faf	0.03689545
116	0x3c81667d	0.01579594
117	0x39998dc1	0.0002928805
118	0xbdb57741	-0.088606365
119	0xbc9042d1	-0.017609986
120	0xbd4b282e	-0.049598865
121	0x3d8a0623	0.06739452
122	0x3c2e7200	0.010647297
123	0x3cbf0f49	0.023322718
124	0x3bf5bc4f	0.007499255
125	0xbd73938e	-0.05946689
126	0x3cdd3830	0.027004331
127	0xbd4eb549	-0.050465856

layer1.3.layer.weight f4 [128, 128]
0	0xbcd57758	-0.026057884
1	0x3c38ef28	0.011287488
2	0x3c1f428f	0.009720459
3	0x3cbde2bd	0.023179406
4	0x3d281249	0.041033063
5	0xbcc9085d	-0.02454012
6	0xbdbf87d5	-0.0935208
7	0x3ce55a47	0.02799715
8	0x3c9f4951	0.01944414
9	0xbc320562	-0.010865541
10	0x3b5bf050	0.0033559985
11	0xbbdee8d7	-0.006802659
12	0xbd167eb8	-0.036741942
13	0x3c82f32f	0.0159851
14	0x3bbd61eb	0.005779495
15	0xbc2d5485	-0.010579233
16	0xb878cc70	-5.9318205e-05
17	0xbd10b8f0	-0.03533262
18	0x3c75b649	0.014997073
19	0x3d43ddec	0.047819063
20	0x3c9eb273	0.0193722
21	0xbd2104aa	-0.03931109
22	0xbd30d1d4	-0.043168858
23	0xbad926f0	-0.001656739
24	0xbd18d280	-0.037310123
25	0xbcdd4b55	-0.02701346
26	0x3c786ca7	0.0151626235
27	0x3d53229c	0.051546678
28	0xbc0d6a0e	-0.008631242
29	0xbd57c5c7	-0.05267885
30	0xbd66257e	-0.0561881
31	0x3c03a341	0.008034528
32	0x3c4c99f2	0.012487875
33	0xbd375ff6	-0.04476925
34	0x3cf725f3	0.030169463
35	0x3c2d2ade	0.010569302
36	0xbd07ae97	-0.033125486
37	0x3d1497a0	0.036277413
38	0xbcfbd901	-0.030743124
39	0x3bacd1bb	0.0052740253
40	0x3d1dd388	0.03853181
41	0x3cb1fd17	0.021727128
42	0xbc56328d	-0.013073576
43	0xbd4ff69e	-0.0507723
44	0xbd141b07	-0.036158588
45	0x3d7a3b44	0.061091676
46	0x3c8e972b	0.017406067
47	0x3d3a20a5	0.04544129
48	0xbcf2cfae	-0.029640045
49	0x3ae84984	0.0017722105
50	0x3bb9b321	0.005667106
51	0x3c2044dc	0.009782042
52	0xbd0becc7	-0.034161355
53	0xbbd92c8e	-0.006627626
54	0x3b9cda2c	0.0047867503
55	0x3d665219	0.05623064
56	0xbbdc2bfe	-0.0067191115
57	0x3d2c156d	0.04201262
58	0xbd660e22	-0.05616582
59	0xbcca1cc6	-0.024671923
60	0x3c29c7c2	0.010362567
61	0x3c3e6cd2	0.0116226245
62	0x3c520ff3	0.012821185
63	0xbbc32c7d	-0.005956231
64	0xbc5b16ca	-0.013372133
65	0xbd3db4c3	-0.046314966
66	0xbc811922	-0.015759055
67	0x3cf77a14	0.030209579
68	0xbd1dbd76	-0.038510762
69	0xbc489c44	-0.012244288
70	0x3c1a1d77	0.009406439
71	0x3ccfd3f4	0.025369622
72	0x3d01e656	0.031713806
73	0x3b2724ab	0.0025504034
74	0x3ccfc798	0.025363728
75	0xbbc3c327	-0.0059741917
76	0xbc774c2e	-0.015093846
77	0xbbac696a	-0.00526159
78	0x3d2bdeb8	0.041960448
79	0xba53b73c	-0.0008076315
80	0x3bbfc0cc	0.0058518406
81	0x3c86fc7d	0.016477818
82	0xbc5ed6cb	-0.013601015
83	0xbd0254a0	-0.031818986
84	0x3c990f2b	0.01868399
85	0x3c8bfb18	0.017087504
86	0xbc51f8da	-0.0128156785
87	0xbd1e9e2d	-0.038725067
88	0x3d23237a	0.039828755
89	0x3cbd63ad	0.023118818
90	0xbd66de5a	-0.056364395
91	0xbd31861b	-0.043340784
92	0xbc854f5d	-0.016273195
93	0x3c6da044	0.014503542
94	0x3c66ef34	0.014095116
95	0x3c5fd400	0.013661385
96	0x3ce6b0ad	0.028160417
97	0x3c387198	0.011257552
98	0xbd821855	-0.06352297
99	0xbc51d58b	-0.01280726
100	0x3cfa3084	0.030540712
101	0x3cc5a431	0.024126144
102	0x3ce005ef	0.02734658
103	0xbc9ad948	-0.018902436
104	0x3ac2c08d	0.001485841
105	0x3d4326bc	0.04764436
106	0xbc3cb157	-0.0115168905
107	0xbbb84f61	-0.005624697
108	0x3cfba9db	0.030720642
109	0x3d0e6c45	0.034771223
110	0xbaea2ee5	-0.0017866759
111	0x3d13b8d4	0.036064938
112	0x3bfdc01d	0.007743849
113	0xbd19a11c	-0.03750716
114	0x3d05ad74	0.03263612
115	0xbb10baa4	-0.0022083903
116	0x3d1c1b58	0.038112015
117	0x3c9dadd7	0.019247932
118	0xbda463ea	-0.080268696
119	0xbbfd738b	-0.007734721
120	0x3cf53edb	0.029937198
121	0xbd6241fb	-0.055238705
122	0x3ba97142	0.005170972
123	0xbad5384b	-0.0016267387
124	0x3c92e320	0.017930567
125	0x3d527d6e	0.05138915
126	0x3d5ded61	0.05418146
127	0xbd4a1c1e	-0.04934322
128	0xbd1161d2	-0.03549368
129	0xbb24cc58	-0.0025146212
130	0x39915759	0.00027721634
131	0x3d6ec48b	0.058292907
132	0x3bf1af61	0.007375643
133	0xbcbea392	-0.023271356
134	0xbc053148	-0.008129425
135	0x3b05e2d3	0.0020429387
136	0xbc0db344	-0.008648697
137	0xbd3b027f	-0.045656677
138	0xbb6f297c	-0.0036493232
139	0xbd828cec	-0.06374535
140	0xbd878c7b	-0.066185914
141	0x3d3ecfdd	0.046584953
142	0x3cc75513	0.024332559
143	0xba2cb5b2	-0.0006588354
144	0xbcc27e98	-0.023742005
145	0xbd54d32b	-0.051959198
146	0xbc447999	-0.011991882
147	0x3caf5051	0.021400603
148	0x3ced1148	0.028938904
149	0xbd413100	-0.04716587
150	0x3d50d519	0.050984476
151	0xbc64c6cd	-0.013963413
152	0x3d1062be	0.035250418
153	0xbc10db76	-0.008841386
154	0xbd12dc3a	-0.035854556
155	0x3bc8c89a	0.006127429
156	0x3cc7b82b	0.02437981
157	0xbc9b032f	-0.018922416
158	0xbc6746d1	-0.014116005
159	0x3c8bf02d	0.017082298
160	0x3d11d4bf	0.03560328
161	0x3cb811c3	0.022469407
162	0xbcb2f361	-0.021844568
163	0xbd0200a8	-0.031738907
164	0x3a8a4536	0.0010549191
165	0xbcd0055e	-0.025393184
166	0xbc05b343	-0.008160415
167	0xbd0a29a3	-0.033731114
168	0x3c86638c	0.01640489
169	0x3d86e7fb	0.065872155
170	0xbb7f080e	-0.0038914713
171	0xbd22ef30	-0.03977889
172	0x3cb21d74	0.02174256
173	0xbd0b0872	-0.0339436
174	0x3c953f7e	0.018218752
175	0xbaa6f291	-0.0012737085
176	0xbd24eb10	-0.040263236
177	0xbcf30cec	-0.029669248
178	0x3ceb577c	0.02872824
179	0xbd00b859	-0.031425808
180	0x3c9cb4b5	0.019129137
181	0xbc83a453	-0.016069567
182	0xbd0c40d8	-0.034241527
183	0x3d1c20e4	0.038117304
184	0xbd2e95df	-0.042623397
185	0x3b16652e	0.0022948491
186	0x3d277a3a	0.04088805
187	0x3c3799a5	0.011206065
188	0xbc94bd50	-0.018156677
189	0x3d4f3e5d	0.050596584
190	0x3d0a8e0f	0.033826884
191	0xbb67aee9	-0.0035352057
192	0xbccc359c	-0.024927907
193	0xbd5bc9e6	-0.053659342
194	0xbbbabfcb	-0.005699133
195	0xbd18664d	-0.037206937
196	0xbb1fe59c	-0.0024398332
197	0x3d8497ac	0.064742416
198	0x3ce975c5	0.02849854
199	0xbc378b38	-0.011202626
200	0x3d10e0ce	0.03537064
201	0x3d1f4da3	0.0388924
202	0xbd57bd67	-0.052670863
203	0x3cbd2cd8	0.023092672
204	0xbc7ad0e5	-0.015308593
205	0x3cd26208	0.02568151
206	0x3ced9b1d	0.029004628
207	0xbbdf8d11	-0.0068222363
208	0x3cf3c648	0.029757634
209	0xbd042020	-0.0322572
210	0xbd4351af	-0.04768532
211	0xbc1a652d	-0.009423536
212	0x3d5c32ba	0.053759314
213	0xbc0ae2d2	-0.00847693
214	0x3b537276	0.003226427
215	0xbd41f9e9	-0.047357474
216	0xbcd72302	-0.02626181
217	0xbb64b3e4	-0.0034897262
218	0xbd23f2d2	-0.040026493
219	0xbbbfe1b8	-0.005855765
220	0xbc6da357	-0.014504275
221	0x3c872222	0.016495768
222	0x3d3f41fa	0.04669378
223	0x3cdfca8a	0.027318258
224	0xbd089be2	-0.033351786
225	0x3d590b5d	0.052989352
226	0xbad9fa76	-0.0016630429
227	0x3b2fb8e0	0.0026813075
228	0xbc4ab080	-0.012371182
229	0x3c8fcf5a	0.017554928
230	0x3d88b82f	0.06675755
231	0xbd2ae7a0	-0.0417248
232	0xbaf41dfa	-0.0018624656
233	0x3b8c5375	0.00428241
234	0x3bbdc70c	0.0057915505
235	0xbd2b5731	-0.0418312
236	0x3bb12132	0.0054055685
237	0x3d57599b	0.05257569
238	0xbd13ca62	-0.03608168
239	0xbd42beaa	-0.047545113
240	0x3d348899	0.044075582
241	0x3d40559e	0.04695665
242	0x3c16316a	0.009167055
243	0x3c564504	0.013077978
244	0xbc5cc419	-0.013474488
245	0x3bcaf4b1	0.0061937203
246	0xbd2f796d	-0.04284041
247	0x3c42d963	0.011892649
248	0xbb28fd2c	-0.0025785668
249	0x3b7bdb4b	0.003843027
250	0x3bb25f22	0.0054434696
251	0x3cd64c30	0.026159376
252	0x3d1d0948	0.03833893
253	0xbc80afec	-0.015708886
254	0x3bfbd06b	0.0076847575
255	0xbc182fb0	-0.009288713

layer1.3.layer.bias f4 [128]
0	0xbc54ae63	-0.01298103
1	0x3a4d989c	0.000784287
2	0x3b9fab2f	0.0048727016
3	0xbbd248c2	-0.006417365
4	0xbc629b08	-0.013830908
5	0xbb12e649	-0.0022415093
6	0x3a612443	0.0008588472
7	0xbb6d692d	-0.003622602
8	0x3c785575	0.015157093
9	0xbae1fb3d	-0.0017241013
10	0xbc1cd4f7	-0.009572259
11	0xbc90f27a	-0.017693747
12	0x3b8af007	0.0042400393
13	0x3ae8e2c6	0.0017767779
14	0xbba3aa55	-0.0049946704
15	0xbbae0eab	-0.005311807
16	0x3b1e29b0	0.0024133734
17	0xbc311324	-0.010807786
18	0x3c2b6413	0.010460871
19	0x3c8d95a7	0.017283274
20	0xbc29e6e4	-0.01036999
21	0x3bd9d5b8	0.0066477917
22	0xbc516186	-0.012779599
23	0xbc65dcbc	-0.014029678
24	0xbc1b2be1	-0.009470911
25	0x3c449b3d	0.011999902
26	0x3ab720cd	0.0013971567
27	0x3c21a153	0.009865123
28	0x3b664154	0.0035134153
29	0xbb385c71	-0.0028131271
30	0xba81399e	-0.000985909
31	0xbac4130f	-0.0014959293
32	0x3ae37e91	0.0017356445
33	0x3bc44b95	0.0059904554
34	0xbc3dc0b2	-0.011581587
35	0x3c7c2604	0.015389923
36	0x3c4ec8ad	0.012621087
37	0xbc0d5da9	-0.008628287
38	0xbc53f4f2	-0.0129368175
39	0x3bdb90b5	0.0067006
40	0xbab35520	-0.0013681985
41	0xb981739d	-0.00024690936
42	0xbbd7caef	-0.006585471
43	0x3c138af6	0.009005299
44	0x3bea8ebd	0.007158129
45	0xbba0b780	-0.0049046874
46	0xbc0bb823	-0.008527788
47	0xba5dd160	-0.000846168
48	0x3babea5b	0.005246443
49	0x3b83076d	0.003998688
50	0x3c06fbb1	0.008238719
51	0xbae5996f	-0.001751704
52	0xbc2eefc5	-0.010677283
53	0xbc08fc0b	-0.008360873
54	0xbb15ab34	-0.002283764
55	0x3c376096	0.0111924615
56	0x3b2cc54a	0.002636271
57	0xbc1f69e7	-0.009729839
58	0x3cc62493	0.024187362
59	0x3b8d3494	0.0043092463
60	0xbc6a1d5d	-0.014289227
61	0x3b315c6f	0.0027063151
62	0x3afb8702	0.0019190016
63	0xbb4ce3e2	-0.0031263758
64	0x3b17ae18	0.002314454
65	0xbb0e860f	-0.0021747386
66	0xbc427d2f	-0.011870666
67	0x3c05ea98	0.008173607
68	0x3b8ff4ae	0.0043931818
69	0xbbba328f	-0.0056822966
70	0xbb0dde83	-0.002164752
71	0xba5ec5d8	-0.0008498109
72	0x3ad33d3f	0.0016116275
73	0x3bbc4b6a	0.0057462947
74	0x3c9ac609	0.018893259
75	0x3c2c1369	0.010502675
76	0x3c1d34c3	0.009595099
77	0xbc7aeec3	-0.015315714
78	0x3be84330	0.0070880875
79	0x3c36e2b6	0.011162451
80	0xbbfe41cf	-0.00775931
81	0x3c0c38a5	0.008558427
82	0xbca14373	-0.019685483
83	0x3c4a34d4	0.012341697
84	0x380fb901	3.4266155e-05
85	0x3abf0128	0.0014572488
86	0x3cb040af	0.021515219
87	0x3c4888f5	0.012239684
88	0x38e2914f	0.000108035856
89	0x3c5ae8a7	0.013361133
90	0x3c7e1a05	0.015509133
91	0x3a1095f6	0.000551551
92	0xbbdbde1d	-0.0067098276
93	0x3b42f19d	0.0029746064
94	0x3ba85ca5	0.005137997
95	0xba63f109	-0.000869528
96	0xbc3f9b05	-0.011694674
97	0xbca226d4	-0.019793905
98	0xbb33d06b	-0.002743746
99	0x3b033e33	0.0020026087
100	0x3acf650b	0.001582296
101	0x3b385bdb	0.0028130922
102	0x3c908ced	0.017645324
103	0xbc9a9a36	-0.018872362
104	0x3b664941	0.0035138878
105	0x3c368e72	0.01114236
106	0x3c8a433f	0.016877769
107	0xbbbc31ad	-0.0057432265
108	0xbc39ebb5	-0.011347701
109	0xbaaa8d72	-0.0013012125
110	0x3ca43236	0.020043474
111	0x3b98e30b	0.0046657375
112	0x3b51d2cc	0.0032016514
113	0xbc2a9302	-0.010411026
114	0x3bdd44f5	0.006752605
115	0xbbdd5cc3	-0.006755443
116	0x3ac41c63	0.0014962073
117	0xbc133d76	-0.008986821
118	0x3c442cdd	0.011973587
119	0x3b7ff17c	0.0039053848
120	0x3b3713cd	0.0027935386
121	0x3a0b7abe	0.0005320719
122	0x3b8423d4	0.0040325914
123	0xba170c22	-0.0005762001
124	0xbc240901	-0.010011912
125	0xbbd5d759	-0.0065259156
126	0x3c54683f	0.012964307
127	0x3bbad501	0.0057016616
