code/trained_model/metatransferpinn.pth (torch, 519355 bytes, 14 tensors)

layer1.0.layer.weight f4 [256, 3]
00000000: 46e1 5e3e a7ce 3abd 29e6 19bd 1855 a4bd
00000010: dd31 ac3e e6d3 c1bd 541c 6bbe 5d89 983e
00000020: ff2e 82bd 0fd9 003f b57a d0be 66a7 29bf
00000030: d0d8 553e 7776 7bbd bbd1 8bbe e858 183e
00000040: fd53 d7be f942 aabe 78d1 813d e184 8dbc
00000050: 0e6f 443d e8f3 d53e eb5e a73e 6872 e0be
00000060: 1796 30bf 67b5 4cbf 36c2 74be 77ea ffbe
00000070: 26d6 62bf b979 273f 15ea 7f3e daf6 1f3f
00000080: 8ddf bf3e 4522 f0be ad8d d53d 0252 6a3e
00000090: 4d3a d7be 9234 37bf 217b 0dbf 325b eb3e
000000a0: 73ef 0f3f dbf4 cc3e d48c 9a3e aeee b63e
000000b0: e1f6 b9be e5d9 86be 2408 f3be 8c37 b53e
000000c0: 7fb4 a03e 39c7 31bc 2647 9ebe 17da e4be
000000d0: 4a96 90be 91f2 3e3f ad38 89bd 0bc7 863e
000000e0: 4eff ccbd afdc 0dbf c3e2 dbbe 2da9 b9be
000000f0: fd46 cf3e cea9 473f 5c5b d63e b614 ec3d
00000100: 3331 95be cc7d 87bd d4e5 57bd 36b9 32bf
00000110: 5b03 c33d e028 be3e 0ea6 d8be c0c8 623e
00000120: 4356 dcbd 55ed 1d3f 9c84 543e bbf9 7abc
00000130: e8ca f0bd 20de 8cbd 2762 113f a14f 273f
00000140: acd4 bc3e 9a23 8e3d 8156 5dbf 29c2 013e
00000150: d4cf 983a 8cf7 f9be 8dee 343d 70d2 de3e
00000160: 3d8b 753e dd81 0bbf d8eb eb3e 7fed 6c3e
00000170: 3cd7 f7be 1493 e8be 5f1c d43e 89f3 853c
00000180: 3a57 f13d 7f61 733f 07ad cebe 622a 99be
00000190: 24c0 85bf 17b7 8d3e 01f7 843e f3d0 1d3f
000001a0: 23d3 c5be 41eb 2f3e 0973 303f f5ae 93be
000001b0: c7ec dfbe e989 3ebf 116c e5be 387a 8fbd
000001c0: e46f e53e 705e dbbe feac 023e 3839 e2be
000001d0: 8497 723d 8460 0d3e 6b1b 8b3c 1bad e7be
000001e0: 3c70 6c3e af0a 563f 2c6d c9be 3321 103f
000001f0: 8862 2cbe a519 db3e 1cb2 c33e cbb9 643f
00000200: a2e1 d53e 1bd3 a73e 6075 e63d 9aa7 323f
00000210: f540 f5be c02e 47bf 2af2 96be 1fb3 3dbf
00000220: 7dec 6dbf b949 45be 58ae 7f3e dc8f 403f
00000230: 7810 363f bd86 8abe a8e6 1dbf 90aa 14bf
00000240: 3fbc 7abe 5c9b cd3e 6142 21bf 8c67 713e
00000250: 220f 36bf 4314 87be e7f8 ba3e 6dfd 94bf
00000260: 56db bcbd 8545 873e 4c21 cb3e 7ec6 e4be
00000270: 719a f2be e1c2 bd3e 9f88 103f 0aa9 37bd
00000280: 4bb2 bc3e dc78 8dbe 6834 febe d07e 6cbe
00000290: bdb3 063f 2339 dabe bcb3 853e c45d 36bd
000002a0: 8547 383f af8b 84be 4aa9 3a3f cdf1 7a3e
000002b0: 1109 c1bd 7e98 743d db95 10bf b7d8 ffbe
000002c0: 9c21 a9be 59a2 df3d 4d4f 69be 279e 143d
000002d0: dedf c53e ef6c f53e 8547 3c3f 8c30 ea3e
000002e0: 4fdf d23e cfbb ae3e 7725 c73e 1d5f 4e3f
000002f0: bc87 d9be fba9 afbc eecd a33e 43e1 dd3c
00000300: 3f8b 123d dc1f 263f c35c 23bf 12fe 193f
00000310: 45ca e7be 6cef 143f dc07 08bf a38e 1ebd
00000320: 7af3 c3be cb8e 083f ff69 4c3f 4a0b b43e
00000330: 85cd 913e b05e 933e 4688 c8be 789b f23e
00000340: 81af 11bf b41a bfbd 6c7d 433c 2c2f 03bf
00000350: 3568 ab3e 8157 92be d2b2 60be 67b0 a73e
00000360: ee93 fa3e 3de0 083f 1ba8 d93e b2af dabe
00000370: 911a e6be c554 ee3e fa35 b2be 758b 1abf
00000380: 817d c53e 2467 d5be 6913 f9be 1d10 04bf
00000390: 7caa 0fbf 8d10 4ebf 1c8c c4be f951 893e
000003a0: c182 bbbc 918a bfbe d229 3dbf 81b6 63bf
000003b0: 57d0 13be 302a a8be 05a7 543e 8f75 af3e
000003c0: 7574 febd db3c 4dbe da26 6e3d c25e eebc
000003d0: 916b 653e b7d1 15bf a64d af3e e72c 1d3f
000003e0: a5f0 ec3e cbfc 113f cae8 353f 4c1a a23e
000003f0: 39de 05bf f226 61bf 77ab 84bd 55e9 fdbe
0.21765622 -0.045607235 -0.037573013 -0.08024043 0.33631793 -0.094642445 -0.22960025 0.297923
-0.0635662 0.50331205 -0.40718618 -0.66271055 0.20883489 -0.061392274 -0.2730845 0.14877665
-0.42056265 -0.3325422 0.06338781 -0.017275276 0.047957473 0.41787648 0.32689604 -0.43837285
-0.6897902 -0.799643 -0.2390221 -0.4998357 -0.88608015 0.6542011 0.24991639 0.6248604
0.37475243 -0.46901146 0.10427413 0.22882846 -0.42036667 -0.7156459 -0.55266005 0.45968014
0.56224746 0.4003056 0.30185568 0.35728973 -0.36321166 -0.26338115 -0.47467148 0.3539394
0.31387708 -0.010850721 -0.30913657 -0.4469764 -0.2823966 0.74588877 -0.06700263 0.26323733
-0.10009633 -0.5541486 -0.42946443 -0.36261883 0.40483847 0.77993476 0.41866577 0.11527388
-0.291391 -0.06615791 -0.052709416 -0.6981386 0.095221244 0.3714056 -0.4231419 0.22146893
-0.107586406 0.61690265 0.20753711 -0.015318329 -0.11757451 -0.068783045 0.56790394 0.6535588
0.36881006 0.06940384 -0.8646012 0.12671722 0.0011658617 -0.48821676 0.044172812 0.43519926
0.23978896 -0.5449503 0.46078372 0.23137473 -0.48406398 -0.45424712 0.41427895 0.016351478
0.11784215 0.9507064 -0.40366384 -0.29915148 -1.0449262 0.2767875 0.259697 0.61646956
-0.38637647 0.17179586 0.6892553 -0.2884442 -0.43735334 -0.74429184 -0.4480901 -0.07005733
0.44811928 -0.42845488 0.12761304 -0.4418428 0.059226528 0.13806349 0.016980847 -0.45249256
0.23089689 0.8361005 -0.39341104 0.5630066 -0.16834462 0.42793003 0.38221824 0.89346
0.41773707 0.32778248 0.11252856 0.6978699 -0.4790112 -0.7780571 -0.29481632 -0.7410144
-0.9293898 -0.19266404 0.2496885 0.7521951 0.7111888 -0.27055922 -0.6168008 -0.5807276
-0.24485873 0.40157592 -0.6299191 0.23574656 -0.7111684 -0.26382646 0.36518022 -1.163984
-0.092215225 0.26420227 0.3967384 -0.44682688 -0.47383454 0.37062743 0.5645847 -0.044838943
0.36854777 -0.2763127 -0.49649358 -0.2309525 0.5261801 -0.42621717 0.2611369 -0.044523016
0.7198413 -0.2588782 0.72914565 0.24506302 -0.094255574 0.05971574 -0.5647866 -0.49970028
-0.33033454 0.10919637 -0.22784157 0.03628364 0.3864736 0.47934672 0.7354663 0.45740163
0.41185996 0.34127662 0.3889577 0.8061388 -0.4248637 -0.021443358 0.3199305 0.027084952
0.035777327 0.64892364 -0.6381342 0.60153306 -0.45271507 0.5817783 -0.5313699 -0.038710248
-0.38271695 0.53342885 0.7984924 0.35164863 0.2847711 0.28783178 -0.39166468 0.47384238
-0.5690842 -0.09331265 0.011931758 -0.51243854 0.3347794 -0.28582385 -0.21943215 0.32751772
0.48940986 0.5346716 0.42511067 -0.4271217 -0.44942144 0.4654905 -0.34806806 -0.60369045
0.38572314 -0.41680253 -0.4864762 -0.51587087 -0.56119514 -0.80494004 -0.38388145 0.26820353
-0.022889497 -0.37410405 -0.7389194 -0.88950354 -0.14434944 -0.32844687 0.20766838 0.34269378
-0.12424556 -0.20042746 0.05814252 -0.029097918 0.22404315 -0.58523124 0.3423893 0.6139664
0.46277347 0.57026356 0.7105833 0.31660688 -0.5229221 -0.8795005 -0.06478017 -0.4959208

layer1.0.layer.bias f4 [256]
00000000: fd90 00bf 3f31 2d3c bf07 d73e 9386 d43e
00000010: cd3d 5bbb 9a1f fb3e 621f aabd 402f 94be
00000020: 6972 aa3c 907a 50bc 335d 0a3f 2f12 063f
00000030: 2488 87be 3eaf b43e fc10 d9bc 8cb9 233e
00000040: b750 03be 2012 00bf 4c96 17be a8d5 4bbe
00000050: c278 543e b6b2 7d3e c8fb 8b3e 2ad5 51bf
00000060: 6529 fcbe 971b 913e 9d14 133e b524 c63d
00000070: aaf4 0b3f ca10 efbc 99c8 f9be 63c8 2d3f
00000080: e27b 013e 3d30 fb3e e1ab b7bd 48d3 aabc
00000090: bf29 f5bd 22ba 1f3f 6ae5 483e 08cc 133f
000000a0: dd5f e9bd 2f70 203f 5f2e 5d3e 9022 333e
000000b0: 5580 09bf a0ca 873d f19b 153c 6a88 21bf
000000c0: ef8c 45bf 1748 0b3e fd55 5abe f570 593e
000000d0: b237 95bd 9cd4 8a3d 8ff0 d63e 9c61 533f
000000e0: ed0f 2a3b 3673 19bf c61b 773e 182b 443e
000000f0: fbfa a83c 55e7 243f 123c b7be 7107 1abf
00000100: 9893 e83e 8780 c33e a66f 47be f40b 843e
00000110: fe85 723e f156 54be fb91 f7be 36da ad3e
00000120: 6f1d 6dbd 915b 013f 0e7a 0f3f ce2e 4dbe
00000130: 8d38 e33e bfcf 9f3e 8249 983d 4ef4 2a3d
00000140: fa68 7f3e d2c5 063f 3f3e f83e 46c1 373e
00000150: 9bae 41bf 304f 913e 3628 dfbe 9692 163f
00000160: 6534 c7be bb97 e1be 638c 423d 05cc 993d
00000170: 3e00 e9be 2a9b 083f b10f 1c3f dc46 ed3e
00000180: 599d 09bf 3322 e3bd bc4a eabe 003a f33d
00000190: 5b99 1a3f d520 b1be ec91 133f cad5 b1be
000001a0: 89f3 b13d 2c72 1b3f c5d1 eb3e d7b8 793e
000001b0: c506 a5bb d5d4 febd 2d24 fabd 92af 053e
000001c0: cca8 47be 2086 e1be c082 b4be 2a37 a33e
000001d0: 7254 dc3e cff0 763d 04ab ac3e 1ca2 33bf
000001e0: 7d90 093f 735c 273f dab7 cd3e e2d3 0dbe
000001f0: 5c03 1dbf 8cee a4be 0918 76be 4c09 16bf
00000200: 2440 193f a55a d93d f28b 6cbe dd5f 3c3e
00000210: afe4 aebe c334 1ebf 663d b43e 7b5d 57bf
00000220: 38b5 dc3e 9dfb 1f3c 5bb2 d53e d2c1 033e
00000230: 83d0 d13d de0b 97bd c511 d33e 86ac 2ebe
00000240: 3234 833e fca8 7f3e ffbc a4bd 2b8a 87be
00000250: 1f19 b8bd 94f1 3b3e a5f1 efbe 1c24 a8bd
00000260: d1ba c9be 3c22 c43d 30b0 09be 668a 0bbf
00000270: 93eb 0c3f 2dea bd3e 12ee 07bf bdc9 bcbd
00000280: ec84 a23e 9307 06bf 9f48 0dbf 5de0 ca3d
00000290: 1490 c1bd babd 96bd aaae a33e de9d d5be
000002a0: 62a7 a9bd 9b9a 403e 84c1 efbe 864f f63e
000002b0: f870 0cbd 955f 93be 7166 f83d 7d2c 96be
000002c0: ac39 1ebe 0036 8fbe e9a7 c0bd fb49 bc3e
000002d0: b626 10be 7b30 b73c cfe1 a9be 1029 1e3f
000002e0: 4621 e53e 9867 f33e 8f97 263e 04be cf3d
000002f0: e9a7 fd3e 2af5 ccbd cbd5 583e fffa b6be
00000300: 3bb4 07bd 255d 8c3e 5b8e d13d d549 80be
00000310: 4ded 4a3e b998 e8be b864 52be 13a9 f5bd
00000320: 8a12 20be 5d93 273d cdf8 71bc ef3c 153f
00000330: 5926 013f 6a0c b03e 8e11 583e e9b5 8cbe
00000340: 9202 a0bd b8dc 34bf b653 94bd bc88 55be
00000350: 0462 73be ebab 153f 125d a53d 9045 6abd
00000360: 3de2 4cbf 6d2a ad3e 6f17 c5be d0a3 953d
00000370: 56b0 c03e 20bf fb3e c76b 043f f181 f3bd
00000380: 4dd0 2cbf 4cce c9be 0d74 143f ad6b ab3e
00000390: c814 a2be 2ea7 6bbe 6c26 6cbe fae8 f83d
000003a0: a17a 203f 1994 12bf 4296 243e dc45 e23c
000003b0: 9bbc e4be 7f87 ba3e e1a0 c13d 059c 903e
000003c0: 09fc 92bd 5bfc 3c3e 483c f43e fcb9 cc3e
000003d0: 9cfc 7abe 878f bfbe e13b 2e3e 4bb4 cebe
000003e0: 99b4 0cbf 3c76 9a3e 4c77 39bf 4fcf fbbe
000003f0: 1371 983e 4b97 b43e 7e5c a4be ea5f 97bd
-0.50221235 0.010570823 0.41998097 0.41508922 -0.0033453584 0.49047548 -0.08306767 -0.289423
0.020806508 -0.012724534 0.5404846 0.52371496 -0.26471055 0.3528995 -0.026497357 0.1598875
-0.12823759 -0.50027657 -0.14803427 -0.19905722 0.2074919 0.24775204 0.2734053 -0.8196589
-0.49250332 0.28341362 0.14363332 0.0967497 0.546702 -0.02918281 -0.48785856 0.6788389
0.12644914 0.4906024 -0.0896833 -0.0208527 -0.11970853 0.6239339 0.19618765 0.577332
-0.113952376 0.6267118 0.2159972 0.17493653 -0.53711444 0.066304445 0.009131418 -0.63098776
-0.7716817 0.13601719 -0.21321864 0.21234496 -0.07286014 0.06778833 0.41980407 0.82570815
0.0025949434 -0.5994142 0.24131688 0.19157064 0.02062749 0.64415485 -0.35788018 -0.60167605
0.45425105 0.38183996 -0.19476184 0.2579037 0.23683926 -0.2073629 -0.48353562 0.33955544
-0.0578894 0.50530344 0.56045616 -0.20037386 0.44379082 0.31213185 0.074358955 0.041736893
0.24942389 0.526456 0.4848499 0.17944822 -0.7565705 0.28380728 -0.43585366 0.5881742
-0.3890716 -0.44061074 0.047497164 0.07509617 -0.45507997 0.5336176 0.60961443 0.46343124
-0.5375572 -0.11090507 -0.45760143 0.11876297 0.6039025 -0.3459536 0.57644534 -0.3473342
0.08689029 0.6072109 0.4605848 0.24386917 -0.0050362074 -0.12442938 -0.12213931 0.13055256
-0.19497985 -0.44047642 -0.35256004 0.31878024 0.43033177 0.060288247 0.33724225 -0.70169234
0.53736097 0.6537544 0.4017933 -0.13850358 -0.6133325 -0.32213247 -0.24032606 -0.58607936
0.59863496 0.10612992 -0.2310026 0.18395944 -0.34158847 -0.6179926 0.35203093 -0.84127015
0.4310701 0.009764579 0.41737637 0.12866905 0.102448486 -0.0737531 0.41224495 -0.17058
0.2562576 0.24966806 -0.08043861 -0.264726 -0.089891665 0.18353873 -0.46864048 -0.08210012
-0.39400342 0.09576842 -0.13446116 -0.54508054 0.5504696 0.37092724 -0.5309764 -0.09218166
0.31742036 -0.5235531 -0.55188936 0.09906075 -0.09451309 -0.07360406 0.31969196 -0.41722006
-0.08283879 0.18808977 -0.46827328 0.48107547 -0.034287423 -0.2878386 0.12128914 -0.29330817
-0.15451688 -0.27970886 -0.09407026 0.36775193 -0.14077267 0.022361984 -0.3318009 0.61781406
0.44751948 0.47539973 0.16268753 0.101436645 0.49542168 -0.10007699 0.21175306 -0.3573837
-0.033130866 0.27414814 0.1023223 -0.2505633 0.19817086 -0.45429018 -0.20546234 -0.11995139
-0.15632072 0.04091202 -0.014768791 0.582961 0.5044914 0.3438447 0.21100447 -0.27482536
-0.0781299 -0.7064929 -0.07242529 -0.20852941 -0.23767859 0.5846545 0.080743924 -0.057195246
-0.8003271 0.3382143 -0.3849444 0.073066354 0.37634534 0.49169254 0.51726955 -0.11890019
-0.6750534 -0.39415205 0.5798958 0.33480588 -0.3165648 -0.23012993 -0.23061532 0.12153812
0.62687117 -0.5725723 0.16072944 0.027621202 -0.44675145 0.364315 0.09454513 0.28244033
-0.07176978 0.18455641 0.4770224 0.39985645 -0.24510425 -0.3741419 0.1701503 -0.40371928
-0.5496307 0.3016833 -0.7244766 -0.491816 0.2977377 0.35271677 -0.32101816 -0.07391341

layer1.1.layer.weight f4 [256, 256]
00000000: 20b2 953d 77b6 79bc e503 eebd 0c69 233d
00000010: aed5 733d 68bd b7bc 67d8 0bbd daf4 1f3e
00000020: 420a 923d 036c 123e 489c 80bd 37dd 35be
00000030: c4ee 153e 6ef5 bebd fb2d 0f3e 660e 77bd
00000040: 7ad3 d53d 1358 b33d 700e e3bb 619c d23d
00000050: 4df9 71bd b924 dabc 9aca f83c 6a1e 783d
00000060: de25 203c c508 03bc 126f dcbd def3 943d
00000070: 2ec6 8b3b 2285 8a3d 4654 d1b9 ae59 d6bd
00000080: ffcd ddbd 4312 033c 3c75 8e3d 0bbc 5dbc
00000090: c50c d13d 711f adbd 6d09 d73d d4a0 84be
000000a0: 922f 6cbd 2811 20bd cdda a5bd 8d3a 99bd
000000b0: 0ee3 3e3d c22b fc3d b339 a0bd c9ae 443d
000000c0: adcb a33d 9c7d 143d 90e9 0f3e 4150 3a3d
000000d0: fd9b 23be 5ae8 87bd 2012 96bd 8a96 f0bd
000000e0: 08fa 76bb e7f1 af3d 8362 013d 33c3 35bd
000000f0: cc8a 78bd a897 0cbe dcba acbd 0356 b3bc
00000100: 99bb 03bd 3e09 d7bd 1157 ca3d b6fe 17be
00000110: 0e5d 1e3d b6a3 e43d ce59 ec3d ac59 2dbd
00000120: 26af dcbd ee91 6cbd 4943 6dbd 7408 0c3e
00000130: 497e ba3d 32c0 093e d16a d63d eec9 89be
00000140: 78b8 27bd 82fc 5bbc 6f38 08be c050 06be
00000150: f107 5c3d 2a61 8f3d 50e7 953c d36f 92bd
00000160: ec5d c93c 46a6 de3c 80ba 7c3c 403c 083d
00000170: e73e 583d b5e5 f5bd c06e bfbc c94a adbd
00000180: 7e73 a93d 77c7 3abe feba 9f3d 41e3 7a3d
00000190: 0428 f4bd 94a9 b4bc cccf c5bd 2594 943c
000001a0: 3aeb 99bd 735b 62bd d6f3 18be 3c19 37be
000001b0: 5414 3fbe e067 e13d d669 62be 3657 31be
000001c0: 8e07 103e f841 17bd 58bb 033e 6dc6 523c
000001d0: 87a3 b7bd 5b26 1c3d a981 04b9 2725 a13d
000001e0: e5f0 25be 5418 99bd 07e0 c5bd 6250 be3d
000001f0: cb55 793d a026 f33d 7c7d ef3c b9b8 4a3e
00000200: a4a1 37bd ba2d 2bbe 25c9 1bbd b543 9d3d
00000210: d0da 083e c331 3b3e 6faa 443d 5a84 f63d
00000220: 7a13 56be d7cd 05be 874d fbbd 51ee df3d
00000230: d2b9 813d 9441 473e f752 05bd f3b3 8c3d
00000240: 3af8 103d b73f 133d fcc7 37be d067 debd
00000250: 4c18 1cbd d8ce a0bd 6a7c 853b 424b 70bd
00000260: d459 cc3d 7191 16bd 2a4a 1abe e1f1 973d
00000270: 11c7 babd a272 d3bd 96b5 e83d 40d6 f7bd
00000280: 2d3e 9ebd 1c80 c03c a5d8 0a3e cc56 fd3d
00000290: d79f a93d fb4f 4cbd 03d8 eebd 2bf4 fb3d
000002a0: 30ab e23d 871b cbbd 254e 8cbd f6ef e5bd
000002b0: bd35 a1bd 7d5d 0bbe 1864 68bd f725 1f3e
000002c0: 75fa 32be d4d3 08bd 1885 3f3e 9cad f0bc
000002d0: 85c4 f5bd 7e7c 1b3e 23dc 783d 1c2c 7abd
000002e0: fea4 56bd 86f4 8bbc e538 943d ae6b 5c3e
000002f0: fd0f 74bc 8cdf 0f3e 5c90 b93c 361f b33d
00000300: d1c7 c7bd 4635 edbd 48f0 7dbd f40a e33d
00000310: c24a 5c3d 5bf8 863d 7121 88bd c2c4 1fbd
00000320: 26e6 5ebe c97d febd aebd de3d cd0c 7dbd
00000330: 8e08 72bd 82de 74bd af89 1dbd 5f22 ab3c
00000340: 87ef 2fbe e753 5abc 30ee 7fbd b53a ebbd
00000350: a5eb eebc c231 1bbe a04f 003e 00a2 e33b
00000360: 2310 653d 1c29 f5bc 5741 c13d 1d4f 3cbe
00000370: ff43 693d cb7e 79bd 9dfa 883d 04a9 e03d
00000380: b9f6 dbbc d55c 293e 8b06 f2bd 79ae 7abe
00000390: bf52 4bbd 8370 f83d 9bf6 e23c 3597 cabc
000003a0: 7304 9bbd dedc fc3d 598c 733c a7bd d53d
000003b0: 50e2 e73d af48 21be a393 32be a543 4ebe
000003c0: e5f0 383c 15c2 ec3b 45e1 8c3d fead 1d3d
000003d0: 4471 7e3d 5b8e d83c 1214 713e 46b7 3e3d
000003e0: d627 a33d 79a9 a0bd ef8d 1d3e 765b 813d
000003f0: 7d85 213d 4e2c 08be 3089 fd3d 5733 f03d
0.07309365 -0.015241257 -0.116218366 0.039895102 0.059529953 -0.022429183 -0.034141924 0.15620747
0.07130863 0.14299016 -0.06279808 -0.17760168 0.14641863 -0.09324156 0.13982384 -0.060316466
0.104407266 0.08757033 -0.0069292113 0.10283733 -0.059075642 -0.026628839 0.030370045 0.06057588
0.009774653 -0.007997696 -0.107633725 0.072730765 0.004265568 0.06763674 -0.00039926375 -0.10466324
-0.10830306 0.007999959 0.069559544 -0.0135336025 0.10207514 -0.084532626 0.10499845 -0.25903952
-0.057662554 -0.03907886 -0.080983736 -0.07481871 0.046603255 0.12313034 -0.07823505 0.04801825
0.079978324 0.036252603 0.14053941 0.045486692 -0.15977474 -0.066361144 -0.07327676 -0.11747463
-0.0037685651 0.08591061 0.03158809 -0.04437561 -0.060679242 -0.13729727 -0.08434078 -0.0218916
-0.03216133 -0.1049981 0.09879888 -0.14843258 0.038662963 0.11164038 0.115405664 -0.042321846
-0.107755944 -0.057756357 -0.057925496 0.136751 0.09106118 0.13452223 0.10469592 -0.26911873
-0.040947407 -0.013426902 -0.13302778 -0.13116741 0.05371851 0.070009544 0.018298775 -0.07150235
0.024580918 0.027178895 0.015425324 0.033260584 0.052794363 -0.12006704 -0.02336824 -0.0846153
0.082739815 -0.18240152 0.07799338 0.061251882 -0.11921695 -0.022053517 -0.09658775 0.018137047
-0.07515569 -0.055262994 -0.14936766 -0.1788072 -0.18660098 0.11006141 -0.22110686 -0.17318425
0.14065382 -0.036928147 0.12864435 0.012864691 -0.08966737 0.038122516 -0.00012636803 0.07868414
-0.16205175 -0.07475343 -0.096618704 0.092926756 0.060872834 0.118726015 0.02923464 0.19797029
-0.044831887 -0.16716662 -0.038033623 0.0767893 0.1336472 0.18280701 0.0480141 0.12036963
-0.20905867 -0.13066803 -0.122706465 0.10934127 0.063342705 0.1945861 -0.032549825 0.0687026
0.035392977 0.035949435 -0.17947382 -0.108596444 -0.03810911 -0.07851952 0.004073669 -0.05866552
0.09978071 -0.036759797 -0.15067354 0.074191816 -0.0912 -0.10324599 0.1136276 -0.12101412
-0.07726703 0.023498587 0.13559206 0.12370071 0.0828244 -0.049880963 -0.11662295 0.12302431
0.11067808 -0.0991736 -0.068508424 -0.112274095 -0.07871578 -0.13609882 -0.05673608 0.15541826
-0.17478354 -0.03340514 0.18703115 -0.029379658 -0.12000374 0.15184209 0.060756814 -0.061077222
-0.052403443 -0.017084371 0.07237414 0.21525452 -0.01489639 0.1405012 0.022651844 0.087461874
-0.09754909 -0.11582427 -0.06199673 0.110860735 0.053782232 0.06590339 -0.066470034 -0.039006002
-0.21767482 -0.12426335 0.10876022 -0.061779786 -0.05909019 -0.059782512 -0.038461383 0.020890413
-0.17181216 -0.013325668 -0.062483013 -0.11485807 -0.029165098 -0.151557 0.12530375 0.006946802
0.055923592 -0.029926829 0.09436291 -0.18389554 0.05694961 -0.060911935 0.06688426 0.10969737
-0.026851045 0.16539319 -0.11817654 -0.24480619 -0.04963946 0.12130835 0.027705481 -0.024730304
-0.07569208 0.123468146 0.014865004 0.10436564 0.113224626 -0.15750383 -0.17439131 -0.20142992
0.0112879025 0.007225285 0.06878904 0.03849601 0.062119737 0.026435068 0.23542812 0.046561502
0.079665825 -0.07844824 0.15386175 0.06316273 0.039433945 -0.13298151 0.12379682 0.11728542

layer1.1.layer.bias f4 [256]
00000000: 5897 81bd 44ff fe3b 8920 233d 76cf c0bc
00000010: f341 46be 4907 bf3d 0f84 4ebd 208f e53d
00000020: 8cb8 20bd 04c2 b4bd b76b 543d 0b88 ab3c
00000030: b27f 8fbb e611 9a3c aeaa 9cbc 735e 9c3c
00000040: 2a9b 09bd 0690 83bc d8a8 23bd a1a8 f6bd
00000050: 1513 dabc 5700 483d 63e5 d6bd 6b6b 19be
00000060: c367 bfbd 3f5f 58bd 92fc 9abc dbd0 96bb
00000070: 4f6d b2bc a95e 51bd 603b abbb ff7f 04be
00000080: cdf5 a3bd 1537 c73c 4ac5 d8bd ad43 1ebe
00000090: 5e2c 423d 0d0f adbc 8a0c b63d d35f 223d
000000a0: aa28 eebc cf3b c13d 744d 9d3d ce00 c2bb
000000b0: 17a7 01bc 6d24 453d 6ba7 f63c 6cfa f73d
000000c0: fac6 35be 8b38 64bd 894d 21bb fb0e 293e
000000d0: 295b 443d 9035 51bd 5535 aabd 7a06 babd
000000e0: 7432 fabc 60c5 6b3d 954a 2e3c c8e0 23bd
000000f0: 170a 2b3e 9d1b b8bd 1aa2 cfbc 41d4 1c3d
00000100: 28a2 0bbe 82f6 ecbc d169 5b3d 2b5d ecbc
00000110: 11cd 18bd 3f78 e2bb 86d5 b6bc 9fad 1c3c
00000120: b626 7bbd ba54 08bd d69b 573d 7831 633d
00000130: 4093 dabc 6659 373d b80c 8f3b c1ea 0dbe
00000140: 15be 0d3b 4f00 f3bc e29a 553d 25cb ed3c
00000150: 116a b23c aba2 d3bd aec0 a7bd ce12 343d
00000160: 5199 17bc 39bd c8bd 5835 3c3c fd5f 4f3d
00000170: 0311 773b 6bc8 963b 89b0 bbbc d901 81bd
00000180: 6d30 10bd 7e79 993d 0622 dfbc 1f0e 5b3c
00000190: 3161 d6bc 5042 bebd 8348 64bc 0447 503d
000001a0: 36f7 54bd cf30 e5bd b9f2 a23d 1a6a 56bd
000001b0: 0fd7 bf3b 984f 00be b11a b33d 13c4 06bd
000001c0: 7ced 0d3c b0e3 6e3d 9d46 be3c dfb1 203e
000001d0: 6325 bf3c 0456 243e 023f cabd 0248 c23d
000001e0: 737a 933d f7f0 81bc e20d c7bd 1aa1 5bbd
000001f0: c673 e7bd 5746 5ebd c41e 263d 019a 1bbe
00000200: 36f5 37bd 95ec 8f3c a1fd 743a 15eb a6bc
00000210: 513d 35be ea41 533d fb71 463c 1a03 553d
00000220: 4c7f a8bd a98d 393d 9b65 afbc f5fc fabb
00000230: afdb ba3c cf48 cdbd f294 b93b cece dabd
00000240: 5e71 2bbd 903e 803d ed2a 5c3d 0af0 cdbd
00000250: a70d 83ba a908 b13c 16f5 dbbd 779d 9cbd
00000260: 67c0 1a3e 6d37 263b d103 b2bd 0f2d 0f3d
00000270: 7888 f93c 6f2a 193c 7ba8 1fbd d8d1 96bd
00000280: 5a27 c63c 0537 c5bd 2e17 373d 07bf 083e
00000290: 929a b8bb 0878 c0bc 2659 033e 7bee 863d
000002a0: ab0b b43c 5255 2e3e f61b 823d 52db b33d
000002b0: 9d89 c4bd 5af8 403c 963d 293d 0cde b03d
000002c0: ae2a 493d d005 903d ef48 793b e66c 46bd
000002d0: ad3e 6a3d bcab 13bd 48e4 7dbb f7d3 debc
000002e0: 3fe7 38bd 1b7e c6bc 8583 e7bc e18a 06be
000002f0: 73f5 393d db22 a6bd b288 443d 4507 f13c
00000300: ea5b fa3d 64f8 8a3d 0696 0b3d 4048 313c
00000310: 3f38 dfbb 6150 06bd 2e07 79bd 6fd0 82bd
00000320: 7c0b 1e3e c054 d8bc a127 4cbc b4f7 e23d
00000330: 9065 77bd 4721 443e e7df f23d 4437 263e
00000340: e896 e1bc 969f af3d e879 3ebc 081d a0bd
00000350: 3e38 f7bd 996a 5abd dd67 323d 90ff edbd
00000360: bd09 963d 5d6d 5a3d b5f2 4dbc 05f2 57bd
00000370: 7558 133e 5da1 e8bc 9150 e1bc b7e8 9e3b
00000380: 3430 2abd 51c5 00bc 1628 473d dd4a 98bd
00000390: c790 353c e2d7 8b3d c4e7 203d b673 bc3d
000003a0: b39b 503d aa85 8a3d 4b99 98bc 3b01 1cbe
000003b0: 10f1 703d cbc2 be3d 09d8 ac3d 3023 b9bd
000003c0: 86fe db3c 6f6f 083d fbf6 4b3c 51ac 4a3d
000003d0: 0e98 e03c 45c2 87bd 881b 22bd 406e fabc
000003e0: ed49 82bc 7630 953d bab1 293d b363 883c
000003f0: 5462 1e3e 0cd3 89bd a381 9ebd f3ff 963b
-0.06327695 0.007781895 0.03982595 -0.023536425 -0.19361095 0.093275614 -0.05041891 0.112089396
-0.039238498 -0.08826068 0.051860537 0.020938894 -0.004379236 0.018807363 -0.019124355 0.019088006
-0.03359524 -0.016059887 -0.039955944 -0.12043882 -0.026620427 0.04882845 -0.10492971 -0.14982383
-0.09345963 -0.05282521 -0.018919263 -0.004602534 -0.021780638 -0.051115666 -0.005225584 -0.12939452
-0.08005867 0.024318257 -0.10584505 -0.15455504 0.047405593 -0.02112534 0.088891104 0.039642166
-0.029072125 0.09435236 0.07680789 -0.005920506 -0.0079133725 0.04813044 0.030109128 0.12108311
-0.17751685 -0.055717986 -0.0024612865 0.16509621 0.0479385 -0.05107647 -0.083109535 -0.090832666
-0.030541636 0.05756128 0.010637899 -0.04000929 0.16703068 -0.08989642 -0.02534585 0.03828836
-0.13636076 -0.028926138 0.05356771 -0.02885302 -0.03730494 -0.006911307 -0.022318613 0.009562879
-0.061316215 -0.033283927 0.05263885 0.0554671 -0.026681542 0.04476299 0.00436553 -0.13859083
0.002162819 -0.029663233 0.05214966 0.02902753 0.021779092 -0.10333761 -0.081910476 0.043963246
-0.009252862 -0.09801716 0.0114873275 0.05062865 0.0037699349 0.0046015284 -0.022911327 -0.062991805
-0.035202432 0.07493876 -0.027237903 0.013370066 -0.026169391 -0.09289992 -0.013933304 0.050848976
-0.05199357 -0.1119095 0.07956452 -0.05234728 0.0058544944 -0.12530363 0.08745325 -0.032901835
0.008662578 0.05832261 0.02322703 0.15692852 0.023333257 0.16048437 -0.09875299 0.09486391
0.0720109 -0.015861971 -0.09719445 -0.053620435 -0.11301379 -0.0542663 0.040556684 -0.15195467
-0.044911586 0.017568866 0.0009345655 -0.020375768 -0.17699172 0.051576532 0.012112136 0.05200491
-0.08227405 0.045301113 -0.021410754 -0.0076595494 0.022809831 -0.10023653 0.0056635076 -0.10683976
-0.041856162 0.06261933 0.053751875 -0.100555494 -0.0009998576 0.021610575 -0.10740106 -0.076472215
0.15112458 0.0025362626 -0.08692134 0.03495508 0.030460581 0.009348496 -0.038979035 -0.07364243
0.024188686 -0.09629635 0.04469984 0.13354121 -0.0056336606 -0.023494735 0.12826976 0.06588455
0.02197822 0.17024735 0.063529894 0.087820664 -0.0959656 0.011777962 0.0413185 0.08636102
0.04911297 0.07032359 0.0038037857 -0.048443697 0.05718868 -0.03605245 -0.0038740803 -0.027200682
-0.04514241 -0.024230054 -0.028260956 -0.13138916 0.045400094 -0.08112117 0.047981925 0.029422412
0.122245625 0.06785658 0.03407862 0.010820448 -0.006812125 -0.0327915 -0.060797863 -0.06387412
0.15434068 -0.0264076 -0.01246062 0.11082402 -0.060399592 0.1915332 0.11859112 0.1623202
-0.027537778 0.085753605 -0.011625744 -0.07818037 -0.12071274 -0.053324316 0.043556083 -0.1162101
0.07326076 0.053326953 -0.012570073 -0.052721042 0.14389212 -0.028397257 -0.027504237 0.004849519
-0.041549876 -0.007859544 0.048622213 -0.07436154 0.011081881 0.06828286 0.03928353 0.092017576
0.050929736 0.06763776 -0.018627783 -0.15234844 0.058823645 0.093144976 0.08439643 -0.090399146
0.026854765 0.033309396 0.012449021 0.04948074 0.027416255 -0.06628851 -0.039577037 -0.03057015
-0.015904391 0.07284634 0.04142926 0.016649103 0.15467197 -0.06729707 -0.0773957 0.0046081482

layer1.2.layer.weight f4 [128, 256]
00000000: dbdc b6bc 0604 d0bb e83e 0f3c eff7 123d
00000010: 34f5 603d 5410 6cbb fd6c 68bc 4504 863d
00000020: 91db f53b f071 253d dc6a 2fbd 8abf 47bb
00000030: 1c11 09bd 7d1e 723d 9c29 be3b 7902 d5bb
00000040: 3cbb a73c c09b fbbb c705 953c 1d65 7f3d
00000050: c172 26bd 0588 453d eee3 343d e825 3f3c
00000060: 51d5 3b3c 8321 6cbc adcb debc 493d f93c
00000070: 7ad5 7bbd c204 913c 26b0 b43b 4fed 5bbc
00000080: fb89 bc39 3d9b 073d 36e5 c4bd 6c06 0f3d
00000090: bbff dabb eb7b 0abd bbab 65ba 6a6d ad3c
000000a0: caf6 58bd b69b 56bc 6498 74bc 3d1d 743c
000000b0: d862 1f3c a8d7 30bd 5732 5a3d 7eac 1e3d
000000c0: 15d9 a23c 826b 903d 91af ca3c d94e 29bd
000000d0: 2041 42bd 4b99 ad3c cc43 1a3d 8a29 393d
000000e0: 9ead 7e3c 5b14 54bd 9871 493c 6515 0c3d
000000f0: 3615 6cbd cd77 19bd cd0b d03c 8ae3 9fbc
00000100: cb89 5f3c 9c7e aebc ff53 19bd 6f5a 17bd
00000110: a07f b6bc b880 4abd 2068 803c 1cb0 bb3c
00000120: 281d d03c 6524 2d3d 6b12 0bbd b49b bebc
00000130: 5aa5 523d 5a02 77bd caa5 883c b68e 3ebd
00000140: 2b6e e63c dc48 c33c 992b f3bb 2ea5 97bc
00000150: a9e6 923b e303 1abd f637 1cbc c7d8 3fbd
00000160: 29db 38bc e29f 6e3d 6e3c 26bc 3ad8 a7bb
00000170: 2575 8c3c 8421 d6bc a078 7b3d 4166 39bd
00000180: a21a 093c 69c9 0fbd 8d0b 2bbc 6c4c 2cbc
00000190: c46a 083d edd0 41bd bb82 3cbc be99 1ebb
000001a0: 0dd9 083c b135 743a ea42 fdba c619 6ebd
000001b0: 37b0 113c 2837 a63c 70f2 d13c fb4e 503d
000001c0: ec34 df3c 045e 183b 8604 8ebc e971 bb3b
000001d0: 5f1e 1a3b d86d 073c aa21 893d 9f59 453c
000001e0: 5eff 653d d80b 45bc 8953 bfbc f2d0 053d
000001f0: a948 d9bc 2006 0d3d 1115 a43c b1e6 9abc
00000200: 8263 76bc 00ba 37bd ce6a f3bc 790e 723b
00000210: 7db6 103d a674 a0bc 6911 efbc 0eba 4f3c
00000220: 0aaa 653c 00dc 9d3c e973 14bd 4e23 853c
00000230: bd71 d33b 045b 86bb 233a 1a3d 9200 14bd
00000240: 0149 993c b267 fd3c e0f8 92bc c812 5cbb
00000250: 8ccb 3f3c 3ab7 b13b 0128 c2bc 7d7d 02bd
00000260: e804 4f3c f24e 7ebb 31e1 16bd 0576 8c3b
00000270: db72 943c 280e 5cbd a6cb b3bb a333 a4bc
00000280: dd56 8d3c 3ea6 23bc f8cb 20bd b187 9ebb
00000290: 240b 48bc ece3 c6bc 15ac 82bb 27b6 d1bc
000002a0: 6e7a d33d b886 b23c 9008 063b d631 2e3c
000002b0: 3288 dbbc 9588 18bd 3d4c e2bb bb55 d6bc
000002c0: e274 16bd e030 1a3c ada2 8ebc 48a5 0f3b
000002d0: 9045 12bb 3566 6abb 6ddb 553c fc00 063d
000002e0: ffde 8dbd b959 973c 0b10 1a3c a0c5 bbbc
000002f0: 6fbe 33bc f168 1ebd 1bdc 8b3c 8c89 0abc
00000300: 56ea cd3c af60 c4bc ec42 463c 64f8 15bd
00000310: 619a 583d 6381 dfbc c965 4abd 985b 8dbb
00000320: 1c38 b23c 7b05 3f3c d185 87bc 0662 923c
00000330: 1a8d cebc ea53 25bc 5dea d0bc c0d4 9fbc
00000340: dab1 4bbc 0a15 a338 d23b 033d d19d 6d3b
00000350: e0ef f4bb 5dea 443d 8f4b ffbc 7a3c d2bc
00000360: fee4 a8bc 94d5 87bd 5543 633c d9a0 a93d
00000370: 898d 0f3d b768 743d 92cb 0ebd a4c4 153d
00000380: d195 0e3d e379 8d3c 605c 8cbb bfd7 123d
00000390: f471 703c f373 c9bc bcad 773c d5b8 a13b
000003a0: b430 163d aa66 35bd 0cf7 b1bb da9d a7bd
000003b0: 5d0f 233d 994c 69bd 4c56 3d3c 1fdf 863c
000003c0: 1f9b 4b3d 094f afbc a858 ec3c 23be 443b
000003d0: 867e c1bc 24fe 32bc d13a 12bd 13bc eebc
000003e0: 456d f63c b491 be3c bc8e 303c e9d0 f2bc
000003f0: 0ca7 cfbc 0a0e 1a3c e0e3 8fbc e449 0dbc
-0.022322109 -0.006348136 0.008743025 0.03588098 0.054921344 -0.0036020475 -0.014186141 0.06543783
0.007502981 0.040391862 -0.04282652 -0.0030479156 -0.033463582 0.059111107 0.0058033 -0.006500539
0.020475022 -0.007678479 0.018191231 0.06235229 -0.04063678 0.04822542 0.044162683 0.011666752
0.011464433 -0.014412287 -0.02719673 0.03042473 -0.061482884 0.017702464 0.0055141626 -0.013423278
0.00035960958 0.03310703 -0.09614031 0.034918234 -0.0066833175 -0.033809584 -0.00087612466 0.021170337
-0.05296973 -0.013098648 -0.014928911 0.014899549 0.009728156 -0.043174416 0.053270664 0.03873872
0.019878903 0.070517555 0.02474192 -0.04133496 -0.04742539 0.02119126 0.037662312 0.04520563
0.015544323 -0.051777225 0.012295149 0.03420009 -0.057637416 -0.037467767 0.025396252 -0.019517679
0.013643692 -0.021300606 -0.03743362 -0.03695148 -0.022277653 -0.049439162 0.01567465 0.022911124
0.025404528 0.042271037 -0.03395311 -0.023267604 0.051427223 -0.060304977 0.016680617 -0.04652282
0.028128704 0.023838453 -0.0074209687 -0.018511381 0.0044830632 -0.037601363 -0.0095348265 -0.046837594
-0.011282721 0.058257945 -0.0101462435 -0.0051222118 0.017145703 -0.026139028 0.061394334 -0.045263533
0.008368166 -0.03510419 -0.010439766 -0.010516267 0.033304945 -0.047318388 -0.011505778 -0.0024200524
0.00835253 0.0009315862 -0.001932231 -0.05813005 0.008892111 0.020289972 0.025628299 0.05085657
0.027246915 0.0023249397 -0.017336141 0.0057203663 0.0023516638 0.008265935 0.06695874 0.012045293
0.05615174 -0.01202675 -0.023355262 0.03266997 -0.026523905 0.03442967 0.020029576 -0.01890883
-0.015038373 -0.044855118 -0.029714014 0.0036934896 0.035330284 -0.019586872 -0.029183106 0.012678636
0.014017591 0.019269943 -0.036243353 0.016252186 0.0064527676 -0.0041002054 0.0376531 -0.036133356
0.018711569 0.030933235 -0.017940938 -0.003358053 0.011706244 0.0054234536 -0.023700716 -0.031857956
0.012635447 -0.003880438 -0.036835853 0.00428653 0.018121174 -0.053724438 -0.0054869233 -0.020044154
0.017253334 -0.009988366 -0.03925702 -0.004837953 -0.012209687 -0.024278603 -0.003987799 -0.025599552
0.10326086 0.021792755 0.002045188 0.010631999 -0.026798341 -0.03723963 -0.006906061 -0.026163926
-0.036732562 0.009411067 -0.017411554 0.0021918584 -0.0022319295 -0.0035766487 0.013052803 0.032715783
-0.06927299 0.0184754 0.009403239 -0.022921383 -0.010970696 -0.0386743 0.017072728 -0.008455645
0.025136154 -0.023971884 0.012100916 -0.036613837 0.052881602 -0.027283376 -0.049413476 -0.0043138973
0.02175527 0.0116590215 -0.0165433 0.017869007 -0.025213767 -0.010090807 -0.025502378 -0.019510627
-0.01243254 7.7763645e-05 0.03203947 0.0036257396 -0.0074748844 0.04807507 -0.031163959 -0.025663603
-0.020617004 -0.06632534 0.013871034 0.082826324 0.035047088 0.059670176 -0.03486211 0.036564484
0.034810845 0.017270034 -0.004283473 0.035850283 0.014675606 -0.024591422 0.015117105 0.004935364
0.03666754 -0.04428736 -0.0054310616 -0.08184405 0.039809573 -0.056957815 0.011556219 0.016463814
0.049708482 -0.021399992 0.028850868 0.0030020557 -0.023619901 -0.01092485 -0.035700623 -0.029142415
0.0300814 0.023262836 0.010776218 -0.029640632 -0.025348209 0.009402761 -0.017564714 -0.008623574

layer1.2.layer.bias f4 [128]
00000000: 837f 053c dbc2 cb3c 5c7c c6bb fb2f a2bc
00000010: eef6 eb3c 3d47 30bc a7a1 00bd 7c8a 103d
00000020: 9e29 933d 536b a73b 1a5d f83c 4324 07bd
00000030: 2b1f e4bb 0d99 49bc 2bf5 57bd cd45 d43c
00000040: aa7a a7bc 31a7 f4bd 1b20 b43c 5042 843b
00000050: fa54 a6bc ea11 a9bc ea0d 12bd f861 2a3c
00000060: b7f5 11bd 9341 e03a b7cc 993b 0e69 2a3a
00000070: ae33 ec3b 7949 f13c c899 30bc 6a40 b23b
00000080: 982f 8a3c 0129 843c 7b1f 27bc d6eb 29bd
00000090: a14f 99bc be4c b4bb 10d0 293d 5187 02bd
000000a0: 00dd a4bc ec20 96bd c046 88bb a7c3 79bc
000000b0: 093d b43a edd8 173d 9001 bfbb 5a8c c4ba
000000c0: ea31 8b3c 4d4d b33b fad2 09bd 37dc 8f3d
000000d0: 88c7 683c c70b 82bc 5a84 2bbd 88d1 63bd
000000e0: 56e0 7bbd 85c2 6bbc 6e15 293d 44ff 7dba
000000f0: 5d07 893c 6b77 4abd 45b2 3c37 0261 0a3c
00000100: b453 9bbb 3781 ed3c 958a 4dbc d5b5 973c
00000110: ace2 183c d592 8e3a ba16 61bc 3795 82bc
00000120: 7ce2 22bb 7116 d43c 997c b23c 1bde 09bc
00000130: 7b6a 5c3c 2046 c2bb 90d5 4c3b 3d9d b53d
00000140: 0fbf 5d3b f2ed 423c f0c7 943c 368f 5ebb
00000150: 6fe5 f13c 23bc e2ba f9be 21bc 159c e03c
00000160: 71af 843c 1105 17bc 58c9 9fbc cd50 dc3a
00000170: 0275 083d 0691 95bc cb1d f63c 4e34 2d3c
00000180: 7f25 9f3d c8a3 3a3a 8651 b8bc 6b03 533d
00000190: 51b1 47bd 5123 2ebd fc39 073d 1ccf 74bc
000001a0: 1d4a df3c 0952 14bd 7195 e03a 1b84 913a
000001b0: b761 0fbc 5524 e23c 452f 883c 3ae5 c23c
000001c0: 94a2 213c dd73 65bc 2561 6ebb 8fcd 3d3c
000001d0: 4ce3 23bc 15a6 2c3d 0281 d63b 68ed 06bd
000001e0: 8527 363c 6dab fd3c 7aea 5dbc d66a 863c
000001f0: f247 e9bb 4cc4 16bc 4483 8639 b424 3bbc
0.008148077 0.024873188 -0.0060573053 -0.01979827 0.028804269 -0.010759172 -0.031404164 0.03528832
0.07185672 0.0051092296 0.030317832 -0.032993566 -0.0069617233 -0.012304557 -0.052724045 0.02591219
-0.020444233 -0.11945952 0.021987965 0.0040362254 -0.020304192 -0.020638425 -0.0356578 0.010399334
-0.035634723 0.0017109386 0.0046935934 0.000650064 0.007208309 0.02945398 -0.010778852 0.0054398077
0.016868398 0.016132833 -0.010200377 -0.041484676 -0.018714728 -0.0055023124 0.04145819 -0.03186733
-0.020124912 -0.07330498 -0.0041588247 -0.015244401 0.00137511 0.03707211 -0.0058290437 -0.0014995441
0.016991574 0.0054718615 -0.03364847 0.070244245 0.014207728 -0.015874757 -0.041874267 -0.055619746
-0.06149324 -0.014389639 0.041280203 -0.00096892216 0.016727144 -0.049430292 1.124718e-05 0.00844598
-0.004740203 0.028992279 -0.012545248 0.018519321 0.009331387 0.00108775 -0.013738329 -0.015940292
-0.0024854233 0.025889607 0.021787928 -0.0084147705 0.013453121 -0.0059287697 0.0031255223 0.088678814
0.0033835804 0.011897551 0.018161744 -0.0033959872 0.029528348 -0.0017298501 -0.009872192 0.027418176
0.016196938 -0.0092175165 -0.019505188 0.0016808748 0.033314712 -0.01825763 0.030043503 0.010571552
0.07770824 0.0007119742 -0.02249981 0.05151693 -0.048753086 -0.04251415 0.033014283 -0.014941957
0.02725702 -0.036211047 0.0017134381 0.0011101993 -0.008751324 0.027605215 0.016624102 0.023790944
0.009865422 -0.014004675 -0.003637382 0.0115846535 -0.010002922 0.042150576 0.0065461406 -0.032941252
0.011117821 0.030965531 -0.013544673 0.016408365 -0.0071191723 -0.009202074 0.00025656272 -0.011422325

layer1.3.layer.weight f4 [128, 128]
00000000: 515e acbc 10fa 5a3d 7ad8 52bc 751c 59bb
00000010: 4d1c 3cbc bc87 05bd 851a d3bb 4363 693d
00000020: 9a7e fabd fc8d 63bc ee0e b93c a52b 1d3b
00000030: 3373 933c e781 423c 61c7 343d df55 d8bc
00000040: 438f c1bc 10ed 5f3d 40eb efbc 2d3f 0abb
00000050: 3104 003c 7690 29bc 56e6 8cbb 1c11 4bbc
00000060: d21a bfbc d8e0 3ebd 224d a13b b2c3 8e3c
00000070: 39db 263b e595 50ba 58fa d9bc 173a 34bb
00000080: a86b a7bc 3f38 8ebc 9d81 fd3c fcf3 54bd
00000090: 40d3 fdbc dabf 0e3d 586b 273d 484a 213d
000000a0: c42f 57bd 564e 1f3c 3c89 d1bc b338 0dbd
000000b0: 55ba 14bd 2482 3dbd 9170 fbbc 5314 073d
000000c0: 147c 87bd 8d7e 943b c774 1b3b f5bb 603d
000000d0: 34b5 bcba 2b74 e83b 900d 903c f115 523c
000000e0: 8409 1bbd fde8 603b 00cc 27bd 4496 e4bc
000000f0: a2e6 c8bc 89ea 49bc 6ca8 873c 3959 a6bc
00000100: c240 d6bc 4afc 57bd d7b9 7abd 2876 a03d
00000110: cf00 18bd 83ad cd3b aa9e 97bd 9b50 ce3c
00000120: da4b 413c 9823 593b b107 683c 42d3 83bc
00000130: 0fbe b13c 7bbe 9cb9 edcb a63c af6d 2f3d
00000140: c546 d23c e10d 86bc 331a 54bc ffa0 90bb
00000150: 9b1c 473c afae 1a3d d4c6 6dbd e9cb e8bc
00000160: eb5a 93bd efa8 29bb 797a acbb 1760 bcbc
00000170: ba8c 8cbc 3f3c 15bc e0d2 55bc 61d3 503c
00000180: 2929 6cbc 9b35 973c 1f33 9d3b 0a0b e8bb
00000190: 3d94 f5bc 3a05 6dbc c126 32bd d3b4 28bd
000001a0: baf1 273c 6645 3b3d 90d2 e7bc ff9c db3c
000001b0: 6f03 14bc bd6c 42bb 6b84 883d 542d 19bd
000001c0: 9e7e 603c ebf6 84bc 55fe b9bc a8e1 453d
000001d0: fdba 7e3c 5ea4 0abd 67f2 20bd ff1d 003c
000001e0: e836 cc3c 787b 453d 7bbf 183d 6407 ab3b
000001f0: 1975 373c 7b64 533c 53fe 8ebc c2eb c53b
00000200: 2f95 a83b 9d1f 77bc 14cc 273d 8fc0 133c
00000210: 74f9 78bc 757b c6bb 7fc4 88bc 37c8 0abd
00000220: 01c2 293d b956 be3c b6f9 37bd 7d76 7abc
00000230: 13bf c3bc 277f 083d 5775 3f3d 45ad b73c
00000240: da98 80bb 9c3b 4bbd 4fe8 a6bb f3cc c8ba
00000250: 2c2c 9d3d 2f11 9fbc 0449 9a3c 1980 30bc
00000260: b13c bdbc 3eb5 e63c 1100 d7bc 3a88 853c
00000270: ec14 3e3c 5b95 00bc 6c74 3c3d 1f8b 33bb
00000280: 0ff2 92ba 512a ad3c 2921 1dbd b2b0 f1ba
00000290: 9710 a93b 3edf de3c 50c0 b3bc ad74 62bc
000002a0: 6b49 14bc fcad c83c a434 60bb 4ae4 dc3a
000002b0: 443d e8bc c0da 65ba 1f1b e8bc e805 ce3c
000002c0: ce1b aebc aded 1db9 eea7 23bc 300b 263c
000002d0: 91c3 49bc b524 34bc c1a0 2a3c 8a47 1d3d
000002e0: d980 47bc 8738 d53c d65f 653c 7b3b bc3b
000002f0: c566 503c 82db 723d bcfd 5c3b 55d6 053d
00000300: e15a 53bd 530e 903c c1df 9abc 3de3 e5bc
00000310: 5770 303d 2d9e 95bd 4434 a7bc 92c4 d03c
00000320: 456d 703c 48ff 55bc 6a75 aabc 982f 2e3c
00000330: 79dd 5c3c 0d70 f9bc 0a4f a33c 9b02 dc3c
00000340: 2463 1c3d 459d 47bd 45a5 57bc 6f79 213d
00000350: 8b25 833b 4523 2c3a 9607 8b3b bd92 eebb
00000360: 2101 fbbc 24e2 733c 6b52 ca3c 04c4 cabc
00000370: 25bc e9ba f569 79bc 7f2b bdbb 0e73 163d
00000380: d793 d23a c0b1 cdbb 922b 583d 02c3 e9bc
00000390: dc1b ebbc 9796 043c e6a0 8cba 38bf b63b
000003a0: de55 a33c 09f0 aabc 4e4e a5bc c67d 83bc
000003b0: 590d 11bc 5b33 353d 4b7f 90bc 98c5 38bc
000003c0: 653b 9c3b aef3 3f3d 8207 e1bc 56f9 69bb
000003d0: 101d 35bc 87a5 5cbd ffd6 d03a a061 d03c
000003e0: d403 4ebc f511 fc3c 8748 603b 0f77 c6bc
000003f0: 9000 663b fb41 f9bc 8959 053d 935f 3b3a
-0.021041067 0.053461134 -0.012868995 -0.0033128534 -0.011481357 -0.03260015 -0.0064423704 0.05697943
-0.122311786 -0.013888832 0.022590127 0.0023982313 0.017999267 0.011871791 0.044135455 -0.026408134
-0.023627883 0.05466944 -0.02928698 -0.0021094785 0.007813499 -0.010349384 -0.004299919 -0.012394216
-0.023328219 -0.046601146 0.004922525 0.0174273 0.0025460257 -0.00079569063 -0.026608631 -0.0027500445
-0.020437077 -0.017360805 0.030945593 -0.051990494 -0.03098452 0.034850933 0.040873855 0.03937748
-0.052535787 0.009723267 -0.025578134 -0.0344779 -0.036310513 -0.04626669 -0.030693324 0.032978367
-0.06615463 0.0045316876 0.0023720728 0.05486675 -0.0014397264 0.0070939264 0.017584592 0.012822614
-0.03785087 0.003431856 -0.040966034 -0.027903683 -0.024524037 -0.012323984 0.016559802 -0.020306217
-0.026153926 -0.052730836 -0.061212387 0.078350365 -0.037110146 0.0062767877 -0.0740331 0.02518492
0.01179787 0.0033132788 0.01416199 -0.016091947 0.021697072 -0.00029896558 0.020360911 0.04282921
0.025668511 -0.01636404 -0.0129456995 -0.0044137235 0.012152816 0.037764248 -0.058050945 -0.028417544
-0.071950756 -0.0025888046 -0.0052636233 -0.022995038 -0.017156947 -0.009108602 -0.013050765 0.012745709
-0.01441411 0.018458178 0.004797354 -0.007081394 -0.029977912 -0.014466578 -0.04349399 -0.041188072
0.010250503 0.04572048 -0.028298646 0.02680826 -0.009034022 -0.0029666864 0.06665882 -0.037396744
0.013702063 -0.01623102 -0.022704283 0.048310906 0.015547511 -0.03384816 -0.039293673 0.007819652
0.024928525 0.048213452 0.037291985 0.005219387 0.011197352 0.012902374 -0.017455256 0.0060400674
0.005144737 -0.015083221 0.04096611 0.0090180775 -0.015196193 -0.0060571977 -0.01669526 -0.033882346
0.041444782 0.023234712 -0.044915877 -0.015287039 -0.023894822 0.033324387 0.046742763 0.022421489
-0.0039244713 -0.049617395 -0.0050936113 -0.0015319869 0.07674441 -0.019417373 0.018833645 -0.010772728
-0.023100229 0.028162595 -0.026245149 0.01630031 0.011601668 -0.007848109 0.046009466 -0.0027396155
-0.0011211055 0.021138342 -0.038361702 -0.00184395 0.0051594484 0.02720606 -0.021942288 -0.013821763
-0.009050707 0.024497025 -0.0034211064 0.0016852703 -0.028349526 -0.0008768253 -0.028333245 0.0251493
-0.021253493 -0.00015061228 -0.009988768 0.010134503 -0.012314693 -0.01099508 0.010414303 0.038398303
-0.012176716 0.02602793 0.0139999 0.0057443953 0.012719815 0.05929137 0.0033720573 0.032675106
-0.05160034 0.017584955 -0.018905522 -0.028062457 0.043075886 -0.0730556 -0.020410664 0.025484357
0.014674489 -0.013061352 -0.02080794 0.010631464 0.013480538 -0.030448938 0.01993515 0.026856711
0.038180485 -0.04873397 -0.013161962 0.03942245 0.004002278 0.0006566535 0.0042428477 -0.007280676
-0.030640187 0.014885459 0.024697503 -0.02475167 -0.0017832561 -0.015223016 -0.0057730074 0.03673082
0.0016065788 -0.006277293 0.052775927 -0.02853537 -0.028699808 0.008092544 -0.0010729104 0.0055769943
0.019938406 -0.02086641 -0.02017894 -0.016051184 -0.00885328 0.04423843 -0.017638823 -0.011277579
0.0047678226 0.04686325 -0.0274694 -0.0035701594 -0.011054292 -0.053868797 0.0015933214 0.025437176
-0.012574155 0.030770281 0.0034222917 -0.024226693 0.003509555 -0.03042697 0.03255609 0.00071477256

layer1.3.layer.bias f4 [128]
00000000: 50fa babb 8932 aa3a 3041 bfbb 31f2 b83b
00000010: 504b e039 49f2 c73b 1d5d 423b fe4b aebb
00000020: 2c4e c5bb f0b8 eb39 5801 cc3a 4a28 2a3b
00000030: 9667 093b c97b bcbb 714a b5b9 9268 a8b9
00000040: 2099 7ebb 14b1 e8b9 69af f63a 3255 51bb
00000050: 1f66 913b 930d 163c 6813 55bb bfd8 1739
00000060: 651e 923b bc8c 5aba 4ba3 253b f31d 163b
00000070: 1539 eeba c9ee 833b 8c81 36b9 3816 be3b
00000080: b1a7 6bbb fd59 b8bb d833 f739 afbf 433b
00000090: 1439 b7bb 693c d1ba 17de adb8 0b4d 29bb
000000a0: 8f91 a6ba 7f53 8cbb 6e61 37bb 65d0 e1ba
000000b0: 5644 9b3b 434f 98bb be6c 02bb 8fd2 97bb
000000c0: 4bbf 213b 51ce 17bb 671f a6bb f08d cf3b
000000d0: 3fc1 413b be05 69ba e4ec 213b 3836 0dbb
000000e0: 2cfd ceba 2b37 0fba 29ad 53bb 2e59 c0bb
000000f0: 6c1d 78bb b07c 223c 1d8a 083b 7e44 793b
00000100: 03cf 52b8 81e9 5a3a df0c a7ba 6c09 31bb
00000110: 63f2 87bb 1444 c23b 4005 c5ba 3af7 9dbb
00000120: 27e9 1fbb 1ebd 1ebb 808e 61ba 4fdf 54bb
00000130: 8c47 283a 22b5 89bb b338 30bb c65e b5bb
00000140: f103 15ba 143a 473b e83f 473b e8a1 7abb
00000150: 8d03 1139 9915 183a afb2 1d3b 0d6a a7ba
00000160: 8861 3bbb e7d9 0939 c9e4 d739 2678 17bb
00000170: dc25 0cbc 79cc 5eba b0e9 92bb 48d6 423b
00000180: 2c7b c3bb 7030 70bb c30a 8b3a 25f0 ec3a
00000190: 5793 01bb 564f 7fbb 8c44 3d3b c23b b7bb
000001a0: 5585 613b f161 9f3a 54ab 80ba bf9b 753b
000001b0: 5850 b2ba a8bd fcb8 5713 bb3b 9c0d 293b
000001c0: 67bc adbb 749b 243b a522 143b 40c6 ec3a
000001d0: f08e 4c3b aeae 253b cd30 d7bb f44f 633b
000001e0: 0bb6 3cb9 acc6 6dbb 817a 083b 42e5 15bb
000001f0: d95a 00bc 6961 273b 243e a23b 0682 83ba
-0.005706109 0.0012985031 -0.0058366284 0.005644106 0.00042780722 0.0061018807 0.002965755 -0.0053191176
-0.0060212817 0.00044960482 0.0015564365 0.0025963956 0.0020966283 -0.005752061 -0.00034578473 -0.00032121368
-0.0038848594 -0.00044382422 0.0018820587 -0.003194165 0.0044372226 0.00915851 -0.0032512788 0.00014481226
0.0044591897 -0.0008337011 0.0025274332 0.0022906035 -0.0018174971 0.004026268 -0.00017405133 0.0058009885
-0.0035958106 -0.005625962 0.00047150138 0.002986889 -0.005591521 -0.0015963438 -8.29065e-05 -0.0025833275
-0.0012708175 -0.0042824144 -0.0027981657 -0.0017228244 0.004738371 -0.0046481206 -0.0019901241 -0.004633255
0.002468067 -0.0023163746 -0.0050696614 0.006334059 0.0029564647 -0.00088891 0.0024707848 -0.002154721
-0.0015792004 -0.0005463238 -0.0032299256 -0.005870006 -0.0037859334 0.009917423 0.0020834275 0.003803521
-5.0260696e-05 0.0008350835 -0.0012744925 -0.0027013673 -0.004148768 0.0059285257 -0.0015031472 -0.0048207315
-0.0024400444 -0.002422161 -0.0008604303 -0.0032481735 0.0006419353 -0.004202501 -0.0026889264 -0.0055349795
-0.0005684486 0.0030399607 0.0030403081 -0.0038243476 0.000138296 0.0005801558 0.0024062803 -0.0012772694
-0.0028592069 0.00013146513 0.00041178454 -0.0023112386 -0.008553948 -0.0008499097 -0.004483424 0.0029729772
-0.005965611 -0.0036649965 0.0010608066 0.001807694 -0.001977166 -0.00389572 0.0028879968 -0.0055918405
0.0034411747 0.0012159926 -0.0009816685 0.0037476865 -0.0013604267 -0.000120516226 0.0057090926 0.0025795465
-0.0053020003 0.0025117071 0.0022603658 0.0018064454 0.0031213127 0.002528112 -0.006567097 0.0034685107
-0.00017996893 -0.0036281748 0.002082497 -0.0022872244 -0.00783416 0.0025540239 0.0049512554 -0.0010033257
