code/trained_model/metapinn.pth (torch, 519355 bytes, 14 tensors)

layer1.0.layer.weight f4 [256, 3]
0	0x3e6559ab	0.22397487
1	0xbd695c27	-0.05697265
2	0x3c3ddd36	0.011588385
3	0x3d477421	0.048694734
4	0x3e95e82b	0.29278693
5	0xbd0a99d7	-0.03383812
6	0xbe7b3c30	-0.24534678
7	0x3e7917d9	0.24325503
8	0xbd24cb40	-0.040232897
9	0x3ef01334	0.4688965
10	0xbf0c9e0f	-0.5492868
11	0xbf1a5ab7	-0.6029467
12	0x3e411cb0	0.188586
13	0xbe1923a0	-0.14954996
14	0xbe369219	-0.1782917
15	0x3df424b1	0.11921061
16	0xbec69db8	-0.38792205
17	0xbe7a7a59	-0.24460734
18	0x3cabb272	0.020959113
19	0x3db3fab9	0.08788056
20	0xbbe00a02	-0.0068371305
21	0x3f0fbcb9	0.5614734
22	0x3e41b679	0.18917264
23	0xbeda2990	-0.42609835
24	0xbec3077e	-0.38091654
25	0xbe28fe8d	-0.16503353
26	0x3e5b7b9e	0.21433875
27	0xbef92d07	-0.48667166
28	0xbf81b6ac	-1.0133872
29	0x3f11bb4e	0.5692643
30	0x3eb3a6c9	0.35088184
31	0x3f00c37e	0.502983
32	0x3efea7a5	0.49737278
33	0xbebe9bc1	-0.37228206
34	0x3d551e8f	0.052031096
35	0x3e3acfd3	0.18243341
36	0xbefeb70e	-0.49749035
37	0xbeac670c	-0.3367237
38	0xbf257ba1	-0.6464177
39	0x3f0c819b	0.5488526
40	0x3ed422d5	0.41432825
41	0x3f0dd6db	0.5540597
42	0x3ea60ad1	0.32430127
43	0x3e7082ee	0.23487446
44	0xbea8f7f7	-0.33001682
45	0xbe7b2dfc	-0.2452926
46	0xbe078ce4	-0.1323734
47	0x3e6b751a	0.2299389
48	0x3e8a184f	0.2697167
49	0xbe86c012	-0.26318413
50	0xbe58776d	-0.21139307
51	0xbecdbcb3	-0.4018303
52	0x3d1d6fc8	0.03843668
53	0x3f1d135a	0.61357653
54	0x3d829e14	0.06377807
55	0x3eb34c23	0.35019025
56	0xbd8afd9d	-0.06786654
57	0xbf1f308e	-0.62183464
58	0xbe1d36da	-0.15352955
59	0xbf043a93	-0.5165188
60	0x3f009b44	0.50236917
61	0x3f170d3f	0.59004587
62	0x3ef86b21	0.48519233
63	0x3db063fd	0.08612821
64	0xbe8e2634	-0.27763522
65	0xbe1630e7	-0.14667092
66	0xbe045f87	-0.12927066
67	0xbf0a1f12	-0.5395366
68	0x3d6c062a	0.057623066
69	0x3f102ad7	0.5631537
70	0xbf2043a5	-0.6260322
71	0x3e83fb6a	0.2577775
72	0xbdc8a9ab	-0.097979866
73	0x3eb367fe	0.35040277
74	0x3e423897	0.189669
75	0x3b00ebc6	0.0019671782
76	0xbe0af91f	-0.13571595
77	0xbd5ab98e	-0.053399615
78	0x3f1cf376	0.6130899
79	0x3ec4160b	0.38298067
80	0x3f06fa69	0.52725846
81	0xbd41a008	-0.04727176
82	0xbf1365e0	-0.57577324
83	0x3cce32fa	0.025170792
84	0xbe1ead5c	-0.15495819
85	0xbee976a7	-0.45598337
86	0xbd603726	-0.054740094
87	0x3f044367	0.5166535
88	0x3d3af57f	0.04564428
89	0xbf005398	-0.50127554
90	0x3f151498	0.5823455
91	0x3e554e9b	0.20830767
92	0xbebb60c1	-0.36597255
93	0xbeb65aa2	-0.35616022
94	0x3e31f188	0.17377293
95	0x3d654e74	0.05598302
96	0x3e7369aa	0.23770776
97	0x3f347092	0.7048427
98	0xbe98fe51	-0.29881528
99	0xbe89295c	-0.26789367
100	0xbf180804	-0.5938723
101	0x3de91492	0.113808766
102	0x3eb4c93a	0.35309774
103	0x3f105fa1	0.5639592
104	0xbeb57684	-0.35441983
105	0x3e45b24b	0.19306295
106	0x3e95641d	0.29177943
107	0xbe3bb214	-0.1832965
108	0xbf0a278f	-0.5396661
109	0xbf0169db	-0.5055215
110	0xbf167b3f	-0.5878181
111	0x3d5cc738	0.053900927
112	0x3dfa0872	0.12208642
113	0xbecbb722	-0.39788157
114	0x3c059458	0.008153044
115	0xbf165850	-0.58728504
116	0xbd68faab	-0.05687968
117	0x3e3a33ea	0.18183866
118	0xbe287e08	-0.16454327
119	0xbed44374	-0.41457713
120	0x3e809281	0.25111774
121	0x3f6c28c5	0.9224971
122	0xbeaa910b	-0.33313784
123	0x3f191f2f	0.5981321
124	0xbe6d34ca	-0.23164669
125	0x3f044e3e	0.5168189
126	0x3f003007	0.50073284
127	0x3f1da356	0.61577356
128	0x3f0a6ca9	0.5407205
129	0x3ee1540d	0.44009438
130	0x3d50497b	0.050851326
131	0x3f2fb26c	0.68631625
132	0xbeed2c6f	-0.46322963
133	0xbf2f862c	-0.68564105
134	0xbe849a6c	-0.25899065
135	0xbe5cfcd8	-0.21580827
136	0xbeb1a920	-0.34699345
137	0x3e269a2f	0.16269754
138	0x3ea3971a	0.3195122
139	0x3f00eea2	0.50364125
140	0x3f550211	0.8320628
141	0xbe0a7219	-0.13520087
142	0xbebda2e4	-0.37038338
143	0xbf0bfcac	-0.5468242
144	0xbec6a9be	-0.38801378
145	0x3f001b03	0.50041217
146	0xbf56ee49	-0.83957344
147	0x3e843bf2	0.25826985
148	0xbf155e5c	-0.58347106
149	0xbe9492fb	-0.29018387
150	0x3eb53577	0.35392353
151	0xbf5b2d41	-0.85615927
152	0xbe30663e	-0.17226502
153	0x3e92c2e0	0.28664303
154	0x3cb783cd	0.022401715
155	0xbebefed6	-0.373038
156	0xbf029255	-0.51004535
157	0x3eb9ea57	0.363116
158	0x3f028755	0.5098775
159	0x3e08fc54	0.13377506
160	0x3e19d987	0.15024386
161	0xbe08fd65	-0.13377912
162	0xbf1c4826	-0.6104759
163	0xbe1ab86b	-0.15109412
164	0x3edaa7fb	0.42706284
165	0xbed063e9	-0.40701225
166	0x3e903547	0.28165647
167	0xbd60322f	-0.05473536
168	0x3f11f3c3	0.57012576
169	0xbf812d04	-1.0091863
170	0x3f2c2f23	0.67259425
171	0x3e943ea6	0.28954047
172	0xbe00085d	-0.1250319
173	0xbd21fe5f	-0.039549228
174	0xbf17e1ae	-0.59328735
175	0xbed07b1e	-0.4071893
176	0xbf0eeabb	-0.5582692
177	0x3da6cea0	0.08144879
178	0xbecf9069	-0.40539864
179	0xbdca71a8	-0.098849595
180	0x3ef0bcdb	0.47019085
181	0x3e12559f	0.14290474
182	0x3f33bed8	0.7021308
183	0x3e176c9d	0.14787526
184	0xbef183c3	-0.4717084
185	0xbe0e869b	-0.13918535
186	0x3f0472f1	0.51737887
187	0x3f65182d	0.89490014
188	0xbe9fa217	-0.31178352
189	0x3dbb3599	0.09141082
190	0x3ea8356e	0.32853264
191	0x3de8c0ab	0.113648735
192	0x3e60e887	0.21963702
193	0x3eb37712	0.3505178
194	0xbed15ce3	-0.4089118
195	0x3f46c9a0	0.77651405
196	0xbecc8392	-0.3994413
197	0x3f416b5c	0.7555444
198	0xbf20663a	-0.62655985
199	0x3d5b1742	0.053488977
200	0xbf05a943	-0.522114
201	0x3e431fed	0.19055147
202	0x3e8ad0f5	0.27112547
203	0xbdd6ce93	-0.1048862
204	0x3e7bf55d	0.24605317
205	0x3c94dbf9	0.018171297
206	0xbebf2e17	-0.3733985
207	0x3e95a98a	0.2923091
208	0xbf2b729e	-0.66971767
209	0xbe795fcd	-0.24352951
210	0xbd870b16	-0.06593911
211	0xbe06122b	-0.13092868
212	0x3eae4732	0.34038693
213	0xbe9af942	-0.30268294
214	0x3d852af8	0.06502336
215	0x3e2d0d24	0.16899544
216	0x3f12d1d9	0.5735145
217	0x3e5eaca8	0.2174555
218	0x3f19d349	0.6008802
219	0xbf132585	-0.57479125
220	0xbed7d5b7	-0.4215524
221	0x3eb92147	0.361582
222	0xbef77222	-0.48329264
223	0xbf00f157	-0.50368255
224	0x3e80eeb4	0.25182116
225	0xbf087176	-0.5329813
226	0xbef6076f	-0.48052546
227	0xbf1c9123	-0.6115896
228	0xbf1fb410	-0.6238413
229	0xbf04981a	-0.5179459
230	0xbf0ff0fd	-0.56227094
231	0x3e7b7d4d	0.24559517
232	0xbe18f3d9	-0.1493677
233	0xbeb5a1c1	-0.3547497
234	0xbf4a0965	-0.78920585
235	0xbf414dac	-0.7550914
236	0xbe02f7ce	-0.12789842
237	0xbeae4423	-0.3403636
238	0x3eb807e1	0.3594351
239	0x3e945079	0.28967646
240	0xbde6f7d4	-0.11277738
241	0xbd825193	-0.06363215
242	0x3d62ff9f	0.05541956
243	0x3de0a546	0.109690234
244	0x3c7f1a9c	0.015570309
245	0xbec97cc1	-0.39352992
246	0x3ee26f8b	0.44225726
247	0x3eac5a75	0.33662763
248	0x3f2057be	0.62633884
249	0x3f2cfe1b	0.67575234
250	0x3ef97ce3	0.48728094
251	0x3eecbaed	0.46236363
252	0xbf00839b	-0.50200814
253	0xbee23559	-0.44181326
254	0xbe0b4a41	-0.13602544
255	0xbf0e8e6b	-0.5568606

layer1.0.layer.bias f4 [256]
0	0xbf0ccebc	-0.5500295
1	0x3bf23431	0.0073914756
2	0x3eec7326	0.461816
3	0x3eef83f8	0.46780372
4	0xbd4bf9d1	-0.04979879
5	0x3ef4a7e9	0.47784355
6	0xbcf7edeb	-0.030264815
7	0xbea95038	-0.33069015
8	0x3ece6cf4	0.403175
9	0x3894fd3d	7.104359e-05
10	0x3f12f37f	0.57402796
11	0x3eca365a	0.39494592
12	0xbe920ef1	-0.28527024
13	0x3e982537	0.29715893
14	0x3d904b70	0.070456386
15	0x3df9b795	0.121932186
16	0xbe4a0ee0	-0.19732237
17	0xbf0c422c	-0.5478847
18	0xbd5c53d2	-0.053790875
19	0xbe634bbf	-0.22196864
20	0x3e7de3e0	0.24793959
21	0x3e955137	0.29163525
22	0x3ea5504b	0.3228782
23	0xbf5e3f9d	-0.86815816
24	0xbf0287b3	-0.5098831
25	0x3e822339	0.25417498
26	0x3e23d285	0.15998276
27	0x3ddc7c37	0.107658796
28	0x3f244613	0.64169425
29	0xbcf3d5ec	-0.029765092
30	0xbf02ea3a	-0.5113865
31	0x3f1765e4	0.5913985
32	0x3e35812e	0.1772506
33	0x3f028467	0.5098328
34	0x3ccce014	0.025009193
35	0xbc11526a	-0.008869747
36	0xbe0d7052	-0.13812378
37	0x3f11147e	0.56671894
38	0x3e30dcfb	0.17271797
39	0x3f0f5872	0.5599433
40	0x3c1b744c	0.009488177
41	0x3f1faecb	0.6237609
42	0x3e6a3bd5	0.22874387
43	0x3e72b920	0.23703432
44	0xbf329f2f	-0.69774145
45	0x3e70adb8	0.23503768
46	0x3d478699	0.048712347
47	0xbf42b575	-0.7605813
48	0xbf36914a	-0.71315444
49	0x3e2a9b17	0.16660725
50	0xbe3899e8	-0.1802746
51	0x3eb6b631	0.35685876
52	0xbda11319	-0.07864971
53	0x3c739ec1	0.014869393
54	0x3eeb84e1	0.45999816
55	0x3f55d168	0.83522654
56	0xbe8ee8de	-0.2791204
57	0xbf14a89d	-0.58069783
58	0x3deddbe3	0.11614206
59	0x3de4b9f2	0.11168279
60	0x3d13f180	0.036118984
61	0xbcebf101	-0.028801443
62	0xbeb8050b	-0.35941347
63	0xbf2ef250	-0.6833849
64	0x3ed7d999	0.421582
65	0x3f0ca787	0.54943126
66	0xbe6b3c34	-0.22972184
67	0xbe695275	-0.22785361
68	0x3eade1d4	0.33961356
69	0xbdabf7de	-0.08396886
70	0xbef1fb9d	-0.47262278
71	0x3eb7c846	0.35894984
72	0xbc6e9966	-0.01456294
73	0x3f06a814	0.52600217
74	0x3f0d858e	0.55281913
75	0xbe33df22	-0.17565587
76	0x3edd51d0	0.4322648
77	0x3edbb7f1	0.42913774
78	0xbe34eed3	-0.17669229
79	0x3d993e62	0.07482602
80	0x3e39f85d	0.1816115
81	0x3f086aa8	0.53287745
82	0x3f03958c	0.51400065
83	0x3e2e972b	0.17049854
84	0xbf3bd041	-0.73364645
85	0x3e8b1210	0.27162218
86	0xbde071e4	-0.10959223
87	0x3f1b0347	0.60551876
88	0x3d3921d2	0.04519827
89	0xbee640fa	-0.44971448
90	0xbd027e84	-0.031858936
91	0x3e4eb5e4	0.20186573
92	0xbf0217f7	-0.5081782
93	0x3f285bc6	0.65765035
94	0x3f24de9d	0.6440218
95	0x3f0a8a17	0.5411696
96	0xbef1c084	-0.4721719
97	0xbdf2724d	-0.118382074
98	0xbeefc43b	-0.468294
99	0x3d5cbe77	0.05389258
100	0x3f422402	0.75836194
101	0xbedafd32	-0.42771298
102	0x3f15ce25	0.58517677
103	0xbeae0e6c	-0.33995378
104	0x3d930b02	0.07179834
105	0x3d1a1141	0.03761411
106	0x3f29b3c1	0.6628991
107	0x3e820cab	0.2540029
108	0x3dce309e	0.10067867
109	0xbe5fb3e6	-0.2184597
110	0xbe11093e	-0.14163682
111	0x3e2a4025	0.16626032
112	0xbe3dca11	-0.18534113
113	0xbef08340	-0.46975136
114	0xbee91714	-0.4552542
115	0x3e9cf02f	0.30651996
116	0x3f151ec2	0.5825006
117	0x3debbf61	0.11511112
118	0x3ea608ce	0.32428592
119	0xbf31e8c9	-0.69495827
120	0x3f06249e	0.52399623
121	0x3f52c81e	0.82336605
122	0x3ef6866d	0.48149434
123	0xbe12247c	-0.1427173
124	0xbf1d93a9	-0.61553437
125	0xbeeb649b	-0.45975193
126	0xbe924d7f	-0.2857475
127	0xbf12966a	-0.57260764
128	0x3f230423	0.6367819
129	0x3e14cc0b	0.14530961
130	0xbeaf6346	-0.34255427
131	0x3e1c4e24	0.15264183
132	0xbeefb57a	-0.46818143
133	0xbf097115	-0.53688174
134	0x3ecc8312	0.3994375
135	0xbf492103	-0.78565997
136	0x3ed3fbbf	0.41403005
137	0x3d9a5666	0.075360104
138	0x3ef29418	0.47378612
139	0x3e268f6e	0.16265652
140	0x3da3917f	0.079867356
141	0xbd984ca0	-0.0743649
142	0x3ee0f3cc	0.43936002
143	0xbe09642c	-0.13417119
144	0x3e8369f5	0.25666776
145	0x3e4c127d	0.19928928
146	0xbd36606a	-0.04452554
147	0xbe997477	-0.29971668
148	0xbdbd2438	-0.09235424
149	0xbe7824ae	-0.24232742
150	0xbee20c0c	-0.44149816
151	0xbc1a27af	-0.009408875
152	0xbf04dde4	-0.5190108
153	0x3e5d1d53	0.21593218
154	0xbe5b4b2b	-0.21415393
155	0xbf154cc8	-0.58320284
156	0x3f10deec	0.5659015
157	0x3ed12981	0.40851977
158	0xbf3bfaf7	-0.73429817
159	0x3f25e1e8	0.6479783
160	0x3eb851cc	0.35999906
161	0xbf149d35	-0.5805238
162	0xbf393b70	-0.7235632
163	0x3e28eca4	0.16496521
164	0xbd9f2568	-0.077708066
165	0xbe00e4c0	-0.12587261
166	0x3ebec244	0.37257588
167	0xbf22ce49	-0.63596016
168	0x3ed8d296	0.42348164
169	0x3e592b14	0.21207839
170	0xbf0a653a	-0.5406071
171	0x3ec8af35	0.39196172
172	0xbbeb8e68	-0.007188607
173	0xbe876fba	-0.26452428
174	0x3e0fc888	0.1404134
175	0xbec32622	-0.3811503
176	0xbe781bfd	-0.24229427
177	0xbe8ee0cf	-0.2790589
178	0xbe21c6e5	-0.15798528
179	0x3e903ecb	0.28172907
180	0xbd5a9740	-0.0533669
181	0x3d27062b	0.040777367
182	0xbeec9611	-0.46208242
183	0x3ddf3dbb	0.10900446
184	0x3eefc074	0.46826518
185	0x3ef9efac	0.48815668
186	0x3de0e0d0	0.109803796
187	0x3e43415e	0.19067904
188	0x3de179dd	0.11009572
189	0xbe04a189	-0.12952246
190	0x3e303a5d	0.17209764
191	0xbec6cd27	-0.38828394
192	0x3dae4ebd	0.08511112
193	0x3eaecf7f	0.34142682
194	0x3d89a5f3	0.067211054
195	0xbe9f996f	-0.31171748
196	0x3e35d56b	0.17757194
197	0xbf0e4e2b	-0.55588025
198	0xbe8772ed	-0.2645487
199	0xbe11d9b4	-0.14243203
200	0xbe0d7ab0	-0.13816333
201	0x3c6791ad	0.014133853
202	0x3c16c699	0.009202623
203	0x3f189c2b	0.59613293
204	0x3eff86a6	0.49907416
205	0x3ee8a05f	0.45434853
206	0x3e838f0d	0.25695077
207	0x3dfeb1a0	0.12436223
208	0xbe07fff7	-0.13281237
209	0xbf26f41f	-0.6521625
210	0x3e9a5e31	0.30149987
211	0xbe53da5c	-0.20688766
212	0xbe92fa1c	-0.28706443
213	0x3f2719dd	0.6527384
214	0x3dba3430	0.09091985
215	0xbd9914ae	-0.074746475
216	0xbf6c7dc4	-0.92379403
217	0x3ec6edda	0.3885334
218	0xbf0333ae	-0.5125073
219	0x3de62ef7	0.112394266
220	0x3ed72330	0.42019033
221	0x3f037998	0.5135741
222	0x3c1ace70	0.009448633
223	0xbdabb2d7	-0.0838372
224	0xbf2d5f2b	-0.6772334
225	0xbeaba369	-0.3352311
226	0x3ef43f90	0.47704744
227	0x3ea584ca	0.32327873
228	0xbe97a02e	-0.29614395
229	0xbe82a2de	-0.25514883
230	0xbe5a855d	-0.21339937
231	0x3d215bf5	0.039394338
232	0x3f3d82b5	0.7402757
233	0xbf201954	-0.6253865
234	0x3e8aad1e	0.27085203
235	0x3dc1f4ab	0.09470495
236	0xbf04a581	-0.5181504
237	0x3ea52a56	0.32258862
238	0x3ded44bf	0.11585378
239	0x3ea5773c	0.3231753
240	0xbd0f0d9d	-0.034925092
241	0x3e3933ef	0.18086217
242	0x3efc05ee	0.49223274
243	0x3ee0d0cc	0.439093
244	0xbe84281a	-0.25811845
245	0xbee94562	-0.45560747
246	0x3e886335	0.2663819
247	0xbf08b736	-0.5340456
248	0xbf0c3a18	-0.54776144
249	0x3ed1aa6b	0.4095033
250	0xbf191aa5	-0.5980628
251	0xbeee1993	-0.46503887
252	0x3e42e3c2	0.19032195
253	0x3ec67c27	0.38766596
254	0xbeb67e2d	-0.3564314
255	0xbdf3a21a	-0.11896153

layer1.1.layer.weight f4 [256, 256]
0	0x3d6666ef	0.05625051
1	0x3cebb275	0.028771618
2	0xbda14baf	-0.078757636
3	0x3dfa709c	0.1222851
4	0x3d14c891	0.036324088
5	0x3d3ab2f3	0.045580816
6	0x3c2b32b5	0.010449101
7	0x3e7154db	0.23567526
8	0xbe241875	-0.16024955
9	0xbdfc3d1d	-0.12316344
10	0xbd8518c4	-0.06498864
11	0xbe360879	-0.1777667
12	0x3df34ee1	0.11880279
13	0xbcc7710d	-0.024345899
14	0x3dcb2d58	0.09920758
15	0xbdd7c092	-0.10534777
16	0x3c6acbf5	0.014330854
17	0xbe0c564c	-0.13704795
18	0x3b0cc7c0	0.0021481365
19	0x3de119ad	0.109912254
20	0xbcf9cbe5	-0.030492732
21	0xbd460e4a	-0.04835347
22	0xbd190a26	-0.037363194
23	0x3d9008c4	0.07032922
24	0x3b3425b3	0.002748829
25	0xbd872476	-0.06598751
26	0xbdabd35a	-0.083899215
27	0xbd596621	-0.053075913
28	0xbda3947f	-0.07987308
29	0x3e0510a0	0.12994623
30	0x3e738de8	0.23784602
31	0xbdd52641	-0.10407687
32	0x3cd0e373	0.025499081
33	0xbd8706f2	-0.065931216
34	0x3e06fd70	0.13182616
35	0x3d2a609e	0.041596048
36	0x3d8f0065	0.06982497
37	0xbd889b6c	-0.06670269
38	0x3cbd27e1	0.023090305
39	0x3ddc63e0	0.10761237
40	0x3dde6296	0.108586475
41	0xbd2dad0d	-0.042401362
42	0xbd858eb2	-0.065213576
43	0xbdc7ed74	-0.097620875
44	0x3d7b06cd	0.061285783
45	0xbd26dfdb	-0.04074083
46	0xbc9ea1cc	-0.01936426
47	0x3cdacd35	0.026709178
48	0x3d04e0ef	0.032441076
49	0x3ce7be73	0.028289055
50	0x3e302ac1	0.1720381
51	0x3db64b5c	0.089010924
52	0xbe511759	-0.20419063
53	0x3d177116	0.03697308
54	0xbe9dd970	-0.30829954
55	0xbe38580e	-0.1800234
56	0xbde476e5	-0.1115549
57	0x3d3ba6c8	0.045813352
58	0x3d140c88	0.036144763
59	0xbd51ca36	-0.051218234
60	0xbdec4ee1	-0.115384825
61	0x3cc96ed3	0.024588978
62	0x3e66a8ea	0.22525373
63	0x3d477351	0.04869396
64	0x3cd511f5	0.02600954
65	0xbd61a766	-0.055091284
66	0x3dea8f9c	0.114531726
67	0x3d9985a3	0.07496192
68	0x3de384d9	0.11109323
69	0x3e23e796	0.16006312
70	0xbd120f03	-0.035658848
71	0xbe0ab0ac	-0.13543957
72	0xbdeb44dd	-0.11487744
73	0xbe895cd4	-0.26828635
74	0xbe754484	-0.23951918
75	0x3ddfbecc	0.109250635
76	0x3d9f30f7	0.07773011
77	0x3d8ea6e7	0.06965428
78	0x3def9b3d	0.11699531
79	0xbe5dadfd	-0.21648403
80	0xbd2519ed	-0.040307928
81	0x3d05e36b	0.032687586
82	0xbdd88f0d	-0.1057416
83	0xbdc73eea	-0.09728797
84	0x3c0f9d4d	0.008765531
85	0x3d1b2dc2	0.037885435
86	0x3e393aed	0.18088885
87	0xbd584424	-0.05279936
88	0xbdc36523	-0.09540775
89	0x3e3e2a75	0.18570884
90	0xbd8c07a6	-0.06837396
91	0x3da58144	0.08081296
92	0x3d8784a7	0.06617098
93	0xbde9a021	-0.11407495
94	0xbc2d3c45	-0.010573451
95	0xbe452be0	-0.19255018
96	0x3dd66205	0.104679145
97	0xbe854626	-0.26030082
98	0x3dc348e3	0.095353864
99	0x3d46bb25	0.04851832
100	0xbde45961	-0.1114986
101	0x3d2ffecb	0.0429676
102	0xbd87e779	-0.06635947
103	0xbdaa0aac	-0.08302817
104	0xbd7a074e	-0.061042123
105	0xbda9d6ec	-0.08292946
106	0xbe2044b7	-0.15651213
107	0x3de74f2c	0.11294398
108	0x3c60eb5b	0.013727988
109	0x3dc53f22	0.09631182
110	0xbe801345	-0.250147
111	0xbe87856e	-0.26468986
112	0x3e412de1	0.18865158
113	0xbd8f8e70	-0.0700959
114	0x3de3237c	0.110907525
115	0x3a7f9b3c	0.000975061
116	0xbda89c9e	-0.08232997
117	0x3d8ab78d	0.06773291
118	0xbd2ebef6	-0.042662583
119	0x3de02780	0.10945034
120	0xbd9b2c37	-0.07576793
121	0xbe095a10	-0.13413262
122	0xbdeaf7a9	-0.11473019
123	0x3daa7f84	0.08325103
124	0xbab0ee6f	-0.0013498793
125	0x3dfbc730	0.122938514
126	0xbd390d61	-0.045178775
127	0xbe4661e5	-0.19373281
128	0xbc1c6b38	-0.009547047
129	0xbde5e4a2	-0.11225249
130	0x3c17a5ca	0.009255836
131	0x3d281b55	0.04104169
132	0x3e2dfda9	0.16991295
133	0x3e62bc40	0.22142124
134	0xbe92bf30	-0.2866149
135	0x3dfe6d19	0.124231525
136	0xbe0854b2	-0.13313559
137	0xbe0dfe75	-0.13866599
138	0xbdd38841	-0.10328723
139	0xbdb630d6	-0.088960335
140	0xbc54cc1f	-0.012988119
141	0x3e59677b	0.21230881
142	0xbda45456	-0.08023898
143	0x3de713f9	0.11283106
144	0x3d4ca517	0.04996213
145	0xbc80e75c	-0.01573532
146	0xbe49e3ee	-0.19715855
147	0xbde2bdd2	-0.110713616
148	0xbcf6aa12	-0.030110393
149	0x3bf75fea	0.0075492756
150	0x3c1b614c	0.009483647
151	0xbcd987e1	-0.02655405
152	0x3d990d21	0.07473207
153	0xbd3c8efd	-0.0460348
154	0xbd47d625	-0.04878821
155	0xbe41673f	-0.18887042
156	0xbdce0473	-0.10059442
157	0x3d123d36	0.035702907
158	0x3e1a3edf	0.15063046
159	0xbcf26132	-0.029587362
160	0xbdb1ebb0	-0.08687532
161	0x3d89b4bb	0.06723925
162	0x3e0f92f7	0.14020906
163	0x3dc9cef2	0.09853925
164	0x3debd35e	0.115149245
165	0xbd576f2c	-0.052596256
166	0x3cf7061b	0.030154279
167	0x3dcb85f8	0.09937662
168	0x3df66361	0.12030674
169	0xbd7660b6	-0.060150824
170	0x3d168859	0.036751125
171	0xbe1fbb86	-0.15598878
172	0xbda95a00	-0.08269119
173	0xbe10e465	-0.14149626
174	0xbca822d0	-0.020524412
175	0x3e4fb4ab	0.20283763
176	0xbd6c996f	-0.057763513
177	0xbd451d57	-0.048123684
178	0x3e7bb38a	0.24580207
179	0xbdd82c13	-0.105552815
180	0x3d9aa493	0.07550921
181	0x3d97e68d	0.07417021
182	0x3e06ea31	0.13175274
183	0x3e039fe5	0.12853964
184	0xbe50b166	-0.20380172
185	0x3ce0d3b6	0.027444702
186	0x3b88f9c3	0.0041801645
187	0x3d90d989	0.070727415
188	0x3da371e8	0.0798071
189	0x3dc01195	0.093783535
190	0x3d0a2361	0.033725146
191	0x3dd46831	0.103714354
192	0xbdfd2bd3	-0.123618744
193	0xbde423c0	-0.11139631
194	0xbd9b55a7	-0.07584696
195	0x3d6e6067	0.058197405
196	0xbd0c3094	-0.034226015
197	0x3e0413cd	0.12898178
198	0xbbd6ded9	-0.006557327
199	0x3e50d5f9	0.20394124
200	0xbde4ce34	-0.111721426
201	0xbdb218b3	-0.08696117
202	0x3dd08d42	0.10183193
203	0xbd5dca75	-0.054148156
204	0xbe4cf27a	-0.20014372
205	0xbd3cb198	-0.046067804
206	0x3b351df8	0.002763627
207	0xbc5ce83c	-0.013483103
208	0xbe2c8458	-0.1684736
209	0xbce78351	-0.028260859
210	0xbd804d36	-0.06264727
211	0xbdc485bd	-0.09595821
212	0x3d46e33f	0.048556563
213	0xbe0b1179	-0.13580884
214	0xbc639b29	-0.0138919735
215	0xbd7ffd3d	-0.062497366
216	0x3e03567a	0.12825957
217	0xbd77aed8	-0.06046948
218	0x3d96892d	0.07350383
219	0xbe38ab23	-0.18034033
220	0xbcb7e5df	-0.022448478
221	0xbdb375db	-0.087627135
222	0x3db510b4	0.088410765
223	0x3d050a46	0.0324805
224	0x3b971cc4	0.0046115834
225	0xbdfa5ac3	-0.12224343
226	0xbdccfd9b	-0.10009309
227	0xbe8b2afe	-0.27181238
228	0x3c2575f4	0.010098923
229	0x3d3772fa	0.044787385
230	0x3cbd52ea	0.023110826
231	0xbc4ad152	-0.012379007
232	0xbe250e44	-0.16118723
233	0x3e0094e5	0.12556799
234	0x3d4e85cc	0.050420567
235	0x3d97c799	0.07411117
236	0xbd1d9866	-0.038475417
237	0xbde8d59d	-0.113688685
238	0xbe821945	-0.25409904
239	0xbe3596de	-0.17733333
240	0x3d9e5165	0.077303685
241	0xbd86507e	-0.065583214
242	0x3d98d6a3	0.07462814
243	0xbd0bf3ea	-0.03416816
244	0x3e8354b5	0.25650564
245	0xbda9b26e	-0.08285986
246	0x3dfe9eed	0.124326564
247	0x3d865f80	0.06561184
248	0x3ce4d1db	0.027932098
249	0xbd9575a4	-0.07297829
250	0x3e47335d	0.19453187
251	0xbd4e4794	-0.05036123
252	0x3d2fa04f	0.04287749
253	0xbe898448	-0.26858735
254	0x3e033ee5	0.12816961
255	0x3dd84d02	0.10561563

layer1.1.layer.bias f4 [256]
0	0xba6888c7	-0.0008870479
1	0xbd9cbcee	-0.07653223
2	0x3d79a63f	0.06094956
3	0xbd40aa9c	-0.047037706
4	0xbd7cd0a5	-0.061722416
5	0x3c4dd9f5	0.012564172
6	0xbd9adbb7	-0.075614385
7	0xbccb650d	-0.024828458
8	0xbd8103b4	-0.062995344
9	0x3ab1494e	0.0013525875
10	0x3dd19347	0.10233169
11	0x3d0022ff	0.031283375
12	0x3d3a8a6e	0.045542173
13	0xbc2e6286	-0.010643607
14	0x3b93f4bd	0.004515259
15	0xbd8fd61f	-0.07023262
16	0xbca6577e	-0.020305391
17	0xbd51af0e	-0.051192336
18	0xbd90f308	-0.070776045
19	0xbd67d7c5	-0.05660226
20	0xbcf0cd94	-0.029394902
21	0x3db730df	0.08944868
22	0xbc74dd54	-0.014945347
23	0xbd8a88c3	-0.067643665
24	0xbd04a109	-0.032380138
25	0xbb522ae6	-0.0032069026
26	0x3dc2d456	0.09513156
27	0xbd13680c	-0.0359879
28	0x3a18b043	0.0005824605
29	0x3df574d2	0.11985172
30	0x3cc399ad	0.02387699
31	0xbd905bde	-0.07048772
32	0x3d9448db	0.072404586
33	0x3db0e919	0.0863821
34	0xbd2aef0d	-0.041731883
35	0x3d59af70	0.053145826
36	0x3dadb3d7	0.08481567
37	0xbe10cbdd	-0.14140268
38	0x3cfd72cc	0.030938528
39	0xbe27a308	-0.16370785
40	0xbd01c980	-0.031686306
41	0x3da6e243	0.08148625
42	0xbda9bbdb	-0.08287784
43	0xbdc8dbeb	-0.09807571
44	0x3c210398	0.009827517
45	0x3bb49aa3	0.005511598
46	0xbd272ac8	-0.040812284
47	0x3d81878d	0.063246824
48	0x3ca57a3c	0.020199887
49	0xbd0a59e3	-0.03377713
50	0x3c9cad93	0.019125735
51	0x3cb49c03	0.022047048
52	0x3da638c3	0.08116295
53	0xbd8f8edb	-0.070096694
54	0x3c4b1b3e	0.012396632
55	0xbd1ea35b	-0.038730007
56	0xbd0604ab	-0.032719295
57	0x3d96bf66	0.07360725
58	0xbda325f6	-0.07966225
59	0x3d0b1334	0.03395386
60	0x3de2f516	0.11081903
61	0xbdf30c00	-0.11867523
62	0x3d685d85	0.056729812
63	0xbcb8883d	-0.022525901
64	0x3ca366bb	0.019946447
65	0xbba77270	-0.0051100776
66	0x3d9c2ddc	0.076259345
67	0x3ca3c52a	0.019991476
68	0xbd85f1f7	-0.06540292
69	0xbbc6cf23	-0.006067173
70	0x3dd045da	0.10169573
71	0xbd732f78	-0.05937144
72	0x3cc9c421	0.024629654
73	0x3bf3ecdd	0.007444008
74	0x3d86512d	0.06558452
75	0x3da2c61e	0.07947944
76	0x3d703261	0.058641795
77	0xbd14fef8	-0.03637597
78	0xbdd4064a	-0.10352762
79	0x3d8d177c	0.06889245
80	0xbdebad12	-0.1150762
81	0x3b17ada6	0.0023144274
82	0xbb5c234a	-0.003359037
83	0x3d03db4e	0.032191567
84	0xbc5caf53	-0.013469535
85	0x3cfde101	0.03099108
86	0xbd1d78ca	-0.03844527
87	0x3dbeed90	0.09322655
88	0xbd93358f	-0.0718795
89	0xbd754ae1	-0.059885863
90	0xbb89c01d	-0.00420381
91	0x3d43510e	0.04768472
92	0xbb8f313b	-0.0043698824
93	0xbcde5f1b	-0.02714496
94	0xbb9863ed	-0.004650584
95	0xbcb1f948	-0.021725312
96	0x3deeb9af	0.1165651
97	0xbc1862fc	-0.009300943
98	0x3c9ff5d2	0.019526396
99	0xbcbad637	-0.022807224
100	0x3dec6897	0.115433864
101	0x3d5fcb24	0.05463709
102	0xbd318993	-0.04334409
103	0xbcfcf0e2	-0.03087658
104	0x3e0a9400	0.1353302
105	0x3d229307	0.039690997
106	0x3dfe2b81	0.124106415
107	0xbda6be52	-0.081417695
108	0x3d9faac1	0.077962406
109	0xbd616af7	-0.05503365
110	0xbd95d620	-0.07316232
111	0xbde69461	-0.1125877
112	0xbd955627	-0.07291823
113	0xbc530404	-0.012879375
114	0xbd4d9e21	-0.05019963
115	0xbc08cd66	-0.008349752
116	0xbc676a58	-0.014124475
117	0xbc11c89a	-0.008897925
118	0xbd97454b	-0.073862635
119	0x3d43a687	0.047766235
120	0x3cd3869f	0.025821028
121	0xbd2b744e	-0.041858964
122	0x3dc13964	0.094347745
123	0xbbfc6d2a	-0.007703443
124	0xbd8e00d2	-0.0693375
125	0x3d5912e6	0.05299654
126	0x3d1e32dd	0.038622726
127	0x3d6ad745	0.057334203
128	0xbdfdd9e9	-0.12395079
129	0x3d0a99b2	0.03383798
130	0x3ce49e44	0.027907498
131	0xbd2b07c4	-0.041755453
132	0x3d03e542	0.03220106
133	0xbcfd7089	-0.03093745
134	0xbca2f4a7	-0.01989205
135	0x3d696891	0.056984488
136	0xbd367dea	-0.044553675
137	0xbd082dd5	-0.033246834
138	0x3b9ca3a7	0.004780251
139	0x3cc8246f	0.024431435
140	0x3c5f228f	0.013619079
141	0x3dc131ad	0.09433303
142	0x3d2b4a1e	0.04181873
143	0xbd871f2c	-0.065977424
144	0xbd8542be	-0.06506871
145	0xbd6de1bd	-0.05807661
146	0x3d7ce7b9	0.061744425
147	0xbd56d707	-0.05245116
148	0xbd83063b	-0.06397673
149	0x3db14429	0.08655579
150	0xbcd87933	-0.02642498
151	0xbdb1dfb2	-0.086852446
152	0x3c4fc4e2	0.012681218
153	0x3d85144c	0.06498012
154	0xbc0f89ea	-0.008760909
155	0x3d97bd1d	0.07409117
156	0xbd88f00b	-0.066864096
157	0xbd9627c9	-0.07331807
158	0x3d37f6b7	0.04491302
159	0xbbc9439a	-0.006142092
160	0xbcdf4c74	-0.027258135
161	0xbd11764c	-0.035513207
162	0x3dab0dc0	0.08352232
163	0xbccf9337	-0.025338752
164	0xbd993793	-0.07481303
165	0x3cdc02fa	0.026856888
166	0xbbe7f748	-0.007079039
167	0x3dadc977	0.08485692
168	0x3d512480	0.0510602
169	0xbd019534	-0.03163643
170	0x3cb220db	0.021744182
171	0x3ca6e34a	0.020372052
172	0xbd70db54	-0.058802918
173	0x3df35826	0.11882047
174	0x3d5b3cce	0.053524785
175	0x3b9aff24	0.004730122
176	0x3cc32682	0.023822073
177	0x3e374f2a	0.17901292
178	0xbd676de1	-0.056501273
179	0xbdc7f9ab	-0.09764417
180	0x3d6e2fe7	0.058151152
181	0xbce92b12	-0.02846292
182	0x3d929c90	0.07158768
183	0xbda24423	-0.07923152
184	0xbd946a4b	-0.07246836
185	0x3d44e540	0.048070192
186	0xbb897f13	-0.0041960566
187	0xbcadaf63	-0.021201795
188	0x3cf5fd24	0.030027933
189	0x3d8c964a	0.06864603
190	0x3e306d23	0.17229132
191	0x3c1267d7	0.00893589
192	0x3bf65ae3	0.0075181588
193	0x3b810e09	0.0039384407
194	0xbc6983c4	-0.014252607
195	0xbc8d25dc	-0.017229967
196	0xbd401ccf	-0.046902474
197	0x3c7671e0	0.015041798
198	0xbcbf59f4	-0.023358323
199	0xbd8cd3ad	-0.068763115
200	0xbcafff28	-0.021483973
201	0x3ce1bb04	0.027554996
202	0x3d72b8cd	0.05925827
203	0x3e14a098	0.14514387
204	0xbbbe2f5a	-0.0058039846
205	0x3dcd4304	0.10022548
206	0x3d9f2988	0.07771593
207	0x3d095637	0.033529487
208	0x3d9ffe40	0.07812166
209	0x3cd67665	0.026179502
210	0xbd06fc5e	-0.03295552
211	0xbd9e1949	-0.077196665
212	0xbc93b7f0	-0.018032044
213	0x3dc9627a	0.09833236
214	0x3c2969bb	0.0103401495
215	0xbcd1dcd8	-0.025618002
216	0xbd3c37aa	-0.045951523
217	0x3d11361b	0.03545199
218	0xbc29f06f	-0.010372265
219	0xbdf4a5ba	-0.11945672
220	0xbd8700c3	-0.06591942
221	0xbda31c07	-0.0796433
222	0x3d9352c0	0.07193518
223	0x3de47aa2	0.11156203
224	0xbd63a8fa	-0.05558107
225	0x3d8ad9dc	0.06779835
226	0xbc422135	-0.0118487375
227	0x3cf5bf2a	0.02999838
228	0xbd863c93	-0.06554522
229	0x3cc2c83a	0.023777116
230	0xbb38b8eb	-0.0028186392
231	0x3dc069f8	0.09395212
232	0x3d95a5e8	0.07307035
233	0xbdb9b172	-0.09067048
234	0x3d2696f2	0.040671296
235	0xbd2df869	-0.04247323
236	0x3cedb733	0.02901802
237	0xbcfd7b88	-0.030942693
238	0x3cf2404d	0.029571677
239	0xbd87b45e	-0.06626199
240	0x3d4ed2c9	0.05049399
241	0x3d1d36bd	0.03838228
242	0x3b87cfc8	0.0041446425
243	0xbcd6a1af	-0.026200144
244	0xbd87ae58	-0.0662505
245	0x3bb60751	0.0055550714
246	0xbe07837a	-0.13233748
247	0x3b5dec10	0.0033862628
248	0x3c80c315	0.015718022
249	0x3d27c058	0.040954918
250	0xbce070b3	-0.02739749
251	0x3b250542	0.0025180136
252	0xbd352da3	-0.044232976
253	0xbbb11ced	-0.0054050595
254	0xbd37bf0f	-0.044859942
255	0x3c633f6f	0.013870104

layer1.2.layer.weight f4 [128, 256]
0	0xbd7294d6	-0.059223972
1	0xb82e332c	-4.153249e-05
2	0x3befaf98	0.0073146336
3	0x3c67ef21	0.014156134
4	0x3cf65cf6	0.030073624
5	0xbbd4efdb	-0.0064983196
6	0xbcb642cb	-0.022248646
7	0x3ba574df	0.0050493325
8	0x3ce8a7e5	0.02840037
9	0x3d758698	0.05994281
10	0x3b8a0566	0.0042120693
11	0xbbfd966d	-0.0077388794
12	0xbc706beb	-0.014674167
13	0xbd062483	-0.032749664
14	0xbc29f397	-0.010373018
15	0x3ba48352	0.0050205374
16	0x3ba07a54	0.004897395
17	0x3c177aba	0.009245569
18	0xbcc4213b	-0.023941627
19	0xbca35cfb	-0.019941797
20	0xbd0051c9	-0.031327996
21	0x3d12cd2a	0.03584019
22	0xbce2e2b9	-0.027696
23	0x3a4c50e8	0.00077940384
24	0xbc7e9dc2	-0.015540542
25	0x3cfa2f7e	0.030540224
26	0x3c25d1da	0.010120833
27	0x3ce2631c	0.02763515
28	0x3c116b21	0.008875639
29	0xbce1d1a1	-0.02756578
30	0x3b5ce696	0.0033706776
31	0x3c83662b	0.016039928
32	0xbc63fced	-0.013915283
33	0x3d714448	0.05890301
34	0xbd576116	-0.052582823
35	0x3d0af6c7	0.03392675
36	0xbca29879	-0.019848095
37	0x3cd3d5b6	0.025858741
38	0x3cc43128	0.02394922
39	0xb9ccc567	-0.00039056988
40	0x3cc9c6a2	0.024630848
41	0xbcaa921a	-0.02082162
42	0x3cd93d76	0.026518565
43	0x3ce5eb1e	0.028066214
44	0xbc4ff521	-0.012692721
45	0x3bb68dbc	0.0055710953
46	0x3aed9c5b	0.0018128263
47	0x3cbe85e8	0.02325721
48	0xbbb69c85	-0.005572858
49	0xb9dfff21	-0.0004272396
50	0xbc6e57b8	-0.014547281
51	0xbc49766f	-0.012296303
52	0xbc9c9834	-0.019115545
53	0x3c7f14ea	0.015568951
54	0x3c0dba41	0.008650363
55	0x3b276968	0.0025545005
56	0x3d0c9cd7	0.03432926
57	0xbcf88cee	-0.030340638
58	0xbd3078ec	-0.04308407
59	0x3c148d02	0.009066822
60	0xbc2f7ee0	-0.010711402
61	0x3a5d59c4	0.0008443857
62	0x3c2d7406	0.010586744
63	0xbcc73a1a	-0.024319697
64	0x3c7550e1	0.014972896
65	0xbce5f010	-0.028068572
66	0xbced3d15	-0.02895979
67	0x3cb96861	0.02263278
68	0x3c2cd9f8	0.010550015
69	0xbd8525cb	-0.06501349
70	0x3cbf3032	0.023338411
71	0x3bda1dd3	0.0066563874
72	0x3d5d1b5d	0.053981174
73	0xbc1bfc38	-0.009520583
74	0x3c1c5e23	0.009543928
75	0x3c98d242	0.018654946
76	0xbb04e945	-0.002028064
77	0xbc5d96cd	-0.013524723
78	0xbc218404	-0.009858135
79	0xbc90c1db	-0.017670562
80	0xbb04c391	-0.0020258168
81	0x3d31abf1	0.043376867
82	0x3c887631	0.01665792
83	0xbc8de9a2	-0.017323319
84	0xbca42f45	-0.020042071
85	0xbbe3a377	-0.0069469768
86	0xbb064ea2	-0.0020493646
87	0xbd41d637	-0.04732343
88	0xbd17cdda	-0.03706155
89	0x3cefeacf	0.02928677
90	0x3b753240	0.0037413985
91	0x3c398514	0.011323232
92	0x3c07b7e1	0.008283586
93	0xbc49a1f3	-0.012306678
94	0xbcdcfede	-0.026976999
95	0xbd2cc82c	-0.042183086
96	0x3bc72363	0.0060772165
97	0x3ca2a90f	0.019856004
98	0xbc814ee1	-0.015784683
99	0x3cb12f99	0.021629142
100	0x3c0b2e90	0.008494988
101	0xbc5ee4e1	-0.013604374
102	0x3b9af5d7	0.0047290134
103	0xbcb48f25	-0.022040913
104	0xbd338cb6	-0.043835364
105	0xbd8c6e95	-0.06857029
106	0xbc4ace59	-0.012378299
107	0xbc9c0cb1	-0.01904902
108	0xbb5cf4bb	-0.0033715207
109	0x3cd2135c	0.025643997
110	0xbc9c6fc4	-0.019096263
111	0xbd5e96b3	-0.054342937
112	0x3c7163ff	0.014733314
113	0x3d598fdd	0.053115714
114	0xb99ff772	-0.00030511204
115	0xbd270dae	-0.04078453
116	0xbd075760	-0.03304231
117	0x3daf69df	0.08565115
118	0xbc9c8d06	-0.019110214
119	0x3b71a467	0.0036871673
120	0x3cd6e42f	0.026231853
121	0xbc7777d1	-0.01510425
122	0x3bcdae8e	0.006276912
123	0x3c8f858c	0.017519735
124	0xbc47364a	-0.01215894
125	0x3c821830	0.015880674
126	0xbd13ef10	-0.03611666
127	0xbb0bc4ea	-0.0021327087
128	0xbd0706ad	-0.03296535
129	0x3bf783b1	0.0075535406
130	0x3b4cb690	0.0031236745
131	0x3c8898c8	0.016674414
132	0xbd1757fc	-0.036949143
133	0xbceb7793	-0.02874354
134	0xbcdb45dc	-0.02676671
135	0xbd228ff5	-0.03968807
136	0xbd2d86ed	-0.042365003
137	0x3cc914f7	0.02454613
138	0xbce4d2b8	-0.02793251
139	0x3cab8286	0.020936262
140	0xba496e11	-0.00076839427
141	0x3c4229df	0.011850803
142	0xbc295840	-0.010335982
143	0xbc170095	-0.009216447
144	0xbcdb3f32	-0.026763532
145	0x3c6efb3c	0.014586266
146	0xb9486248	-0.00019110099
147	0x3cef9134	0.029244043
148	0xbabf2071	-0.0014581812
149	0xbce8ac96	-0.028402608
150	0x3c3bf022	0.011470826
151	0x3d05df71	0.032683793
152	0xbd3a2378	-0.045443982
153	0x3b8aeed5	0.004239897
154	0x3cd8dd82	0.02647281
155	0xbc97a51b	-0.018511346
156	0x3c148156	0.009064039
157	0xbd42b2a0	-0.04753363
158	0xbcf0e510	-0.0294061
159	0x3b6616fb	0.0035108912
160	0xbba451ea	-0.0050146477
161	0xbccc61e4	-0.024949022
162	0xbc6dc194	-0.014511485
163	0xbc8a3e62	-0.01687545
164	0x395a39ac	0.00020811585
165	0x3ca03933	0.019558525
166	0xbd366270	-0.04452747
167	0xbd50b783	-0.05095626
168	0x3cc2cb78	0.023778662
169	0x3c521685	0.012822752
170	0x3d3f7b85	0.046748657
171	0x3c8bd971	0.017071458
172	0x3c9b653d	0.018969173
173	0xbcdb6d2c	-0.026785456
174	0xbc7edf09	-0.015556105
175	0x3c0dbde3	0.00865123
176	0xba94868d	-0.0011331603
177	0xbc6b49ca	-0.014360854
178	0x3c8f87e3	0.01752085
179	0xbc9e9e7e	-0.019362684
180	0xbcd07978	-0.025448546
181	0xbd352153	-0.044221234
182	0x3cd8b764	0.026454635
183	0x3d0c3f7b	0.034240227
184	0xbd0d1c6f	-0.034450945
185	0xbc4e88fd	-0.012605903
186	0x3be9638a	0.0071224617
187	0xbc27c2fe	-0.010239361
188	0x3c6a9441	0.014317573
189	0xbb29d483	-0.002591402
190	0x3daf2f89	0.085539885
191	0xbc758324	-0.01498488
192	0x3d342916	0.043984495
193	0x3c4475b9	0.011990958
194	0xbbc82c51	-0.0061087986
195	0xbcc281b5	-0.02374349
196	0x3c960b1b	0.018315842
197	0xbb81f6f0	-0.003966205
198	0xbbec2cab	-0.0072074733
199	0xbcf56080	-0.029953241
200	0x3bfd8314	0.007736573
201	0x3c87e91e	0.016590651
202	0xbd008c23	-0.031383645
203	0xbc90b9c3	-0.017666703
204	0xbd256e1a	-0.040388204
205	0x3a246585	0.0006271231
206	0xbceb6f63	-0.028739637
207	0xbd0685b3	-0.03284235
208	0xbcb8c466	-0.022554588
209	0x3c135fad	0.008994979
210	0x3c36a048	0.011146612
211	0x3cd91852	0.026500855
212	0xbd04bc2d	-0.03240602
213	0x3ca5ff47	0.020263327
214	0x3c125e31	0.00893359
215	0x3bb353bd	0.005472629
216	0xbc07ef0b	-0.008296738
217	0xbc932e16	-0.017966311
218	0x3c95e8a3	0.018299406
219	0xbc044a92	-0.00807442
220	0x3cce6d68	0.025198653
221	0xbb7ffab4	-0.0039059343
222	0xbc678619	-0.0141310925
223	0x3d0f8836	0.03504201
224	0x3866e3ef	5.5048553e-05
225	0xbb093f64	-0.0020942325
226	0xbd0c18e1	-0.034203414
227	0x39d84dfe	0.0004125684
228	0x3d3043fa	0.043033578
229	0x3c107c1a	0.008818651
230	0xbbeb73b5	-0.007185424
231	0xbd0016e3	-0.031271826
232	0xbc8a93d4	-0.016916193
233	0x3c98ffdd	0.018676693
234	0xbcd625ce	-0.026141074
235	0x3c1d9838	0.009618811
236	0x3b10d17a	0.0022097514
237	0x3c5f7c39	0.013640457
238	0x3ce7fb62	0.02831811
239	0x3cce4c45	0.025182853
240	0xbd3364d5	-0.043797333
241	0xbcd7435a	-0.026277233
242	0xbd141af7	-0.03615853
243	0xbce07176	-0.027397852
244	0xbbe90c14	-0.0071120355
245	0x3bb3934d	0.005480206
246	0x3d72b321	0.059252862
247	0xbd871c88	-0.06597239
248	0xbc852c7d	-0.016256565
249	0xbc410f87	-0.011783487
250	0x3c20df32	0.009818839
251	0xbbc70a29	-0.006074209
252	0xbc9519ff	-0.018200872
253	0x3ccd356e	0.025049891
254	0xbc549806	-0.012975698
255	0xbd22664b	-0.039648335

layer1.2.layer.bias f4 [128]
0	0x3ce19073	0.027534699
1	0xbd097836	-0.033561908
2	0xbc4daa5c	-0.012552824
3	0x3d48d945	0.04903533
4	0x3cb7ef0c	0.022452854
5	0x3d01de21	0.03170598
6	0xbc34ea97	-0.011042259
7	0x3ceb4d2f	0.028723327
8	0x3d25feda	0.04052625
9	0xbc26fe31	-0.01019244
10	0xbc980684	-0.018557794
11	0xbdd8376b	-0.10557445
12	0x3ce9907c	0.028511278
13	0x3cb5fa0a	0.022213954
14	0xbd034d38	-0.032056063
15	0xbb3731b8	-0.0027953219
16	0xbcc2992d	-0.02375468
17	0x3bc1195a	0.0058929147
18	0x3c39e17c	0.011345264
19	0x3c8ef883	0.017452484
20	0xbc1878c2	-0.009306135
21	0x3cec4830	0.028843015
22	0x3d241d1b	0.04006682
23	0xbc8d7c05	-0.017271051
24	0x3bdb7bc8	0.0066981055
25	0x3d1bfa6c	0.038080618
26	0x3c6e4e0e	0.014544977
27	0x3c2c2f72	0.010509359
28	0xbbbda8aa	-0.0057879286
29	0xbcaa1786	-0.02076317
30	0xbce1c596	-0.027560037
31	0x3d5f9b1d	0.054591287
32	0x3c38f211	0.011288182
33	0x3c42e086	0.011894351
34	0xbcfca1c8	-0.030838862
35	0xbd3846cc	-0.044989392
36	0xbd0a91db	-0.033830505
37	0x3b7b51af	0.0038348248
38	0x3d0c87d5	0.034309227
39	0xbc45d9af	-0.012075826
40	0xbc565de6	-0.013083911
41	0x3beab3f4	0.0071625654
42	0xbcea86aa	-0.028628666
43	0xbd797c20	-0.06090939
44	0xbc5faa01	-0.013651372
45	0x3d81febf	0.06347417
46	0x3ca458e1	0.020061912
47	0x3d1231fd	0.035692204
48	0xbd9e9f35	-0.0774521
49	0xbc2599b7	-0.010107449
50	0x3c8b9a0e	0.017041232
51	0x3c39202f	0.011299177
52	0xbbde784a	-0.006789242
53	0xbcac7844	-0.02105344
54	0x3cb2fac5	0.021848092
55	0x3dc07ba6	0.09398584
56	0x3d3b72d3	0.0457638
57	0x3cf83e3d	0.030303115
58	0xbdae247c	-0.085030526
59	0xbce4b2fd	-0.02791738
60	0xbb66eff0	-0.0035238229
61	0xbca96bbb	-0.020681253
62	0x3d035d73	0.032071542
63	0x3d631bff	0.05544662
64	0xbae848e9	-0.0017721924
65	0x3d59354b	0.05302934
66	0xbc93de2f	-0.018050281
67	0xbc3be5e0	-0.011468381
68	0x3c9cb544	0.019129403
69	0xbd1e6036	-0.038665973
70	0x3cab9f21	0.020949902
71	0x3cea468a	0.028598089
72	0xbd2fd740	-0.042929888
73	0xbb7def23	-0.0038747273
74	0x3d339d7c	0.04385136
75	0xb9ff7a8e	-0.000487287
76	0xbd05e0a6	-0.032684945
77	0x3c5e6e49	0.013576099
78	0xbd01b657	-0.031668033
79	0x3cb05106	0.02152301
80	0x3d04d2b7	0.032427516
81	0xbd56ebb7	-0.05247089
82	0xbc868562	-0.016421024
83	0xbd10635a	-0.035251
84	0x3ccea8c5	0.02522696
85	0x3d047587	0.032338645
86	0xbd3018bf	-0.04299235
87	0xbc72140b	-0.014775286
88	0xbd0ba127	-0.034089234
89	0x3bf10064	0.007354783
90	0x3d74c04f	0.059753712
91	0x3cd98a5d	0.026555235
92	0xbd5907f5	-0.052986104
93	0xbd569a61	-0.05239332
94	0xbac3f87c	-0.0014951373
95	0xbd00f723	-0.031485688
96	0x3d00973e	0.031394236
97	0x3d832720	0.06403947
98	0xbc815633	-0.015788173
99	0x3ad94750	0.0016577039
100	0x3d04d894	0.032433107
101	0x3c1a7809	0.009428033
102	0xbc758494	-0.014985222
103	0xbcd906e6	-0.026492547
104	0x3d59bae5	0.053156752
105	0x3c6ed9de	0.014578311
106	0xbbc3ea3e	-0.0059788516
107	0x3c8c5dd0	0.017134577
108	0x3c4b4a7b	0.012407894
109	0xbb6af874	-0.0035853656
110	0x3c8de22c	0.017319761
111	0xbd09dd54	-0.03365834
112	0x3cf8db2b	0.030377945
113	0x39e1ec03	0.00043091187
114	0x3cb6cb9e	0.02231389
115	0xbcaca323	-0.021073883
116	0xbce32c41	-0.027731063
117	0xbd1c325c	-0.038133964
118	0xbcaffae0	-0.021481931
119	0xbccd60dc	-0.0250706
120	0xbd3f8d72	-0.046765752
121	0x3cc18dfe	0.023627277
122	0xbce3fa17	-0.027829213
123	0xbced4ecc	-0.028968237
124	0x3d036ef1	0.032088224
125	0xbd1667d6	-0.03672012
126	0x3c856052	0.01628128
127	0xbd66178e	-0.056174807

layer1.3.layer.weight f4 [128, 128]
0	0xbc981e9c	-0.018569283
1	0xbac83516	-0.001527461
2	0x3c9986cc	0.018741034
3	0xbc84b5d6	-0.016199987
4	0x3ab20e96	0.0013584669
5	0xbc8eabb1	-0.017415853
6	0xbc192935	-0.009348203
7	0x3c3b63a6	0.011437332
8	0xbcbb8086	-0.022888433
9	0xbc1caa92	-0.0095621515
10	0x3d09cac6	0.033640645
11	0xbb811ed7	-0.003940444
12	0xbd0b6fee	-0.03404229
13	0xb92a1063	-0.00016218568
14	0x3ce1b926	0.027554106
15	0x3c63d7af	0.013906403
16	0x3b9dd6d3	0.004816869
17	0x3c87343c	0.0165044
18	0x3c85eca8	0.016348198
19	0x3ceb8be9	0.028753238
20	0xbcbcee50	-0.023062855
21	0x3c5344be	0.012894807
22	0xbd43165b	-0.04762874
23	0xbcbe3918	-0.023220584
24	0xbd082d59	-0.033246372
25	0xbc9f224c	-0.019425534
26	0xbbb72b44	-0.0055898745
27	0x3bfacdb6	0.007653917
28	0xbc11481f	-0.008867293
29	0xbc8a9bff	-0.016920088
30	0x3bc58355	0.006027619
31	0x3c9bc990	0.01901701
32	0xbd21189c	-0.03933011
33	0xbc905981	-0.017620804
34	0x3c218595	0.009858509
35	0x3b19f271	0.0023490454
36	0x3ca3609f	0.019943533
37	0x3cad9e6f	0.021193711
38	0x3cc861a5	0.024460623
39	0xbb738eca	-0.0037163966
40	0x3c1496eb	0.009069185
41	0x3ca792f3	0.020455813
42	0xbd266135	-0.040620048
43	0xbd10fd37	-0.035397734
44	0xbb640d13	-0.0034797832
45	0x3b7d41fb	0.0038644064
46	0xbcd2cb1a	-0.025731612
47	0x3c9392e8	0.018014386
48	0xbd6e2a6c	-0.058145925
49	0x3c0153a6	0.0078934785
50	0x3d320bb3	0.04346819
51	0x3c045437	0.008076719
52	0x3b9d1700	0.0047940016
53	0xbd619bcc	-0.05508022
54	0xbd2bbacb	-0.041926187
55	0x3ccfb362	0.025354091
56	0xbcc77f5d	-0.024352724
57	0x3d2ebe31	0.04266185
58	0xbce1fb76	-0.027585726
59	0x3c8283ed	0.015932048
60	0xbb59d0d2	-0.003323604
61	0xbc6cc2f0	-0.014450774
62	0x3bcc128e	0.006227798
63	0xbce9c9a2	-0.028538529
64	0x3bde6f87	0.0067881974
65	0xbd2b4e0e	-0.041822486
66	0xbd0f6baa	-0.035014786
67	0x3d2864f4	0.0411119
68	0x3c8718b7	0.016491277
69	0x3bb38217	0.0054781544
70	0xbcbac560	-0.022799194
71	0xbc849beb	-0.016187629
72	0xbab863f8	-0.0014067879
73	0x3b9df542	0.004820497
74	0x3b84db69	0.004054476
75	0xbb88088c	-0.0041514095
76	0x3c0cc112	0.008590953
77	0xbbd25e05	-0.0064198994
78	0xbc250738	-0.010072522
79	0xbcbe2261	-0.023209753
80	0xbc0b5602	-0.008504393
81	0xbae1e330	-0.0017233845
82	0xbcb73519	-0.022364186
83	0xbd15ee72	-0.036604352
84	0xbad15eef	-0.0015973727
85	0x3b9c50c8	0.004770372
86	0xbd468c8f	-0.04847389
87	0xbcf46705	-0.02983428
88	0x3cc88c85	0.024481067
89	0xbc42bd3f	-0.01188594
90	0x3bd35ca9	0.006450255
91	0x3a979236	0.001156396
92	0xbc259456	-0.010106167
93	0xbb91b553	-0.0044466644
94	0x3c700cbd	0.014651475
95	0x3c77d22d	0.015125793
96	0x3be4a598	0.006977748
97	0x3cedaf47	0.029014243
98	0xbd1b523d	-0.037920225
99	0xbb8db491	-0.0043245037
100	0xbd6384d0	-0.05554658
101	0xb9f82b0c	-0.00047334319
102	0x3d38ea26	0.045145176
103	0xbd77057d	-0.06030797
104	0x3a0cd85e	0.00053728174
105	0x3c9a407d	0.018829579
106	0x3d065720	0.032797933
107	0xbc66fca1	-0.014098317
108	0x3d1803f6	0.037113152
109	0x3d1de167	0.03854504
110	0x3d27a0de	0.0409249
111	0xbd406fc8	-0.046981603
112	0xbc20772c	-0.009794038
113	0xbca6e780	-0.02037406
114	0xbb32e685	-0.0027298045
115	0xbbeb8da0	-0.007188514
116	0x3cd44443	0.025911456
117	0xbb9c271b	-0.004765404
118	0xbda16cde	-0.07882093
119	0x3c36a525	0.011147772
120	0x3ce890d5	0.028389374
121	0xbc0fe8f7	-0.0087835705
122	0x3bebc16e	0.0071946895
123	0x3c83784f	0.016048579
124	0x3be4b54e	0.006979621
125	0x3ce2b918	0.02767615
126	0x3b1ee537	0.002424551
127	0xbd14c545	-0.036320943
128	0xbc973c34	-0.018461324
129	0x3ce3d7b2	0.027812812
130	0x3d27e238	0.040987223
131	0x3be84522	0.0070883194
132	0xbc01045b	-0.007874574
133	0x3ca54f0b	0.020179292
134	0x3c593a80	0.013258576
135	0x3be0319e	0.0068418523
136	0xbcbd58d1	-0.02311364
137	0x3cc6a7d6	0.024249952
138	0xbab9a308	-0.0014162967
139	0xbd1748cf	-0.03693467
140	0xbc09a2ef	-0.008400663
141	0x3c155231	0.009113834
142	0x3c4b62ef	0.012413724
143	0xbbd3bc1e	-0.0064616343
144	0x3c024c50	0.007952765
145	0xbd17cb47	-0.037059095
146	0xbb0b0b76	-0.0021216548
147	0x3d2b3219	0.041795824
148	0x3caff7d9	0.021480488
149	0xbb289e6f	-0.00257292
150	0x3b992134	0.0046731476
151	0xbbf616bc	-0.0075100344
152	0xbd220567	-0.039555933
153	0xbb8ac926	-0.0042354045
154	0x3d6384ae	0.055546455
155	0x3cdfd62a	0.027323801
156	0x3b3e1149	0.0029002002
157	0xbc4190f3	-0.011814344
158	0x3c83ed8c	0.016104482
159	0x3d45cb5f	0.048289653
160	0xbc10d341	-0.008839429
161	0x3c9c68b5	0.019092897
162	0x3b276167	0.0025540234
163	0xbd25911e	-0.040421598
164	0x3d28ebdb	0.041240554
165	0xbc6c63b3	-0.014428067
166	0xbd54e54c	-0.051976487
167	0xbd01f67a	-0.0317292
168	0xbb959dfc	-0.0045659523
169	0x3c91143e	0.017709848
170	0xbc5691de	-0.013096301
171	0xbd44a805	-0.0480118
172	0xbcd6ddb7	-0.026228769
173	0xbcc8421b	-0.024445584
174	0xbd23930a	-0.03993515
175	0x3c9fd49c	0.01951056
176	0xbd09b83c	-0.033622965
177	0xbd0e8387	-0.034793403
178	0xbad1145b	-0.0015951501
179	0x3d7304bc	0.059330687
180	0x3d02a569	0.03189603
181	0xbcc0c438	-0.023531064
182	0xbc1bf8a6	-0.009519732
183	0x3c8a32d3	0.016869938
184	0xbc1d7512	-0.009610431
185	0x3cb161c4	0.021653064
186	0x3d84f698	0.064923465
187	0x3d1e964b	0.03871755
188	0xbd3b1ce6	-0.045681857
189	0x3cc2334c	0.0237061
190	0x3c8bebb9	0.017080175
191	0x3c25cac5	0.010119145
192	0x3bc8ee65	0.0061319345
193	0xbd162e92	-0.036665507
194	0xbcb154b0	-0.021646827
195	0xbbc950ff	-0.0061436887
196	0xbce75fb6	-0.02824388
197	0xbabba098	-0.0014314828
198	0xba29d871	-0.00064790907
199	0x3b8c2691	0.0042770584
200	0x3d03cdc6	0.032178663
201	0xbc4040bf	-0.011734187
202	0xbcc8baf6	-0.024503212
203	0x3d31e7cc	0.04343395
204	0xbc547ea3	-0.012969646
205	0xbb1dd979	-0.0024085923
206	0xbaefa49e	-0.0018283313
207	0xbc80366e	-0.015650954
208	0x3cb505df	0.022097526
209	0xbaff65ea	-0.0019485329
210	0xbcbcfbd7	-0.023069305
211	0xb938127a	-0.0001755449
212	0x3c0f610d	0.008751166
213	0x3d1cf384	0.038318172
214	0x3cc84de9	0.024451213
215	0xbc13c049	-0.009018012
216	0x3ce90a92	0.028447423
217	0xbc2c0b2e	-0.010500712
218	0x3cf6bb8e	0.03011873
219	0x3cc17416	0.023614924
220	0x3d38fba4	0.04516186
221	0xbcacc467	-0.021089746
222	0xbcacb3f3	-0.0210819
223	0x3cacc73b	0.021091094
224	0xbbcc7503	-0.006239535
225	0x3bf457c9	0.007456754
226	0xbd37b172	-0.04484696
227	0xbc649ccc	-0.013953399
228	0xbce8e1f4	-0.028428055
229	0x3d0b714b	0.03404359
230	0xbbeeb3a5	-0.007284599
231	0xbc0d457f	-0.008622526
232	0x3ca716c4	0.020396598
233	0x3c56d7c7	0.013112969
234	0x3c87fa28	0.016598776
235	0x3b094ebf	0.0020951477
236	0xbb983dd5	-0.004646043
237	0x3d1e1ca8	0.038601547
238	0xbc8e9ef3	-0.017409777
239	0x3c865ff3	0.016403174
240	0x3cf8e505	0.030382643
241	0x3ccd3e45	0.025054106
242	0x3c2cee7f	0.010554909
243	0x3ba9a4d5	0.00517712
244	0x3b9b7533	0.004744196
245	0xbbd22407	-0.006412986
246	0xbd316e4a	-0.04331807
247	0x3a3467ee	0.0006881942
248	0xbc47fb62	-0.01220593
249	0x3bd5efe5	0.006528842
250	0x3cc99037	0.0246049
251	0x3c9a8e1e	0.018866595
252	0x3a1fc1b0	0.00060942303
253	0xba49c06e	-0.0007696216
254	0xbd01d933	-0.031701278
255	0xbd1fc0bd	-0.03900217

layer1.3.layer.bias f4 [128]
0	0x3c01a90c	0.007913839
1	0x3b1a6a71	0.002356198
2	0xbba2de99	-0.0049703834
3	0xbb7e65f5	-0.0038818095
4	0x3c7a284f	0.015268399
5	0x3b514d7c	0.0031937053
6	0x3ba4b663	0.005026625
7	0x3b338b85	0.0027396393
8	0x3c556104	0.013023619
9	0xbc54b819	-0.012983345
10	0xbba34b8e	-0.004983372
11	0x3bdcfe69	0.0067441952
12	0x3ba9865b	0.005173487
13	0xb766aa92	-1.3748782e-05
14	0x3c65068d	0.013978613
15	0xb9a0ebc0	-0.00030693226
16	0x3b812ee9	0.0039423597
17	0x3b4d4b04	0.003132523
18	0xbb571632	-0.0032819626
19	0x3b44a48d	0.0030005306
20	0xbb65365c	-0.0034975028
21	0x3bca08f8	0.00616562
22	0x3b1fed8a	0.002440306
23	0x3ba56ad7	0.0050481367
24	0x3d0e7b41	0.034785513
25	0xbc2d5689	-0.010579714
26	0x3bc1c1ac	0.00591298
27	0x3bb6d325	0.0055793696
28	0x3c807ffc	0.015686028
29	0x3b00a874	0.0019631656
30	0xbbd14a73	-0.006387049
31	0xbad4444a	-0.0016194668
32	0xbc0d9e5f	-0.008643716
33	0xbc63202e	-0.013862653
34	0x3a59e8ae	0.0008312565
35	0xbb649d37	-0.0034883746
36	0xbca934a1	-0.020654978
37	0xbb243a76	-0.002505926
38	0xbab2d534	-0.0013643862
39	0xbb591390	-0.0033123232
40	0x3b4488f1	0.002998885
41	0xbb04b7ed	-0.002025123
42	0xba497321	-0.0007684697
43	0x3c8af1c1	0.01696098
44	0xbbcbaef8	-0.0062159263
45	0xbc89527e	-0.016762968
46	0xbba2f13a	-0.004972604
47	0x3af57a3a	0.0018728443
48	0x3b8999fe	0.0041992655
49	0x3c27a60b	0.010232459
50	0x3c271ddc	0.01019999
51	0xbd2806b1	-0.041022006
52	0x3c1730a8	0.009227909
53	0xb9fce152	-0.00048233062
54	0xbbcc3f40	-0.006233126
55	0x39ced61e	0.00039450912
56	0x3c08f941	0.008360208
57	0x3bd7760b	0.006575351
58	0xbafbb980	-0.0019205064
59	0xbc3805e0	-0.011231869
60	0x3c18329f	0.009289413
61	0x3be75ff8	0.007061001
62	0xba981bae	-0.0011604929
63	0xbcb9ede3	-0.022696441
64	0xbb7232e6	-0.0036956607
65	0x3b70a89b	0.003672159
66	0xbb9b8ee1	-0.004747257
67	0xba07bb27	-0.0005177729
68	0xbb521c01	-0.0032060149
69	0x3a7335cd	0.00092777313
70	0xbc857f08	-0.016295925
71	0xbb3d8e7f	-0.0028924046
72	0x3ad3dd40	0.001616396
73	0xb9c23bf4	-0.00037047232
74	0x3b95aa82	0.0045674453
75	0x3b950fec	0.004549017
76	0xba12bde5	-0.00055977545
77	0xbb831ced	-0.004001251
78	0xbb2ca28c	-0.0026342003
79	0x3aeab8f3	0.0017907902
80	0x3c8f3416	0.017480891
81	0x3b577e04	0.0032881508
82	0xbcc5daeb	-0.02415224
83	0xbb53d78a	-0.0032324516
84	0x3b62f977	0.0034633556
85	0xbc02580e	-0.007955564
86	0xbb24daf5	-0.0025154923
87	0xbb39fa92	-0.0028378111
88	0xbc431e51	-0.011909083
89	0x3b662038	0.0035114419
90	0x3aa21357	0.0012365383
91	0xbb45ebd3	-0.0030200377
92	0xbc9846e0	-0.018588483
93	0x3cb8bc04	0.02255059
94	0x3bd28d43	0.006425531
95	0x3b317ab4	0.0027081193
96	0xbc164943	-0.00917274
97	0x3b5ee8b3	0.0034013211
98	0x3c0dea36	0.008661797
99	0xbc0c1b3d	-0.008551416
100	0xba8fed73	-0.00109808
101	0x3b3379a5	0.0027385738
102	0x3aa0cea7	0.0012268618
103	0x3b09b4c7	0.0021012293
104	0x3ac51226	0.0015035316
105	0x3aece6a4	0.0018074107
106	0x3a157cb9	0.0005702484
107	0x3b6f9b5b	0.0036561105
108	0x3bcb43e6	0.0062031625
109	0xbb263ed1	-0.0025367031
110	0xbbce6317	-0.0062984335
111	0xbc121732	-0.008916663
112	0x3c54425c	0.012955274
113	0x3bd19b31	0.006396674
114	0xbcbeb494	-0.023279466
115	0xbc56b726	-0.013105189
116	0xbb7ee61c	-0.003889448
117	0xba4d2df0	-0.00078269746
118	0xbc2d3089	-0.010570654
119	0x3a223160	0.0006187167
120	0xbbe17dff	-0.006881475
121	0xbc085985	-0.008322124
122	0x3b301e0c	0.0026873378
123	0xb9cf893b	-0.0003958436
124	0x3c7b1604	0.015325073
125	0xbcba9f06	-0.022780906
126	0x3c065274	0.008198369
127	0x3c2d7d3f	0.010588943
