code/trained_model/metatransferpinn_innerstep1.pth (torch, 519355 bytes, 14 tensors)

layer1.0.layer.weight f4 [256, 3]
0.22357325 -0.056907278 -0.018139534 -0.014312631 0.29413754 -0.09421204 -0.19079581 0.22055419
-0.023143172 0.4718111 -0.3141416 -0.5462596 0.17000571 -0.0071606543 -0.16005649 0.16476695
-0.20757961 -0.2630788 0.0029340228 -0.03224435 -0.0061216634 0.50691414 0.1480483 -0.42477363
-0.43845785 -0.1324161 0.2587502 -0.45592138 -0.6349201 0.546559 0.32198942 0.69975317
0.5050086 -0.3336156 0.009844911 0.19097684 -0.40347245 -0.31412715 -0.60345596 0.46142098
0.47143254 0.46711805 0.31513065 0.02023386 -0.3280047 -0.24891941 -0.11254347 0.23793955
0.28518435 -0.03362979 -0.1913035 -0.37591064 0.06643235 0.5731358 0.044742174 0.17765646
-0.0634274 -0.6498278 0.029500842 -0.49731734 0.42257735 0.6703753 0.47395435 0.08534701
-0.190004 -0.115880795 -0.07809242 -0.38122523 0.087806575 0.66503125 -0.61948067 0.44480276
-0.10757585 0.26870376 0.20452182 -0.0020639 -0.09029828 -0.061074525 0.60464627 0.3793112
0.40189573 0.014242656 -0.40888238 0.08540836 -0.103970036 -0.37761924 0.007890036 0.46464676
-0.003543445 -0.47328314 0.50434744 0.094857305 -0.3592578 -0.31664073 0.035637494 0.117931254
0.20694049 0.40976954 -0.3463199 -0.3107697 -0.24767627 0.18881007 0.31557152 0.19779836
-0.34405848 0.14634684 0.24794894 -0.22986378 -0.4645682 -0.4900887 -0.5491546 0.0847608
0.13137564 -0.340836 0.07071683 -0.34617987 -0.0033084715 0.19973326 -0.055525742 -0.41087773
0.24092068 0.38608077 -0.31161404 0.6623103 -0.36688763 0.5526733 0.42412537 0.7806253
0.52161527 0.4278484 0.016255101 0.717997 -0.47161722 -0.69355065 -0.30169228 -0.29693678
-0.30424774 0.2762872 0.32044047 0.49652436 0.75883794 -0.25824812 -0.3506675 -0.5976093
-0.4538108 0.555075 -0.8215898 0.24669899 -0.32076022 -0.20970905 0.2662799 -0.67143875
-0.113923974 0.27167296 -0.00789699 -0.40064618 -0.48956883 0.16943377 0.48037595 0.08690777
0.076032616 -0.1308629 -0.50805897 -0.10919436 0.40313897 -0.27829066 0.06579523 0.0052906903
0.7009087 -0.5569719 0.8261171 0.23207064 -0.029333133 0.0015190587 -0.62245303 -0.3169021
-0.5009348 0.05881323 -0.22141346 -0.06826568 0.40913707 0.10301868 0.7251505 0.631242
-0.0454706 0.42022586 0.4124905 0.36538145 -0.39238915 0.052988067 0.26015896 0.11874423
0.21591942 0.27318794 -0.42765614 0.69227123 -0.65836656 0.63555974 -0.62494516 0.32701406
-0.54877037 0.6041668 0.6785739 0.33924925 0.27060762 -0.034885988 -0.3690487 0.26463914
-0.25319824 -0.1755259 -0.08118363 -0.072352216 0.27700245 -0.3020575 -0.03984227 0.19096573
0.60382044 0.08596622 0.6298517 -0.49499434 -0.19144318 0.36696222 -0.40507394 -0.1807557
0.26490664 -0.44971642 -0.37706187 -0.5316274 -0.6303861 -0.50029486 -0.49879703 0.22389613
-0.09342383 -0.3628852 -0.8004653 -1.0059898 -0.13912804 -0.31917986 0.09597661 0.27409446
-0.06620418 -0.09781131 0.0652039 0.15077657 0.06277471 -0.3781307 0.32706162 0.3628205
0.54568315 0.6304933 0.44473898 0.34923625 -0.60338813 -0.47831464 -0.189732 -0.52210355
00000000: 63f0 643e 9b17 69bd 5c99 94bc 877f 6abc
00000010: 3299 963e 3ef2 c0bd fa5f 43be f5d8 613e
00000020: c096 bdbc 3991 f13e 2bd7 a0be abd7 0bbf
00000030: fa15 2e3e eca3 eabb d9e5 23be abb8 283e
00000040: c08f 54be 44b2 86be bc48 403b a712 04bd
00000050: 3c98 c8bb 20c5 013f f999 173e ee7b d9be
00000060: 8c7d e0be 1698 07be e87a 843e 876e e9be
00000070: 208a 22bf 4aeb 0b3f ccdb a43e 0623 333f
00000080: 3e48 013f aacf aabe 8d4c 213c 6f8f 433e
00000090: f193 cebe 46d5 a0be 177c 1abf 5f3f ec3e
000000a0: 9b5f f13e 192a ef3e ce58 a13e 7bc1 a53c
000000b0: 3bf0 a7be bbe4 7ebe 317d e6bd 6da6 733e
000000c0: af03 923e 64bf 09bd 11e5 43be 5c77 c0be
000000d0: af0d 883d 07b9 123f 9243 373d 93eb 353e
000000e0: 3ae6 81bd 1d5b 26bf c0ab f13c 61a0 febe
000000f0: 0f5c d83e b79d 2b3f 25aa f23e 6aca ae3d
00000100: 6990 42be e952 edbd ebee 9fbd f42f c3be
00000110: efd3 b33d 7d3f 2a3f 4996 1ebf 30bd e33e
00000120: ba50 dcbd 8a93 893e 2b6e 513e 7f42 07bb
00000130: 4eee b8bd 4829 7abd 19ca 1a3f 1435 c23e
00000140: 47c5 cd3e 075a 693c 0859 d1be 94ea ae3d
00000150: 3eee d4bd 4f57 c1be 3645 013c 2ee6 ed3e
00000160: 2439 68bb 2b52 f2be ea1c 013f 8c44 c23d
00000170: a3f0 b7be bc1e a2be 9ff8 113d f185 f13d
00000180: 35e8 533e 50cd d13e d850 b1be 351d 9fbe
00000190: d99e 7dbe 6d57 413e 9792 a13e a78b 4a3e
000001a0: 6f28 b0be f2db 153e 54e6 7d3e 6961 6bbe
000001b0: e2db edbe e8ec fabe 6595 0cbf 1297 ad3d
000001c0: 5687 063e 0e82 aebe fcd3 903d 7d3e b1be
000001d0: f1d2 58bb e086 4c3e f66e 63bd 915e d2be
000001e0: e9b3 763e 61ac c53e e08b 9fbe 2b8d 293f
000001f0: b2d8 bbbe ff7b 0d3f f626 d93e 0fd7 473f
00000200: 9488 053f f20e db3e 6b29 853c a7ce 373f
00000210: d077 f1be 898c 31bf 6977 9abe 1908 98be
00000220: 5cc6 9bbe 8475 8d3e c610 a43e 7138 fe3e
00000230: 3443 423f 1939 84be b18a b3be ecfc 18bf
00000240: e459 e8be 6519 0e3f b653 52bf a99e 7c3e
00000250: af3a a4be f8bd 56be d755 883e 69e3 2bbf
00000260: f950 e9bd b818 8b3e 6062 01bc 7f21 cdbe
00000270: c4a8 fabe 0c80 2d3e d6f3 f53e b3fc b13d
00000280: fdb6 9b3d ed00 06be 2710 02bf 4ba1 dfbd
00000290: 3b68 ce3e 1d7c 8ebe a6bf 863d 875d ad3b
000002a0: c16e 333f b695 0ebf 697c 533f eda3 6d3e
000002b0: 0a4c f0bc 271b c73a 1559 1fbf fe40 a2be
000002c0: 433d 00bf 24e6 703d 36ba 62be e0ce 8bbd
000002d0: 6a7a d13e 75fb d23d 77a3 393f 1399 213f
000002e0: 613f 3abd d827 d73e f431 d33e 4713 bb3e
000002f0: 3be7 c8be 040a 593d 8e33 853e 2d30 f33d
00000300: fb19 5d3e 4adf 8b3e bff5 dabe b038 313f
00000310: b68a 28bf 0bb4 223f 68fc 1fbf 636e a73e
00000320: 377c 0cbf adaa 1a3f 05b7 2d3f 14b2 ad3e
00000330: 158d 8a3e 9ce4 0ebd f4f3 bcbe c87e 873e
00000340: 33a3 81be 10bd 33be 9a43 a6bd 662d 94bd
00000350: 44d3 8d3e 48a7 9abe a631 23bd 858c 433e
00000360: fa93 1a3f 0f0f b03d f63d 213f e66f fdbe
00000370: ae09 44be 79e2 bb3e da65 cfbe 0618 39be
00000380: d8a1 873e 3b41 e6be 410e c1be bc18 08bf
00000390: fc60 21bf 5313 00bf 5362 ffbe 0745 653e
000003a0: fe54 bfbd 17cc b9be 4beb 4cbf 46c4 80bf
000003b0: 9577 0ebe 8b6b a3be 638f c43d 1c56 8c3e
000003c0: 0f96 87bd 4c51 c8bd 9f89 853d 2c65 1a3e
000003d0: 0790 803d 599a c1be 9f74 a73e 9cc3 b93e
000003e0: e4b1 0b3f 0268 213f d4b4 e33e 18cf b23e
000003f0: a577 1abf a8e5 f4be 1b49 42be 94a8 05bf

layer1.0.layer.bias f4 [256]
-0.52939457 0.07409295 0.4460242 0.3780238 -0.020539707 0.35913834 0.0274318 -0.29602998
0.51602054 0.025309939 0.6788158 0.4059798 -0.32149565 0.4296992 0.01801392 0.08830053
-0.20414825 -0.52186894 -0.067076795 -0.19306411 0.3453858 0.2110403 0.23454094 -0.7938049
-0.39637637 0.18823084 0.2308301 0.016278682 0.4688796 0.014379079 -0.42541903 0.5098289
0.15457414 0.43308568 -0.04462864 0.06324712 -0.17711127 0.6276769 0.12335034 0.5400142
-0.016440801 0.6099695 0.32284454 0.24151507 -0.70919955 0.24736671 0.08426197 -0.7322489
-0.71329725 0.09129226 -0.13234282 0.32469848 -0.07536686 0.09171774 0.35543653 0.6800144
-0.012107503 -0.5791986 0.124435864 0.15644462 -0.01218388 0.6140057 -0.2542721 -0.5868838
0.41310963 0.4332282 -0.21027826 0.38470325 0.28222013 -0.091944136 -0.48417342 0.32397604
-0.0012730325 0.43727788 0.4742414 -0.26438385 0.452534 0.40054742 -0.07788134 0.082375936
0.059998102 0.5648201 0.57254076 0.21076222 -0.8619708 0.230514 -0.13638073 0.5843069
-0.34683013 -0.40426546 0.054851063 0.17269428 -0.49305728 0.6194461 0.6442115 0.529126
-0.5654587 -0.11893157 -0.4361386 0.009516923 0.7693124 -0.45183668 0.56711304 -0.35942397
-0.0048209107 0.0766043 0.61173457 0.2155867 -0.018580694 -0.20668845 -0.1169978 0.14815344
-0.20726235 -0.014616742 -0.5006031 -0.33029622 0.55462104 0.09340139 0.24152194 -0.68112093
0.5445685 0.8241192 0.5620303 -0.12878306 -0.6173038 -0.4642954 -0.26114705 -0.57153636
0.6428144 0.13827167 -0.30151033 0.22873008 -0.52802336 -0.5402634 0.24733783 -0.74178725
0.5224799 0.052752048 0.46997172 0.052520886 0.09551625 -0.04333396 0.41877943 -0.15332867
0.25764796 0.12041911 -0.053712554 -0.29564825 -0.074575126 0.2916759 -0.42071277 -0.0077390787
-0.52419394 0.12235176 -0.2185777 -0.5500581 0.54263824 0.38008 -0.6857744 0.010522169
0.24389547 -0.5803694 -0.7509619 0.12191081 -0.0024379268 -0.088244915 0.32784957 -0.5907472
-0.19602682 0.22253753 -0.42472515 0.41090816 0.09327074 -0.23311526 0.183237 -0.3884072
-0.20552899 -0.27609313 -0.1553313 0.3272457 -0.031590864 0.024294036 -0.35336766 0.61410964
0.40265572 0.5147537 -0.4241522 0.14714223 0.15082464 -0.19338655 0.2882495 -0.2758721
-0.116761625 0.36638474 0.0921931 -0.30459556 0.12745163 -0.5351175 -0.13877602 -0.103174426
-0.103229955 0.01986884 -0.014098341 0.6171173 0.4297882 0.49469313 0.27545896 -0.26980656
-0.09223731 -0.6709429 0.49273795 -0.1782103 -0.13659638 0.6504233 0.11028718 -0.03581625
-0.84801 0.32149538 -0.52684003 0.05086042 0.34373313 0.5320789 0.16106394 -0.13084067
-0.5699999 -0.3854558 0.52983856 0.31996292 -0.19108036 -0.1657422 -0.2580365 0.082408436
0.72704625 -0.6020748 0.20914978 0.09269518 -0.47335395 0.40215605 0.08231655 0.35987872
-0.028773636 0.15124087 0.43542475 0.32038817 -0.15235633 -0.44747397 0.2153155 -0.522149
-0.59043163 0.33694583 -0.59295416 -0.4752338 0.12732802 0.28143185 -0.35182512 -0.1398969
00000000: 6786 07bf 0bbe 973d 495d e43e 568c c13e
00000010: e342 a8bc fbe0 b73e a7b8 e03c 3e91 97be
00000020: ec19 043f ca56 cf3c dfc6 2d3f 96dc cf3e
00000030: 149b a4be 8901 dc3e ee91 933c e9d6 b43d
00000040: 3d0c 51be 3499 05bf 8f5f 89bd 99b2 45be
00000050: 68d6 b03e f31a 583e 802b 703e cc36 4bbf
00000060: d8f1 cabe 96bf 403e ba5e 6c3e df5a 853c
00000070: fd10 f03e 3b96 6b3c 86d0 d9be 2684 023f
00000080: af48 1e3e 68bd dd3e 85cc 36bd b587 813d
00000090: a85c 35be 6faf 203f 1a9f fc3d 5f3e 0a3f
000000a0: dcae 86bc f626 1c3f e14b a53e ba4f 773e
000000b0: 1a8e 35bf b34d 7d3e 8a91 ac3d aa74 3bbf
000000c0: a69a 36bf 70f7 ba3d e084 07be e13e a63e
000000d0: f159 9abd 83d6 bb3d c7fb b53e 6c15 2e3f
000000e0: 8c5e 46bc 5c46 14bf 3bd8 fe3d 0533 203e
000000f0: e69e 47bc 7a2f 1d3f f42f 82be 043e 16bf
00000100: 1b83 d33e 16d0 dd3e 2f53 57be d3f7 c43e
00000110: 287f 903e 354d bcbd 94e5 f7be 30e0 a53e
00000120: e2db a6ba e3e2 df3e c5cf f23e 525d 87be
00000130: 89b2 e73e 8d14 cd3e 4180 9fbd b7b4 a83d
00000140: 92c0 753d 0d98 103f 0892 123f 0dd2 573e
00000150: 1eaa 5cbf dd0b 6c3e 64a7 0bbe 2395 153f
00000160: b893 b1be e2fb cebe 82ab 603d c5d6 303e
00000170: 0172 fcbe 0594 1e3f 0beb 243f cd74 073f
00000180: e7c1 10bf 6592 f3bd 8f4d dfbe deec 1b3c
00000190: a8f1 443f 2357 e7be 522e 113f 6b06 b8be
000001a0: bbf8 9dbb b7e2 9c3d a39a 1c3f c3c2 5c3e
000001b0: 8a36 98bc 23a6 53be 8b9c efbd 89b5 173e
000001c0: 953c 54be 0f7b 6fbc 8627 00bf 961c a9be
000001d0: a5fb 0d3f 3a49 bf3d 8751 773e f15d 2ebf
000001e0: d768 0b3f 7af9 523f 38e1 0f3f b5df 03be
000001f0: 9f07 1ebf 20b8 edbe 11b5 85be 3550 12bf
00000200: 7c8f 243f 1797 0d3e 905f 9abe 3838 6a3e
00000210: 8a2c 07bf b44e 0abf 2146 7d3e c5e5 3dbf
00000220: 3ec1 053f 8812 583d 22a0 f03e 2420 573d
00000230: 069e c33d f37e 31bd 426a d63e 3102 1dbe
00000240: 6fea 833e 4b9e f63d b201 5cbd 355f 97be
00000250: d8ba 98bd 8b56 953e aa67 d7be 1998 fdbb
00000260: 9331 06bf 8f93 fa3d d5d2 5fbe 9cd0 0cbf
00000270: 57ea 0a3f d999 c23e e98e 2fbf 2d65 2c3c
00000280: bcbf 793e 1793 14bf 0a3f 40bf 60ac f93d
00000290: a0c5 1fbb c0b9 b4bd e6db a73e 353b 17bf
000002a0: 41bb 48be e1e0 633e 9375 d9be 8e62 d23e
000002b0: bb04 bf3d c4b5 6ebe 7ba2 3b3e 4fdd c6be
000002c0: 3176 52be 145c 8dbe 2b0f 1fbe c08c a73e
000002d0: 6c65 01bd 4904 c73c 9bec b4be 4a36 1d3f
000002e0: e428 ce3e e6c6 033f 7a2a d9be 74ac 163e
000002f0: c671 1a3e 2007 46be 7095 933e 1c3f 8dbe
00000300: b820 efbd c896 bb3e bccf bc3d f3f3 9bbe
00000310: ae82 023e 76fd 08bf 4d1b 0ebe 1d4d d3bd
00000320: 3a6a d3bd fac3 a23c bafc 66bc 66fb 1d3f
00000330: 330d dc3e 6b48 fd3e f508 8d3e 1624 8abe
00000340: eae6 bcbd eac2 2bbf 2648 fc3e c37c 36be
00000350: ecdf 0bbe 2482 263f 3fde e13d 0fb4 12bd
00000360: 2f17 59bf 0b9b a43e fdde 06bf 0453 503d
00000370: cafd af3e 5336 083f f2ed 243e 19fb 05be
00000380: 83eb 11bf 765a c5be 80a3 073f 2ed2 a33e
00000390: 92aa 43be 53b8 29be 5c1d 84be c1c5 a83d
000003a0: b41f 3a3f 9321 1abf 5c2b 563e f8d6 bd3d
000003b0: 735b f2be 66e7 cd3e 9495 a83d 0642 b83e
000003c0: b0b6 ebbc e3de 1a3e feef de3e eb09 a43e
000003d0: 4c03 1cbe 4f1b e5be ab7b 5c3e 8fab 05bf
000003e0: 8726 17bf 2a84 ac3e d8cb 17bf d851 f3be
000003f0: 4762 023e d617 903e 6c22 b4be 2241 0fbe

layer1.1.layer.weight f4 [256, 256]
-0.012913151 0.017978957 -0.03411069 -0.009310261 -0.027935462 -0.066261925 -0.048722893 0.05159269
-0.044561274 0.041032035 0.052176 -0.07865049 0.043862775 0.06411883 0.01131312 -0.0710462
-0.009336622 -0.025664633 0.008432139 0.00039595336 0.048455153 -0.07200402 0.01175393 -0.038458373
0.06546682 -0.038935598 0.015607312 -0.0013233295 -0.01819311 -0.044289734 -0.032300685 -0.058057055
-0.06258592 0.019376311 0.019806875 -0.015715046 0.00062305876 -0.07109194 0.056500338 0.02344706
0.02281448 0.039681543 0.026436584 -0.015762392 -0.07913545 0.0142895905 0.022718754 -0.0629692
0.05289324 -0.038624045 0.102712065 0.022522312 0.0047430824 -0.003339286 -0.034202117 -0.07308552
-0.07364994 -0.024087619 -0.051656242 -0.05299274 -0.038110558 -0.03077738 -0.02974685 -0.022630235
-0.062538035 -0.07641353 0.037490875 0.0079417415 0.0010800667 0.045135614 0.002524935 -0.029085476
-0.0048288014 -0.016054371 -0.022730263 0.031122146 0.016553713 -0.024767086 -0.0107010035 -0.048471544
0.01334553 0.003617233 -0.015082455 -0.0033573145 -0.029243823 -0.0014164689 0.043510694 0.025041463
0.005974299 0.03516097 -0.02697411 0.00508021 0.05818588 -0.05747488 -0.05157944 0.015477152
0.038508378 -0.045953367 0.041587345 0.00088141876 0.027376981 -0.04633411 -0.03557322 0.0012264972
-0.029218065 0.009374339 -0.018790744 -0.0012819287 0.0073933816 0.0013264266 -0.05008907 -0.027357602
0.046483826 -0.039957397 -0.022252329 0.016378894 0.053705193 -0.052022666 -0.022890437 0.09934361
-0.105055034 -0.034873344 0.021933015 -0.044450216 0.015966816 0.043722544 0.037558574 -0.057829507
-0.059555702 -0.047962815 0.07257732 0.0063188495 0.027187293 0.070140935 0.037299674 0.057807133
-0.04964998 -0.05860072 -0.030534891 0.005649039 0.0034513655 0.00516119 -0.055658523 -0.0018440684
-0.017149445 0.04450827 -0.019161083 -0.01825884 0.037808277 -0.01499954 0.01583072 0.048569024
-0.008014404 -6.121916e-06 0.014647829 -0.083116315 -0.13456213 -0.032626387 0.021262709 0.04739606
-0.075120755 0.026152097 0.013821785 0.019952983 0.029784005 0.017751465 -0.020102376 -0.022718975
0.044603277 -0.026922988 -0.01905556 -0.060286015 0.0171096 -0.07332263 -0.011208735 0.004095274
0.04356738 0.030182766 0.038043 -0.005924329 -0.022636537 0.01367661 0.047738053 0.020998592
0.016515352 0.00045735596 -0.02459758 -0.00461428 0.02169144 0.03501624 -0.049425345 -0.004013386
0.0741936 -0.0043335306 0.026459951 -0.032519028 -0.021360392 0.04478704 0.031061608 -0.033873998
-0.0045957677 -0.033747874 0.013517418 -0.08287111 0.014277304 0.03780432 0.0064986157 0.08179965
-0.021478793 -0.0070282877 -0.045116667 -0.030844864 -0.020206891 -0.013027819 -0.07304542 -0.016265556
0.023427654 -0.039965037 0.0061927303 -0.06282247 0.0052052164 -0.039772786 0.050243404 0.058522917
5.133056e-05 0.0072830534 -0.022863757 -0.11622604 0.07482361 0.03770707 -0.034500353 0.06283605
0.0044293483 0.0136882095 -0.049550008 -0.038154162 0.03950938 -0.022207834 -0.051034577 -0.08145989
0.007086609 -0.041210383 -0.041330423 -0.0064674993 0.014955363 0.0237522 0.034632258 -0.048209574
0.099264495 0.0030303246 0.043978844 -0.007805761 -0.047478367 -0.05529532 0.09261438 0.044014595
00000000: ae91 53bc 9b48 933c a7b7 0bbd 118a 18bc
00000010: e9d8 e4bc 55b4 87bd a891 47bd db52 533d
00000020: e285 36bd 3511 283d 80b6 553d 8213 a1bd
00000030: 74a9 333d bc50 833d aa5a 393c ac80 91bd
00000040: a2f8 18bc a33e d2bc f426 0a3c f697 cf39
00000050: e978 463d d876 93bd 8e93 403c 8786 1dbd
00000060: 7813 863d ef7a 1fbd d0b5 7f3c 9273 adba
00000070: b809 95bc 2769 35bd b94d 04bd 3ccd 6dbd
00000080: 0c2d 80bd 12bb 9e3c 0742 a23c d7bc 80bc
00000090: c454 233a a798 91bd e66c 673d 0c14 c03c
000000a0: 6fe5 ba3c 1d89 223d 8991 d83c 2220 81bc
000000b0: c411 a2bd e31e 6a3c ae1c ba3c fff5 80bd
000000c0: 95a6 583d 3f34 1ebd b45a d23d b680 b83c
000000d0: dc6b 9b3b ecd7 5abb 8517 0cbd dcad 95bd
000000e0: c8d5 96bd 6653 c5bc 7f95 53bd ea0e 59bd
000000f0: d119 1cbd d820 fcbc aaaf f3bc 0b63 b9bc
00000100: f113 80bd b27e 9cbd 0890 193d 141e 023c
00000110: 0691 8d3a 1fe0 383d 6179 253b aa44 eebc
00000120: ec3a 9ebb 7584 83bc d134 babc dff3 fe3c
00000130: a79b 873c 58e4 cabc 4353 2fbc 198a 46bd
00000140: 36a7 5a3c 190f 6d3b 671c 77bc 6406 5cbb
00000150: be90 efbc cfa8 b9ba 4538 323d c123 cd3c
00000160: 0dc4 c33b f304 103d cff8 dcbc e477 a63b
00000170: 5154 6e3d c86a 6bbd f644 53bd e193 7d3c
00000180: f6ba 1d3d 9939 3cbd 7e57 2a3d 030f 673a
00000190: b145 e03c d6c8 3dbd 3ab5 11bd 6bc2 a03a
000001a0: b95a efbc d496 193c 0cef 99bc 6406 a8ba
000001b0: 2e44 f23b 7edb ad3a 322a 4dbd 0d1d e0bc
000001c0: d365 3e3d 5eaa 23bd 844a b6bc 082d 863c
000001d0: faf9 5b3d b815 55bd ba84 bbbc aa74 cb3d
000001e0: 1827 d7bd 5ad7 0ebd deac b33c 6e11 36bd
000001f0: d7cc 823c 6916 333d 05d7 193d a2de 6cbd
00000200: aef0 73bd a874 44bd 6ba3 943d 5a0e cf3b
00000210: e3b7 de3c 0da6 8f3d 8bc7 183d 2cc7 6c3d
00000220: c75d 4bbd 4f07 70bd 4f24 fabc 931b b93b
00000230: 4e30 623b 331f a93b 31fa 63bd abb4 f1ba
00000240: fe7c 8cbc 4e4e 363d b4f7 9cbc 9093 95bc
00000250: dadc 1a3d a1c0 75bc 6daf 813c 50f0 463d
00000260: d94e 03bc dc6a cdb6 73fd 6f3c e338 aabd
00000270: a8ca 09be 3fa3 05bd 222f ae3c 5f22 423d
00000280: e9d8 99bd ec3c d63c c574 623c 7074 a33c
00000290: 96fd f33c 856b 913c bdad a4bc 251d babc
000002a0: edb1 363d 998d dcbc 681a 9cbc 78ee 76bd
000002b0: 6f29 8c3c 2d2a 96bd d8a4 37bc a631 863b
000002c0: b673 323d d941 f73c fad2 1b3d e020 c2bb
000002d0: 4270 b9bc dc13 603c fa88 433d 3d05 ac3c
000002e0: 344b 873c 47c9 ef39 dd80 c9bc 6333 97bb
000002f0: 3fb2 b13c 306d 0f3d 3b72 4abd b982 83bb
00000300: d0f2 973d 4a00 8ebb 8ac2 d83c ac32 05bd
00000310: fdfb aebc 9e72 373d ea74 fe3c 76bf 0abd
00000320: 1898 96bb 363b 0abd 2978 5d3c 54b8 a9bd
00000330: 5aeb 693c b4d8 1a3d 57f2 d43b 9386 a73d
00000340: 4bf4 afbc 8d4d e6bb 41cc 38bd 5eae fcbc
00000350: ec88 a5bc a272 55bc d698 95bd 583f 85bc
00000360: 5aeb bf3c 61b2 23bd 63ec ca3b 11a9 80bd
00000370: 8590 aa3b cae8 22bd 07cc 4d3d bab5 6f3d
00000380: c54b 5738 aea6 ee3b c64c bbbc eb07 eebd
00000390: 1f3d 993d bb72 1a3d 3e50 0dbd 30b0 803d
000003a0: 1124 913b 8344 603c f3f4 4abd 8a47 1cbd
000003b0: 96d4 213d 34ed b5bc a209 51bd 71d4 a6bd
000003c0: c936 e83b 38cc 28bd 174a 29bd 51ed d3bb
000003d0: 5707 753c f993 c23c 8eda 0d3d 6777 45bd
000003e0: 2f4b cb3d 6998 463b 2923 343d 78c7 ffbb
000003f0: ad78 42bd 587d 62bd 9cac bd3d a648 343d

layer1.1.layer.bias f4 [256]
-0.062198926 -0.018583871 0.028062075 0.05129647 -0.008823503 0.007003686 -0.008219866 -0.023211576
0.0029855778 0.040613 -0.008814262 0.018148704 -0.014799731 -0.056985915 -0.011988213 -0.0071746595
0.057241656 -0.020330228 -0.025584612 -0.037739128 -0.010354717 -0.051243354 0.03449374 -0.06064803
0.0041961777 -0.041328322 -0.0016138852 -0.034152366 0.014929985 0.0034552258 0.08956325 -0.027808007
-0.0024402689 -0.016934734 -0.04272944 0.006971284 0.0150888255 0.005099634 0.026366422 -0.010210595
-0.051011838 -0.005198823 -0.012313057 0.0058754794 0.026623886 -0.0057817916 -0.02244189 0.031564705
-0.0067798393 -0.02308011 0.0069385874 0.0086628655 0.041400705 -0.016873557 -0.02184287 0.0011886582
-0.023631126 0.037984025 -0.04273331 -0.011955673 0.030222064 -0.0022546884 -0.056353964 0.013789194
-0.008766432 0.013639537 0.019318813 -0.008154822 0.006135105 0.04589492 -0.00635175 0.026794596
-0.037295047 0.0071377857 0.03837644 0.01648801 -0.0011710338 0.012930106 -0.061365433 0.028595941
-0.004607491 -0.001723757 0.02342355 0.019204509 -0.046048094 0.022631524 -0.013273419 -0.0067493846
-0.04893483 -0.006971005 0.002281288 -0.0030691242 -0.0034885039 -0.005673792 0.0022430308 -0.030151162
0.008107601 0.006118805 -0.029615933 0.018355703 0.024406562 -0.035541978 0.006988921 -0.017566083
0.02639762 0.0015919692 0.02799419 -0.04133802 0.022092015 -0.0080312295 -0.026145624 0.017973555
-0.00093264977 -0.010514251 -0.010821004 0.00020073271 0.014647162 0.018625714 -0.040798314 0.02199024
0.027034258 0.003970877 0.0013420759 0.0044227033 -0.0071325 0.049680617 -0.02879781 0.048318457
-0.015844462 -0.030371359 -0.024856107 -0.025406078 -0.0564693 0.0020865444 -0.019049285 -0.064067475
0.010698446 -0.050420824 0.026508223 0.009480495 0.016156157 -0.0019208041 0.019919613 0.010459622
0.008101209 0.006049485 0.005353474 0.03987369 -0.007957844 0.012498412 -0.08607069 -0.11351403
0.025033688 0.0025729192 0.0035512391 0.01980511 -0.0017508803 -0.016831353 0.004718096 -0.035093036
0.007078661 0.0004115865 0.034029637 -0.004245717 -0.027175846 0.02351672 0.004594247 -0.004970857
-0.0123934345 0.0037366354 -0.020545483 -0.006230554 -0.01534651 0.010617954 0.028822402 0.013660827
0.03327952 0.13472539 -0.046356313 -0.011610417 0.030528 -0.009564089 -0.010884103 -0.013876302
0.008076778 -0.02448514 -0.036888722 -0.01230924 -0.011856358 -0.028831396 -0.014103463 0.0040099476
0.013745839 0.012722267 0.048581727 0.004014405 -0.027507188 -0.059691425 -0.006578323 -0.047579404
0.05234653 0.05370387 0.039025348 0.00996227 0.013865603 8.279265e-05 0.05354457 0.08461692
0.048508614 0.0063270465 0.011245783 -0.030071788 -0.015558864 -0.0034694092 0.021124348 -0.0020874173
-0.045337807 -0.011676952 -0.026576627 -0.0101105375 -0.008811357 -0.036120318 0.016216502 0.0051393295
-0.033949193 0.011551834 -0.046237238 0.03978942 -0.027171703 -0.014693032 0.011067961 -0.033307493
0.016323134 0.020869046 -0.005621514 -0.011178464 0.01879433 -0.018977357 0.07278662 -0.018226642
0.041761372 0.018943656 0.069248445 0.0051582693 -0.012595402 -0.013257234 -0.022784825 0.026813872
0.01457098 0.018135065 -0.022435317 -0.009748976 -0.012859386 -0.030668907 -0.11791093 0.030699011
00000000: 4dc4 7ebd 343d 98bc 70e2 e53c 3f1c 523d
00000010: 7490 10bc 2d7f e53b 9eac 06bc 3426 bebc
00000020: afa9 433b d159 263d b269 10bc 97ac 943c
00000030: 927a 72bc 106a 69bd 366a 44bc 6819 ebbb
00000040: 3a76 6a3d 948b a6bc d296 d1bc 5894 1abd
00000050: d5a6 29bc 8de4 51bd 4f49 0d3d 126a 78bd
00000060: 1780 893b e347 29bd 0089 d3ba 5ae3 0bbd
00000070: e59c 743c 1271 623b f06c b73d 9ecd e3bc
00000080: ebec 1fbb b6ba 8abc 1105 2fbd 5e6f e43b
00000090: 1f37 773c d51a a73b 65fe d73c 574a 27bc
000000a0: caf1 50bd e35a aabb b4bc 49bc 1887 c03b
000000b0: 561a da3c 2f75 bdbb 0ed8 b7bc fe49 013d
000000c0: 6a29 debb 8012 bdbc 175d e33b b1ee 0d3c
000000d0: c993 293d 6a3a 8abc d2ef b2bc c0cc 9b3a
000000e0: 1096 c1bc 2395 1b3d 2009 2fbd bae1 43bc
000000f0: 4394 f73c 65c3 13bb 6ad3 66bd 12ec 613c
00000100: 15a1 0fbc 5d78 5f3c 7d42 9e3c cd9b 05bc
00000110: fe08 c93b 50fc 3b3d 5722 d0bb 5780 db3c
00000120: b1c2 18bd 16e4 e93b 9d30 1d3d dd11 873c
00000130: 607d 99ba ccd8 533c 525a 7bbd 0942 ea3c
00000140: 70fa 96bb b0ef e1ba bfe2 bf3c c652 9d3c
00000150: ed9c 3cbd bf65 b93c c178 59bc f129 ddbb
00000160: e36f 48bd 076d e4bb a981 153b 5c23 49bb
00000170: 629f 64bb 38eb b9bb d0ff 123b 92ff f6bc
00000180: bed5 043c 4280 c83b 1d9d f2bc b35e 963c
00000190: 45f0 c73c 7794 11bd 5203 e53b bfe6 8fbc
000001a0: d23f d83c 9fa9 d03a 1254 e53c 0e52 29bd
000001b0: 50fa b43c 6b95 03bc 592f d6bc 473d 933c
000001c0: 117d 74ba f743 2cbc 954a 31bc c77b 5239
000001d0: a6fa 6f3c f494 983c 221c 27bd e024 b43c
000001e0: f376 dd3c 211e 823b 98e8 af3a 53ec 903b
000001f0: bfb7 e9bb e77d 4b3d 63e9 ebbc 93e9 453d
00000200: 3fcc 81bc 5bcd f8bc 099f cbbc 6820 d0bc
00000210: 5a4c 67bd 68be 083b 3f0d 9cbc cf35 83bd
00000220: 8948 2f3c 1186 4ebd c627 d93c 1454 1b3c
00000230: eb59 843c 7ec3 fbba 752e a33c d65e 2b3c
00000240: efba 043c c23a c63b 326c af3b 9852 233d
00000250: 9e61 02bc 24c6 4c3c d445 b0bd 0b7a e8bd
00000260: 7313 cd3c 6c9e 283b e8bb 683b 533e a23c
00000270: cb7d e5ba e8e1 89bc 429a 9a3b b7bd 0fbd
00000280: 1df4 e73b 34ca d739 a962 0b3d a81f 8bbb
00000290: e19f debc 23a6 c03c 568b 963b 92e2 a2bb
000002a0: d50d 4bbc 57e2 743b 004f a8bc ad29 ccbb
000002b0: ee6f 7bbc edf6 2d3c f51c ec3c a9d1 5f3c
000002c0: 1b50 083d 74f5 093e 1ee0 3dbd 9e39 3ebc
000002d0: db15 fa3c b2b2 1cbc 3d53 32bc 6e59 63bc
000002e0: 7654 043c 0f95 c8bc a118 17bd b2ac 49bc
000002f0: 2b41 42bc d22f ecbc 3612 67bc e165 833b
00000300: 3a36 613c 0e71 503c a2fd 463d 458b 833b
00000310: c156 e1bc ff7e 74bd f98e d7bb 9fe2 42bd
00000320: 5169 563d 97f8 5b3d 0bd9 1f3d ca38 233c
00000330: 8e2c 633c f7a0 ad38 8d51 5b3d a34b ad3d
00000340: f8b0 463d 1d53 cf3b 3c40 383c 1c59 f6bc
00000350: 9bea 7ebc 075f 63bb f80c ad3c 0dcd 08bb
00000360: 23b4 39bd b050 3fbc 3ab7 d9bc aba6 25bc
00000370: 835d 10bc e6f2 13bd 78d8 843c d267 a83b
00000380: 4f0e 0bbd e743 3d3c 4263 3dbd 3bfa 223d
00000390: 3197 debc 0bbb 70bc 6556 353c 706d 08bd
000003a0: 18b8 853c 90f5 aa3c ad34 b8bb e025 37bc
000003b0: 91f6 993c 6776 9bbc 2711 953d 0a50 95bc
000003c0: f90d 2b3d ba2f 9b3c 21d2 8d3d b306 a93b
000003d0: f25c 4ebc df34 59bc 3ea7 babc c4a8 db3c
000003e0: 1fbb 6e3c fd8f 943c 45ca b7bc 2bba 1fbc
000003f0: 2db0 52bc 5c3d fbbc 497b f1bd 7e7c fb3c

layer1.2.layer.weight f4 [128, 256]
0.0046793385 -0.0014164445 -0.019336268 -0.010227662 0.0027803767 -0.015594318 0.025543658 0.021850802
-0.0226353 0.023241052 -0.021282725 -0.012364789 -0.014684731 0.006273667 -0.0057301917 -0.0077685807
0.02701549 0.03685384 0.0055245818 -0.010953739 0.003715634 0.013206846 0.0030048618 -0.017644877
-0.0037827783 -0.0046504177 0.017703904 -0.008346393 0.019282367 0.018075975 -0.001423192 -0.029261405
-0.004449992 -0.01855657 -0.0051782117 0.007602338 -0.026032956 0.028179325 -0.007894319 0.007539347
-0.014204843 -0.0049965866 0.015675874 0.015603581 -0.016459472 0.0045059565 0.011829763 0.023096222
0.011752034 0.0075717145 -0.0046482813 -0.019619545 -0.009680874 -0.01656558 0.014428808 -0.019287102
-0.016902633 0.014817617 0.014009062 0.037354767 0.011301999 -0.046885427 0.006084423 -0.0063043754
0.022477798 0.006133716 0.016851487 -0.011655016 0.023164945 -0.015125904 0.0069116727 -0.0012293217
-0.010452222 -0.009600512 -0.02088215 0.0013274188 0.015890697 -0.019074107 0.006140717 -0.05638467
-0.004229742 -0.020219285 0.0044186576 -0.0015153738 0.0014152958 -0.014147426 0.009319028 -0.030021017
-0.013528518 -0.012525127 0.0286605 0.0011740753 -0.016950546 -0.026577314 -0.00965517 -0.020173797
-0.027338834 -0.015430388 0.008996116 0.0103549035 -0.0061345254 -0.01880389 0.026034966 0.008273639
-0.019986624 0.04195103 0.014970769 -0.0048227413 0.0077586314 0.005580621 0.013471497 0.011964072
-0.009835927 -0.03017472 0.016522294 0.024133371 0.0067534614 -0.0026522358 0.02647023 0.0009539681
0.008759574 -0.018078463 -0.0032135444 -0.0032024723 0.021148738 0.03404127 0.024857378 0.008138162
-0.00018119212 0.013152329 -0.013082456 0.004253147 0.014935312 0.013347775 -0.029326294 -0.009277018
-0.012421948 -0.011336303 -0.0060756253 -0.013157177 -0.014274829 0.00038298406 -0.007056789 -0.0037650778
-0.0008900114 0.014067437 0.010701731 0.03847479 -0.008342096 0.013185168 0.033226125 0.029338052
0.004821395 0.0053414307 -0.0140826665 -0.005261319 -0.0033860384 -0.011395692 -0.023266375 0.021597672
0.008082129 -0.020145845 -0.017343968 0.010496099 0.021263711 -0.023492727 -0.035002258 -0.010630548
0.0105405925 -0.0207545 0.017891202 0.0019311031 -0.000832538 -0.0012959953 -0.014714327 0.008116917
-0.007139867 -0.0028141302 0.0123832105 -0.002730234 0.006371556 -0.041281816 0.0020503022 0.0021885547
0.021188775 -0.003704571 0.00931595 -0.032958306 -0.02932553 -0.0061731157 0.026078032 -0.027717488
-0.00580102 -0.006606992 -0.02548631 -0.0077998983 0.0027551136 0.01354432 -0.011136418 -0.031631153
0.0016986023 0.024291325 -0.03105753 -0.017035794 -0.024249237 -0.017220661 -0.009839422 -0.017327193
-0.0062712785 0.023160899 0.026374895 -0.0041336394 0.0022564253 -0.023073116 0.026793776 0.008630908
0.0065408065 -0.00017139495 0.02312342 0.0071601644 -0.0017826178 -0.008353229 -0.0034885257 0.015813591
-0.014190531 -0.009739429 0.01836704 -0.022496207 0.0064366846 -0.017537102 0.0031783788 -0.025376821
0.024289979 0.0014877695 -0.04527604 -0.0075660036 0.0022721845 -0.0034157103 -0.0081431605 0.006657683
-0.009775675 0.0011411383 -0.02910232 0.028721295 -0.004693553 -0.016485022 0.0027243225 -0.02368709
0.02567058 -0.026575508 -0.019875148 -0.015501534 -0.019178998 0.012568776 -0.0021441502 -0.015622563
00000000: 2355 993b fea7 b9ba 1867 9ebc ec91 27bc
00000010: fb36 363b 4f7f 7fbc ef40 d13c 7400 b33c
00000020: aa6d b9bc 0564 be3c 1c59 aebc af95 4abc
00000030: 3a98 70bc 5593 cd3b 55c4 bbbb 948f febb
00000040: 974f dd3c 0df4 163d 8d07 b53b 5077 33bc
00000050: ff81 733b 8761 583c 37ed 443b fd8b 90bc
00000060: 7de8 77bb 8862 98bb c707 913c 4fbf 08bc
00000070: 0ef6 9d3c 1114 943c 668a baba 9db5 efbc
00000080: 3dd1 91bb f303 98bc fdad a9bb 091d f93b
00000090: 1143 d5bc 54d8 e63c 2c57 01bc a00c f73b
000000a0: 6ebb 68bc 68ba a3bb b16a 803c 2aa6 7f3c
000000b0: 04d6 86bc b4a6 933b 9fd1 413c 4a34 bd3c
000000c0: 9a8b 403c 251c f83b 9c50 98bb 2bb9 a0bc
000000d0: 879c 1ebc 8ab4 87bc cf66 6c3c fcff 9dbc
000000e0: 6477 8abc 97c5 723c 4486 653c 5001 193d
000000f0: 052c 393c ef0a 40bd d75f c73b ef94 cebb
00000100: 5c23 b83c 57fd c83b 210c 8a3c aef4 3ebc
00000110: 69c4 bd3c a4d2 77bc 507b e23b 3121 a1ba
00000120: cc3f 2bbc 774b 1dbc 0b11 abbc c9fc ad3a
00000130: 352d 823c 4d41 9cbc 1138 c93b 9df3 66bd
00000140: a699 8abb eaa2 a5bc 63ca 903b 829f c6ba
00000150: 7281 b93a 9bca 67bc d6ae 183c a3ee f5bc
00000160: b8a6 5dbc 3136 4dbc 6dc9 ea3c 6ee3 993a
00000170: dfdb 8abc abb8 d9bc b830 1ebc 8543 a5bc
00000180: b1f5 dfbc bdcf 7cbc 7264 133c 9da7 293c
00000190: 2104 c9bb 9e0a 9abc 4847 d53c 288e 073c
000001a0: fdba a3bc d8d4 2b3d f547 753c 1608 9ebb
000001b0: 1e3c fe3b a4dd b63b 8eb7 5c3c f404 443c
000001c0: de26 21bc f930 f7bc c359 873c 59b3 c53c
000001d0: 244c dd3b 22d1 2dbb 19d8 d83c b713 7a3a
000001e0: 5184 0f3c 4919 94bc 549a 52bb 92e0 51bb
000001f0: 1e40 ad3c dc6e 0b3d b3a1 cb3c ed55 053c
00000200: 64fe 3db9 de7c 573c cc57 56bc fc5d 8b3b
00000210: 3db3 743c a0b0 5a3c b23d f0bc a2fe 17bc
00000220: 6d85 4bbc e7bb 39bc 0a16 c7bb 3391 57bc
00000230: f9e0 69bc 40cb c839 a33c e7bb 86bf 76bb
00000240: a74f 69ba 1b7b 663c 5056 2f3c be97 1d3d
00000250: 49ad 08bc 9a06 583c 1e18 083d 5b56 f03c
00000260: cbfc 9d3b 2b07 af3b fcba 66bc 2567 acbb
00000270: 4ce8 5dbb ffb4 3abc 2099 bebc 9aed b03c
00000280: e86a 043c e608 a5bc f014 8ebc d4f7 2b3c
00000290: 3c31 ae3c d273 c0bc 875e 0fbd c02b 2ebc
000002a0: 73b2 2c3c 5705 aabc 9290 923c 111d fd3a
000002b0: ae3e 5aba 63de a9ba 5c14 71bc d1fc 043c
000002c0: 8cf5 e9bb 456d 38bb f3e2 4a3c baed 32bb
000002d0: 7cc8 d03b 1f17 29bd 5d5e 063b db6d 0f3b
000002e0: 1594 ad3c 63c8 72bb eda1 183c 4aff 06bd
000002f0: 183c f0bc d947 cabb 99a1 d53c c90f e3bc
00000300: 7c16 bebb 777f d8bb aac8 d0bc 4a96 ffbb
00000310: 238f 343b ffe8 5d3c 8675 36bc ab8f 01bd
00000320: a3a3 de3a 9afe c63c 5c6c febc a68e 8bbc
00000330: 56a6 c6bc 5812 8dbc 8735 21bc c2f1 8dbc
00000340: 4c7f cdbb edbb bd3c 2a10 d83c 7b73 87bb
00000350: 89e0 133b d503 bdbc 9f7e db3c a768 0d3c
00000360: 4354 d63b 7bb8 33b9 546d bd3c d09f ea3b
00000370: baa6 e9ba fbdb 08bc c09f 64bb 818b 813c
00000380: 677f 68bc 2092 1fbc 7a76 963c f749 b8bc
00000390: d3ea d23b f8a9 8fbc 594c 503b 0de3 cfbc
000003a0: c7fb c63c 4301 c33a 5e73 39bd 3dec f7bb
000003b0: eee8 143b 1cda 5fbb e46a 05bc b128 da3b
000003c0: 272a 20bc 3f92 953a fd67 eebc ec48 eb3c
000003d0: 60cc 99bb 990b 87bc 8c8a 323b 6e0b c2bc
000003e0: 1c4b d23c e1b4 d9bc 35d1 a2bc 25fa 7dbc
000003f0: 461d 9dbc 44ed 4d3c df84 0cbb c7f5 7fbc

layer1.2.layer.bias f4 [128]
0.0040422385 -0.001142172 -0.002584295 -0.013375846 0.006252488 -0.0067527746 -0.0005463931 0.0063187545
-0.008286769 -0.007957306 0.0033751922 0.005298304 0.0029657348 -0.0055232747 -0.0010614339 0.0043321694
-0.0041843564 0.0035298197 0.0014704834 -0.001908164 0.018086316 -0.00018987837 -0.0019687244 -0.004020878
0.0125203775 0.0013264525 -0.0010662442 0.002309073 0.0059196874 0.023157483 0.009409098 -0.005465982
0.008052799 -0.0039827693 0.0047230166 0.004189812 0.00715571 0.008167941 0.0010400522 0.009038739
0.006010735 -0.010969662 -0.0050390386 0.010866017 0.001986071 0.004768447 0.0026773259 -0.009256431
-0.0077729123 0.010688372 0.0010661072 0.006136669 -0.011320181 -0.004692295 0.0009271881 -0.009498559
-0.0026637216 0.00025289838 0.0055556255 0.004432056 -0.0035132796 -0.0068435213 0.003977541 0.008597509
-0.004725641 0.005674982 0.0021041604 0.0032656756 0.006534703 -0.002497168 -0.005567424 -0.0013284241
-0.012009062 0.0037255134 -0.0035050279 0.007422154 -0.008270803 -0.0012535317 -0.01271748 -0.0072005657
0.0022488497 0.003010536 0.00047054872 -0.010476538 0.0056507546 0.0019705754 -0.006282334 -0.0073901266
0.011813123 0.005302471 -0.011037181 0.0074436776 -0.0027510696 0.0038846086 0.009693723 0.007049718
0.0065812296 -0.0042262212 -0.0031009312 -0.016566666 -0.0036583457 -0.0025613615 0.0019300602 -0.0023518756
0.011489051 -0.002061277 0.0054419953 0.025471214 0.0028108389 -0.010138294 0.0027381661 -0.0004323161
0.0018097245 -0.011977374 0.0009099465 0.0019395318 0.0018638324 0.0001224627 0.0041123894 -0.009158269
-0.0032633983 0.0036429327 0.0075879707 0.0072901705 0.010443992 -0.010736821 -0.008010541 -0.0071859434
00000000: c174 843b efb4 95ba 475d 29bb 5d26 5bbc
00000010: ace1 cc3b 6146 ddbb d23b 0fba 8e0d cf3b
00000020: 3ac5 07bc 5c5f 02bc 5432 5d3b 659d ad3b
00000030: c65c 423b 96fc b4bb d01f 8bba dff4 8d3b
00000040: ed1c 89bb 8c54 673b 3cbd c03a 5c1b faba
00000050: c129 943c 161a 47b9 b705 01bb 92c1 83bb
00000060: 4522 4d3c 5cdc ad3a 38c1 8bba d153 173b
00000070: f0f9 c13b c3b4 bd3c 9e28 1a3c fb1b b3bb
00000080: e3ef 033c e481 82bb 89c3 9a3b b14a 893b
00000090: 727a ea3b d4d2 053c 5c52 883a 3817 143c
000000a0: b3f5 c43b 19ba 33bc 851e a5bb 6107 323c
000000b0: be28 023b a240 9c3b 1376 2f3b 49a8 17bc
000000c0: eab3 febb 481e 2f3c 9fbc 8b3a 1c16 c93b
000000d0: 4878 39bc d3c1 99bb 8a0e 733a d89f 1bbc
000000e0: d591 2ebb 7297 8439 f70b b63b c83a 913b
000000f0: 0d3f 66bb 9e3f e0bb 0856 823b 91dc 0c3c
00000100: 8dd9 9abb 33f5 b93b f4e5 093b f204 563b
00000110: 1021 d63b 87a7 23bb f06e b6bb 841e aeba
00000120: a8c1 44bc be27 743b 9cb4 65bb 8a35 f33b
00000130: 4382 07bc 8b4d a4ba fa5c 50bc b9f2 ebbb
00000140: 7061 133b 6a4c 453b fbb3 f639 c9a5 2bbc
00000150: f729 b93b c524 013b 0adc cdbb e028 f2bb
00000160: d48b 413c 5ac0 ad3b 4bd5 34bc 18ea f33b
00000170: 4a4b 34bb eb94 7e3b 6cd2 1e3c 5201 e73b
00000180: 5ba7 d73b 1d7c 8abb fe38 4bbb d1b6 87bc
00000190: dbc0 6fbb 84dc 27bb 13fa fc3a ed21 1abb
000001a0: 933c 3c3c 7d16 07bb c452 b23b 02a9 d03c
000001b0: 0d36 383b 161b 26bc ce72 333b 7ca8 e2b9
000001c0: 4734 ed3a bf3c 44bc 7a89 6e3a e337 fe3a
000001d0: d64b f43a 5569 0039 39c1 863b 900c 16bc
000001e0: bdde 55bb 45be 6e3b 83a4 f83b 62e2 ee3b
000001f0: 471d 2b3c 7ee9 2fbc a53e 03bc 1078 ebbb

layer1.3.layer.weight f4 [128, 128]
-0.0032125465 -0.024603497 -0.012824889 0.012896851 0.0069726245 -0.008648107 -0.011024483 0.010533979
-0.0049670325 0.008795676 0.029324181 0.016377548 0.015831301 0.02602945 0.014975996 -0.008456188
0.014040945 0.024604665 0.0010193349 0.029716752 0.015341556 0.01612561 0.0057807923 0.006648207
-0.025511134 -0.0067846505 -0.0018030914 -0.012421759 0.012570273 -0.014943717 -0.005736374 0.0011677139
-0.040076282 -0.004562538 0.03963284 -0.01338018 0.016645042 -0.006042549 0.0015949132 -0.0171754
-0.0010065108 -0.015676951 -0.019649379 -0.020980828 -0.027270118 -0.027407356 -0.002462872 0.0002604213
-0.025182541 -0.013240789 0.005860735 0.010793325 -0.008936 -0.009149222 -0.02449292 0.017247152
-0.023675907 -0.011007906 -0.029482622 0.0073834388 -0.006222904 -0.007450104 0.019412097 -0.004220819
0.0076432736 0.0061669997 0.011422757 0.0067151086 -0.022225235 -0.0030166244 -0.041376382 0.035683505
0.03195831 0.005049786 -0.0047502527 0.022833843 0.009907051 -0.0017309827 0.017197298 -0.02319167
-0.0071590957 -0.002404057 -0.012210462 0.01325483 -0.0010934651 0.046349566 0.00570519 -0.001101425
0.038199052 0.023732617 -0.033648726 0.0015790075 -0.015502954 0.029375143 0.022676442 0.00096303853
-0.0022617439 0.021226551 0.013135475 0.0014286976 0.006262884 0.010480932 -0.017340558 -0.0028629443
0.026173681 -0.007046269 -0.00061441096 -0.029188143 0.011156643 -0.01130065 0.01138177 -0.028323632
-0.022863364 -0.026387507 0.014962844 -0.0035106922 0.027364101 0.010495569 -0.018381827 0.03147175
0.0055917115 0.01150131 -0.008281868 -0.021958128 0.022024455 0.007993964 0.02442546 -0.022598037
-0.004333277 0.010040784 0.025423145 0.0047282437 -0.0061251 -0.012717706 0.013263886 -0.031112906
0.006837493 -0.009288965 0.007172668 -0.0059290286 -0.024497734 0.02499848 0.00869518 0.0051415856
0.00025118107 0.0037092874 -0.009075432 0.004841368 -0.0073382948 -0.007961341 0.00567791 -0.03309849
-0.009409802 0.0006435439 0.017743677 0.014265093 0.0100033 -0.001601804 0.009612125 0.0055084643
-0.021458423 0.011104251 -0.0045694984 0.010265381 0.008073324 -0.023194868 -0.022384673 -0.027047105
0.009736001 0.01313399 -0.021756865 -0.0077519505 -0.020400455 0.01264484 0.0050163288 -0.011869804
-0.020870477 -0.022834077 0.024481231 0.008595709 0.02595606 -0.025620075 -0.018940087 0.04417723
-0.009281174 -0.0057053845 0.025706414 -0.0062595573 -0.021204637 0.037329946 -0.011425455 -0.0018419683
-0.052370183 -0.00479233 0.04466359 0.010693988 0.0029991055 0.020632101 -0.025300434 0.017676659
-0.0008711472 0.032652423 -0.025648419 0.006068578 -0.014608812 0.012957881 -0.014830691 -0.012755372
0.010279938 -0.006365579 -0.018821329 0.038341753 -0.0031126924 -0.025730437 0.008961625 0.005640612
-0.004918946 -0.0028052265 0.015988505 -0.015914392 0.014923454 -0.02680585 -0.01706132 -0.013145082
-0.017336236 0.003642458 -0.010213766 -0.019714767 -0.01327508 -0.014080873 0.023987764 -0.0030210451
0.015220854 -0.03030542 -0.022532644 -0.035255812 -0.01740584 0.03680508 0.0008980868 -0.0127389645
-0.0003381846 0.046781983 0.008393616 0.017773423 -0.005425798 0.0046944036 -0.011151243 0.024068438
-0.01454386 0.0082420455 -0.0067987363 0.010748577 0.03208051 -0.06043494 0.021838326 0.010195341
00000000: 9689 52bb 468d c9bc 7c1f 52bc 504d 533c
00000010: 9d7a e43b cab0 0dbc 08a0 34bc b696 2c3c
00000020: 7dc2 a2bb bd1b 103c 4439 f03c 352a 863c
00000030: a5b0 813c b73b d53c e15d 753c d38b 0abc
00000040: fe0b 663c b98f c93c 349b 853a 8c70 f33c
00000050: 265b 7b3c db19 843c cd6c bd3b 34d9 d93b
00000060: bafc d0bc c651 debb b555 ecba a284 4bbc
00000070: 8cf3 4d3c 7ed6 74bc 31f8 bbbb fa0d 993a
00000080: 0727 24bd 5881 95bb 0b56 223d 8b38 5bbc
00000090: 2f5b 883c 9300 c6bb 680c d13a 6db3 8cbc
000000a0: e6ec 83ba f36c 80bc bcf7 a0bc fcdf abbc
000000b0: 9565 dfbc 6485 e0bc 2368 21bb 2889 8839
000000c0: 9e4b cebc e5ef 58bc 690b c03b 7cd6 303c
000000d0: 4d68 12bc 9ee6 15bc 60a5 c8bc e649 8d3c
000000e0: faf3 c1bc 815a 34bc 8a85 f1bc c6f0 f13b
000000f0: 81e9 cbbb 0120 f4bb 1e06 9f3c cc4e 8abb
00000100: 6d74 fa3b 8b14 ca3b 8426 3b3c 6a0a dc3b
00000110: b211 b6bc 8fb2 45bb 487a 29bd de28 123d
00000120: b8e6 023d ad78 a53b 02a8 9bbb 0a0e bb3c
00000130: 2f51 223c 24e2 e2ba 59e1 8c3c 75fc bdbc
00000140: d996 eabb 628d 1dbb 640e 48bc c92a 593c
00000150: 9a52 8fba 0bd9 3d3d 9af2 ba3b b15d 90ba
00000160: 9c76 1c3d e86a c23c 3fd3 09bd b3f6 ce3a
00000170: 1a00 7ebc 24a4 f03c f2c3 b93c 6c74 7c3a
00000180: c439 14bb 4ee3 ad3c 2d36 573c 2343 bb3a
00000190: e138 cd3b 37b8 2b3c c90d 8ebc 3ca0 3bbb
000001a0: 306a d63c 63e4 e6bb 6c10 21ba f91b efbc
000001b0: 5aca 363c 5d26 39bc 9a7a 3a3c f606 e8bc
000001c0: f34b bbbc 9d2a d8bc b726 753c a413 66bb
000001d0: ae2a e03c 9bf5 2b3c 7c95 96bc 86e8 003d
000001e0: ad3a b73b fe6f 3c3c acb0 07bc 88e1 b3bc
000001f0: a16c b43c 1df9 023c e717 c83c 851f b9bc
00000200: 29fe 8dbb 1a82 243c 3344 d03c 62ef 9a3b
00000210: 10b5 c8bb ed5d 50bc c550 593c 7ee0 febc
00000220: 0c0d e03b be30 18bc b308 eb3b 4c48 c2bb
00000230: 79af c8bc 9dc9 cc3c 3a76 0e3c bf7a a83b
00000240: f4b0 8339 8417 733b 1fb1 14bc 57a4 9e3b
00000250: 1476 f0bb 4970 02bc c30d ba3b 4892 07bd
00000260: 922b 1abc 80b3 283a 305b 913c 23b8 693c
00000270: e2e4 233c a0f3 d1ba 2d7c 1d3c 5980 b43b
00000280: 93c9 afbc 9bee 353c bbbb 95bb 2130 283c
00000290: fa45 043c 2a03 bebc 1060 b7bc e491 ddbc
000002a0: bf83 1f3c f22f 573c 743b b2bc 1304 febb
000002b0: db1e a7bc 4e2c 4f3c 0460 a43b 9179 42bc
000002c0: 90f8 aabc 880e bbbc dd8c c83c 04d5 0c3c
000002d0: cea1 d43c 31e1 d1bc 3e28 9bbc 2ff3 343d
000002e0: 1110 18bc 3cf4 babb 4296 d23c f91c cdbb
000002f0: 59b5 adbc 49e7 183d d531 3bbc 336e f1ba
00000300: 1e82 56bd fa08 9dbb 2bf1 363d d635 2f3c
00000310: a48c 443b a704 a93c db42 cfbc a4ce 903c
00000320: b35d 64ba 8cbe 053d a21c d2bc ecda c63b
00000330: cc59 6fbc 4b4d 543c 6dfc 72bc e8fb 50bc
00000340: 2f6d 283c 5996 d0bb 302f 9abc 3e0c 1d3d
00000350: 50fe 4bbb a3c8 d2bc c8d3 123c e2d4 b83b
00000360: 1c2f a1bb e4d7 37bb 53fa 823c e65e 82bc
00000370: 8181 743c f197 dbbc 2ec4 8bbc 785e 57bc
00000380: b904 8ebc 4eb6 6e3b a457 27bc dd80 a1bc
00000390: b97f 59bc 76b3 66bc fd81 c43c bafc 45bb
000003a0: e460 793c 1243 f8bc 6196 b8bc 6668 10bd
000003b0: b196 8ebc ecc0 163d 966d 6b3a 17b7 50bc
000003c0: 5e4e b1b9 779e 3f3d 6185 093c 9299 913c
000003d0: e4ca b1bb 83d3 993b b4b3 36bc 2c2b c53c
000003e0: 5f49 6ebc a509 073c efc7 debb cd1a 303c
000003f0: da66 033d a18a 77bd 4ae6 b23c 5c0a 273c

layer1.3.layer.bias f4 [128]
-0.0035042306 0.0034633416 0.0036854052 0.00062992837 -0.0018683485 7.407539e-05 -0.0021275848 0.00041675332
-0.00030175847 -0.0006651703 0.005438557 -0.0024565961 0.007927394 -0.00079523487 0.0008761923 -0.0018463952
-0.00044021267 -0.0018580358 -0.0006163488 -0.0050260117 -0.0012288851 -0.004690299 0.0007313082 -0.00022850325
-0.008042419 -0.003431263 -0.0007587642 0.0023341798 -0.002218501 -0.00052844215 0.007995851 -0.0023018396
-0.00030993143 0.0060587735 0.001096463 0.0022838877 -9.659106e-05 -0.0022184716 0.0012022662 0.0019194337
-0.0014143132 0.002590003 -0.00075560017 0.00074632117 0.0021163614 -0.0018482686 -0.0040512295 -0.0008061902
-0.0039048824 0.0011273012 0.0051425276 -0.0013001802 0.0014934693 0.00018519473 -0.0034728472 0.0020639678
-0.0064207264 -0.001223862 0.0023084234 0.00032752415 0.0013748269 -0.0008704156 0.003260194 7.583193e-05
-0.0026532013 0.00067542045 0.00052412506 -0.0031372076 0.0013793462 0.0018208408 -0.0027521967 -0.0020340725
5.86517e-05 0.0030619856 0.0009739774 0.0029202667 0.0012247083 0.00115024 0.00072196726 -0.0022809035
-0.000250633 -0.0011793582 -1.6961076e-05 -0.0007513876 -0.0070384024 0.004666443 0.0011433064 -0.0004778686
-0.0007431397 0.00319531 -0.0010914899 0.001242296 -0.0015508566 -0.00066918717 -0.0018580074 -0.00086201244
0.0040892903 0.002223162 -0.00228073 -0.0019901777 0.000119358985 -0.0036398736 0.0033427945 -0.004400757
-0.0036108955 -0.0016048343 0.0059403805 -0.0029997928 0.0011380748 1.8783408e-05 0.0021269945 0.00028310355
-0.00067070563 -0.00034297004 0.00080865517 -0.0007372356 -0.00092507136 0.003751575 -0.0005137614 0.00079768215
0.0006349873 0.003922632 -0.00073660555 0.003435785 0.0009082242 0.0033637437 -0.005845151 0.0035759755
00000000: 3ca7 65bb 3bf9 623b d786 713b c721 253a
00000010: 5fe3 f4ba ec58 9b38 f36e 0bbb af7f da39
00000020: 5635 9eb9 d35e 2eba ec35 b23b d8fe 20bb
00000030: e6e1 013c 4f77 50ba 45b0 653a be02 f2ba
00000040: 58cc e6b9 5689 f3ba 7892 21ba 3eb1 a4bb
00000050: 8b12 a1ba 14b1 99bb 43b5 3f3a 609a 6fb9
00000060: 5ac4 03bc 0adf 60bb cee7 46ba 0af9 183b
00000070: 4564 11bb 2787 0aba 0801 033c 76da 16bb
00000080: 4b7e a2b9 ad88 c63b 31b7 8f3a 47ad 153b
00000090: ee90 cab8 c763 11bb 5c95 9d3a 8295 fb3a
000000a0: 7a60 b9ba 0abd 293b 7813 46ba c4a4 433a
000000b0: a7b2 0a3b 9a41 f2ba 2dc0 84bb 8256 53ba
000000c0: 0ee9 7fbb f4c1 933a a682 a83b cf6a aaba
000000d0: 84c0 c33a d530 4239 b598 63bb a243 073b
000000e0: f564 d2bb ff69 a0ba eb48 173b 8cb7 ab39
000000f0: 8933 b43a 9a2c 64ba fba8 553b f507 9f38
00000100: 55e1 2dbb b30e 313a 7065 093a 9c99 4dbb
00000110: 2ecb b43a 47a9 ee3a 335e 34bb 134e 05bb
00000120: c900 7638 98ab 483b 8452 7f3a f261 3f3b
00000130: 6486 a03a a6c3 963a 6742 3d3a 367b 15bb
00000140: 6467 83b9 b294 9aba a247 8eb7 c5f8 44ba
00000150: 66a2 e6bb f6e8 983b ffda 953a 708a fab9
00000160: 43cf 42ba 6868 513b 5310 8fba 89d4 a23a
00000170: 1d46 cbba 646c 2fba 6288 f3ba adf8 61ba
00000180: 74ff 853b 78b2 113b 4d78 15bb a46d 02bb
00000190: 5e50 fa38 f28a 6ebb c912 5b3b 3a34 90bb
000001a0: c6a4 6cbb 4e59 d2ba 86a7 c23b 2c98 44bb
000001b0: 742b 953a 1091 9d37 0c65 0b3b 846d 9439
000001c0: 4bd2 2fba a9d0 b3b9 eefb 533a 0b43 41ba
000001d0: 7d80 72ba fcdc 753b f2ad 06ba 8b1b 513a
000001e0: 4775 263a 6c89 803b c318 41ba e82a 613b
000001f0: e515 6e3a 4172 5c3b ae88 bfbb ea5a 6a3b
