code/trained_model/reptilepinn.pth (torch, 519355 bytes, 14 tensors)

layer1.0.layer.weight f4 [256, 3]
000000 87 9c 40 3e 44 6b 0b be bf ac 8c bd 5a e5 a3 3d
       0.1880971 -0.13615137 -0.06868886 0.0800273
000010 1d c0 ff 3e 3d 9f d3 bb 97 e5 21 be 1b 70 97 3e
       0.49951258 -0.0064581917 -0.15810238 0.29577717
000020 fd 91 dc bc bd 46 e5 3e 64 db e0 be 6f 63 09 bf
       -0.026925081 0.44780532 -0.43917382 -0.5366735
000030 f3 e6 72 3e dd 2e 46 bc a1 d5 ba bd 77 90 1a 3e
       0.23720913 -0.012096134 -0.09122778 0.15094171
000040 fd 82 b4 be 3f 96 5e be 29 f1 e9 3d d8 ec e0 3d
       -0.35256186 -0.21737002 0.11422951 0.10982674
000050 9e 6f da 3d 6c ab ba 3e d8 91 88 3d 49 b3 0d bf
       0.106658205 0.3645891 0.066684425 -0.5535169
000060 64 16 0c bf ee dd 92 be e2 42 90 bb 41 f2 c1 be
       -0.54721665 -0.28684944 -0.0044025043 -0.37880138
000070 34 c9 0e bf 7f 65 11 3f 53 b7 72 3e 25 79 03 3f
       -0.5577576 0.56795496 0.23702745 0.51356727
000080 e2 2d be 3e c2 21 0d bf 84 e6 ca bd 2e e3 7d bc
       0.3714438 -0.55129635 -0.099072486 -0.015496058
000090 1a 5e 99 be a0 32 8e be 84 63 e3 be fb e8 fc 3e
       -0.29954606 -0.27773 -0.44411862 0.493965
0000a0 97 7a fd 3e 34 d0 e7 3e 35 3c 4e 3e a0 55 7b 3d
       0.4950759 0.45276034 0.20140155 0.061360955
0000b0 2a 88 e8 be 81 d0 84 be cb 41 85 be 0e 27 65 3e
       -0.45416385 -0.25940326 -0.2602676 0.2237818
0000c0 93 1d 2a 3e 16 42 b7 be c4 43 b1 be 7d 39 d4 be
       0.16612844 -0.35792607 -0.34622014 -0.4145011
0000d0 82 2f 9b bc 9b 21 03 3f a6 a7 69 bd f0 23 70 3e
       -0.018943552 0.5122315 -0.057044648 0.23451209
0000e0 76 e7 2e be bb cb fb be d0 f4 50 3d 45 50 a4 be
       -0.17080483 -0.49178872 0.05101472 -0.3209249
0000f0 ac dc a2 3e fb d7 06 3f f3 6d ab 3e 21 72 4b bd
       0.31808984 0.5267331 0.33482322 -0.04966939
000100 29 82 db be d1 2c 74 be b6 47 25 3d 36 9f c1 be
       -0.42872742 -0.23845221 0.040351592 -0.3781678
000110 9b a5 4c 3e f9 f6 f5 3e 0f c3 3f bd 49 7e a3 3e
       0.19985048 0.48039988 -0.04681688 0.31932285
000120 d6 11 de bc 37 08 dc 3e 82 f8 79 3e 44 20 f9 bc
       -0.027108114 0.42975017 0.24411204 -0.030410893
000130 f6 8a e5 bd bc 5b a3 bd 4a 00 04 3f d4 79 aa 3e
       -0.11208145 -0.07976481 0.5156294 0.33296072
000140 1e be a9 3e d8 b7 e7 bc d6 55 12 bf b6 60 65 3d
       0.3315286 -0.028285906 -0.57162225 0.056000434
000150 60 bd 4e be d8 69 0e bf 09 f8 bb bd a0 9f fc 3e
       -0.20189428 -0.55630255 -0.09178168 0.49340534
000160 0b 11 d3 3d 75 8a d9 be cd 83 fb 3e e5 4e 15 3e
       0.10305985 -0.42488447 0.49123994 0.14580877
000170 f8 1a b4 be 87 96 00 bf 21 60 89 bd b5 e7 f4 bd
       -0.35176826 -0.50229686 -0.06707788 -0.11958257
000180 4d be 63 3d 5d 10 f0 3e 28 4c fc be b9 f0 6b be
       0.055601407 0.46887484 -0.49276853 -0.23041047
000190 ae 5f a9 be 7c 11 86 3e 65 03 fc 3d b1 58 8f 3e
       -0.3308081 0.26185215 0.12305335 0.27997354
0001a0 04 ff 0f bf 2a 10 73 3e 78 83 0a 3f 8d 8c 16 be
       -0.562485 0.23736635 0.54106855 -0.14702053
0001b0 cb 7d 9c be 1c cb c1 be 02 10 ac be 8c cc 12 bd
       -0.30564722 -0.37850273 -0.33605963 -0.035839602
0001c0 1d 42 43 3e db 58 e7 be 95 86 d2 3c 48 17 09 bf
       0.19068189 -0.4518498 0.02569894 -0.5355115
0001d0 01 0a 23 bd 05 71 3b 3e b5 89 66 bc 2b 27 d0 be
       -0.039804462 0.18304832 -0.014070918 -0.40654883
0001e0 36 f9 6c 3e 4e 9b 12 3f 6d 95 99 be d4 04 f6 3e
       0.23141941 0.57268226 -0.29996815 0.4805056
0001f0 09 d7 aa be c2 5e b7 3e ae 9a 91 3e 83 a0 0f 3f
       -0.33367184 0.35814482 0.28438324 0.56104296
000200 67 cc ae 3e 38 f2 a4 3e 0b ea 33 bd 66 00 12 3f
       0.34140322 0.32216048 -0.043924373 0.5703186
000210 0c 14 bf be 7f 74 ff be cc 52 2f be 7e 53 e6 be
       -0.37319982 -0.49893567 -0.17121428 -0.44985574
000220 9c 2c f8 be b6 49 31 3c 5f 44 42 3e 95 1e cf 3e
       -0.48471534 0.010820797 0.18971394 0.4045302
000230 43 61 11 3f 56 99 03 be 48 ef 89 be b2 ad d8 be
       0.56789035 -0.12851462 -0.2694037 -0.4232002
000240 98 76 1a be 10 57 06 3f fc 8f 08 bf ab d8 97 3d
       -0.15084302 0.52476597 -0.533447 0.07414373
000250 c5 0a 0a bf d8 e8 cd be 45 df d8 3e ee ef 11 bf
       -0.53922683 -0.40216708 0.4235784 -0.5700673
000260 5c a7 ac 3c 79 d4 20 3e ae 95 66 3c 10 f9 ff be
       0.021075897 0.15706052 0.014073772 -0.49994707
000270 a6 18 12 bf 2f ee 36 3e d5 c5 bf 3e 74 c0 22 3d
       -0.5706886 0.17864297 0.3745562 0.03973432
000280 18 0f 85 3e 26 e1 2d be ea fd f8 be b5 bf d7 bd
       0.25988078 -0.16980419 -0.4863122 -0.10534612
000290 83 ef c9 3e 7d a8 03 bf 79 7f 62 3c 5a 07 54 be
       0.39440545 -0.5142897 0.013824337 -0.2070593
0002a0 04 7b d7 3e 05 c1 03 bf 75 4c 05 3f 93 26 ac 3e
       0.4208604 -0.514664 0.5206979 0.3362318
0002b0 e5 ef 1d 3d 6c ef da 3d b6 85 f5 be 70 b0 7b be
       0.03855886 0.10690197 -0.47953576 -0.24579024
0002c0 43 6d b5 be f9 0c 30 3e e6 1e 57 be 1d ae 76 3d
       -0.35434923 0.17192449 -0.2100788 0.06022464
0002d0 39 c6 93 3e 93 53 cf 3b f4 11 07 3f a5 5d 93 3e
       0.2886217 0.0063271015 0.5276177 0.28782383
0002e0 df 6b c9 bc 50 4b fc 3d f4 5e c8 3e 08 04 01 3f
       -0.02458757 0.12319052 0.39134943 0.50396776
0002f0 0a 40 c7 be 80 5b f9 3d 13 f1 cd 3e 62 21 34 3e
       -0.38916045 0.12175655 0.40222988 0.1759086
000300 40 40 89 3d 4b c2 ae 3e 57 98 0b bf 11 65 0c 3f
       0.06701708 0.3413261 -0.5452933 0.54841715
000310 05 a4 11 bf d4 2d 00 3f 15 0d de be db 29 83 3e
       -0.568909 0.5006993 -0.43369356 0.2561787
000320 20 d8 a8 be 6a 32 ba 3e 9a ef ca 3e 60 b6 c5 3d
       -0.3297739 0.36366588 0.39635926 0.09653926
000330 30 3f 87 3e 90 17 ff 3c 80 83 b5 be 93 cc 6a 3e
       0.26415396 0.031139165 -0.3545189 0.22929601
000340 ad 8a 0f bf 6f c1 59 be 07 67 bc bc eb b0 40 be
       -0.5607098 -0.21265195 -0.022998346 -0.18817489
000350 e6 16 9e 3e f3 a2 9c be 32 5f cd b9 bb 26 4d 3e
       0.30876845 -0.3059307 -0.00039171573 0.20034306
000360 5a 33 d2 3e fc 0b b5 bc 51 df c7 3e ed 49 e2 be
       0.41054803 -0.022100441 0.39037564 -0.44197026
000370 05 3d 7a be 7a e3 cc 3e 05 bd d3 be 91 b8 a7 be
       -0.2443734 0.400173 -0.41355148 -0.32758
000380 df 95 7c 3e 3e 6c 09 bf c7 81 f5 be 81 82 0e bf
       0.24666546 -0.5368079 -0.47950575 -0.55667883
000390 70 3f f1 be 2a 21 bb be d4 de b0 be e6 32 97 3e
       -0.4711871 -0.3654874 -0.34545004 0.2953102
0003a0 80 17 a9 bd b6 d9 94 be b9 f4 0f bf b3 9c 12 bf
       -0.082564354 -0.2907235 -0.5623279 -0.57270354
0003b0 e7 73 3c 3c 48 d6 d1 be 7a 4d 53 3e dc 71 30 3e
       0.011502243 -0.40983796 0.20635024 0.17230934
0003c0 1a b5 7a be 81 dd b8 be ff fc f0 bd d8 b0 bb 3c
       -0.24483147 -0.36106494 -0.11767005 0.022911474
0003d0 7a 42 e7 3d f1 b8 02 bf 63 e8 5b 3e 00 f9 92 3e
       0.11291976 -0.5106345 0.21475367 0.28705597
0003e0 82 1d ba 3e a1 d5 e4 3e 37 b2 b4 3e a9 cf 3e 3e
       0.36350638 0.44694236 0.35292217 0.18633904
0003f0 9f 78 bf be d0 ee 9c be 07 0c 4e 3d 98 13 f4 be
       -0.37396714 -0.3065095 0.05030444 -0.476712

layer1.0.layer.bias f4 [256]
000000 eb 51 0f bf 22 d9 01 3e c3 38 c3 3e a9 00 da 3e
       -0.5598437 0.12680486 0.38129243 0.4257863
000010 4d 72 d3 3c eb d2 e8 3e cb 3d 22 3e 7f c1 ec be
       0.025811339 0.45473418 0.15843885 -0.46241376
000020 16 40 29 3e 32 48 0a 3e 6e 89 02 3f 08 91 77 3e
       0.16528353 0.13504103 0.5099095 0.24176419
000030 ff bd 28 be fa cc c8 3e 31 b6 e4 bd c8 4a ec 3d
       -0.16478728 0.39218885 -0.11167563 0.11537701
000040 41 d3 b3 be b0 0c 0a bf 1b 86 58 be 74 2f 22 bd
       -0.3512211 -0.5392561 -0.21144907 -0.039596036
000050 aa 77 36 3e 43 f1 17 3e 30 e6 ce 3e 30 50 0c bf
       0.17819086 0.14838128 0.40409994 -0.54809856
000060 51 e3 cd be e1 16 7f 3e 4d 5c 05 3e 32 39 80 3c
       -0.4021249 0.24911071 0.13023491 0.015652273
000070 b3 4c ec 3e 28 a3 74 3c 0a b1 f6 be 45 cc ac 3e
       0.46152267 0.014931478 -0.48181945 0.33749595
000080 f9 68 02 bd 81 87 12 3f 6b f6 79 be 5a 2a e1 3d
       -0.03183839 0.5723801 -0.24410407 0.10994406
000090 67 9a 52 3c d1 30 03 3f 43 f0 d3 3d 1b 60 0e 3f
       0.012854195 0.5124636 0.10348561 0.55615395
0000a0 af d9 9f bd 14 b6 f0 3e 7e 1f 0a 3e 0a bd b7 3d
       -0.07805192 0.47013915 0.13488576 0.08971603
0000b0 8d ab fd be ad 17 ef 3c 95 e0 c4 bd 27 3c 01 bf
       -0.49544945 0.029186094 -0.09613148 -0.5048241
0000c0 6f aa c9 be 85 20 89 bd 44 1f bb 39 62 63 4a 3e
       -0.39387843 -0.06695656 0.00035690714 0.19764474
0000d0 a2 55 28 be aa b2 80 3d fa 7f db 3e 39 9e 11 3f
       -0.16438916 0.062840775 0.42871076 0.56882054
0000e0 7c f9 86 be 8f 01 e4 be c5 75 7e 3e 33 12 a7 3e
       -0.26362216 -0.4453244 0.24849613 0.32631072
0000f0 bf 70 41 be 76 f9 da 3e bc c4 b0 be c4 da 10 bf
       -0.18890665 0.4276845 -0.34525096 -0.5658381
000100 42 cc 8d 3e c8 3e a8 3e 46 6a 3f 3c f7 c7 c8 3d
       0.276949 0.32860398 0.011683052 0.09803765
000110 88 a8 90 3e 42 b3 0a be 8b 69 cd be 9a 1c ca 3e
       0.2825358 -0.13544944 -0.40119585 0.39474946
000120 76 cc 44 be 09 21 0c 3f 34 52 0c 3f 08 00 9a be
       -0.1921862 0.5473791 0.5481293 -0.3007815
000130 ae 3e 0e 3f d0 61 ef 3e 51 5c c2 3d 15 2a e5 bb
       0.5556439 0.46754313 0.09490264 -0.006993542
000140 d5 c4 5d bd cb 25 e2 3e 2b cd c6 3e 13 03 82 3d
       -0.05414279 0.4416946 0.38828406 0.063482426
000150 a7 60 05 bf b3 e7 86 3e 4e 5e 9f be 02 16 b7 3e
       -0.52100605 0.26348647 -0.31126636 0.35758978
000160 79 d7 b5 bd ca ce 05 bf 12 c8 89 3e 79 43 25 3e
       -0.08878989 -0.5226866 0.26910454 0.1613902
000170 db ef 97 be 6d fc ed 3e 6b d5 f2 3e 78 53 f7 3e
       -0.29675183 0.46481648 0.4742845 0.4830587
000180 fc 0e 43 be 22 fb 23 be b3 49 07 bf be b6 a6 3d
       -0.19048685 -0.16013768 -0.5284683 0.08140324
000190 a3 f3 0c 3f 6e 3d 0f bf fe 15 c9 3e 2e ee 52 be
       0.5505926 -0.5595311 0.3927459 -0.20598671
0001a0 b1 9f 6c be 95 4e d1 3e 21 6e b4 3e 20 01 35 3e
       -0.23107792 0.40880266 0.35240272 0.1767621
0001b0 48 46 1a 3e 0a 46 34 bd 31 45 95 bd a7 00 8b 3e
       0.15065873 -0.044012107 -0.07288588 0.27148935
0001c0 d3 26 f7 bd e4 ac 33 be 4d 71 c2 be 19 2f 53 bc
       -0.12067952 -0.17546421 -0.37977067 -0.012889647
0001d0 c4 60 c1 3e 90 0c 23 3e 3c c2 a0 3e c3 bd 0b bf
       0.3776914 0.15922761 0.3139819 -0.5458643
0001e0 7c 1f f2 3e 09 84 09 3f 03 e7 a1 3e 11 f2 6a be
       0.47289646 0.53717095 0.3162156 -0.22943904
0001f0 c3 c9 e3 be 5d 75 52 be da 38 a8 be 52 b9 0d bf
       -0.4448987 -0.20552583 -0.32855874 -0.553609
000200 6c cc fa 3e 4e 7e 69 3e 29 95 2d be 77 a1 f1 3e
       0.48984087 0.22802088 -0.16951431 0.471935
000210 5b 76 9d be 29 77 f3 be e0 8e a6 3e ea fc 0c bf
       -0.3075436 -0.4755185 0.3253088 -0.55073416
000220 60 6a 02 3f f7 ef 06 be 52 93 a8 3e a2 4a 0a 3e
       0.50943565 -0.13177477 0.32924896 0.13505033
000230 8c e3 31 3e 1f 63 e9 3c 69 2c 58 3e 6f 5a ae bd
       0.17371958 0.028489647 0.21110691 -0.085133426
000240 08 20 e1 3e bf 0c 2d 3e 1d ad 3b be 57 59 fc be
       0.4396975 0.16899393 -0.18327756 -0.4928691
000250 6e f2 61 3c a3 eb 8a 3d 0b bd 9a be 99 92 3c be
       0.01379071 0.067832254 -0.30222353 -0.18415298
000260 ec e1 86 be b6 e4 5f bd 1b 53 b5 be f8 c4 0f bf
       -0.2634424 -0.054661475 -0.35414967 -0.56159925
000270 db 15 bd 3e f9 4e de 3e c7 61 dd be 06 57 89 3e
       0.36930737 0.43419626 -0.4323866 0.26824206
000280 41 e4 7f 3d 2d d0 c3 be ac a7 12 bf 7d 36 bf 3b
       0.06247354 -0.38244763 -0.57287097 0.005835353
000290 4b fc 4a 3e 57 ad 9b be 43 0c 70 3e 83 3a ae be
       0.19822805 -0.30405685 0.23442177 -0.34029016
0002a0 95 f9 88 3d 34 03 6a 3e fd 33 f7 be a5 1d 9c 3e
       0.06688229 0.22852784 -0.4828185 0.30491367
0002b0 5a e7 80 bd d0 2c dd be 06 4d af 3e a3 b7 ee be
       -0.06294127 -0.43198252 0.34238452 -0.4662448
0002c0 ce 57 93 be 87 4b b6 be a7 8b 77 bd 37 6b 41 3e
       -0.28777927 -0.35604498 -0.060435917 0.18888555
0002d0 24 01 a4 bd 29 f9 19 3e fe 4a 05 bf 9a d0 dc 3e
       -0.0800803 0.15036453 -0.52067554 0.431279
0002e0 08 b9 7d 3e f8 06 d8 3e 03 17 23 be 19 b6 d3 3e
       0.24777615 0.42192817 -0.15926747 0.41349867
0002f0 cf e4 97 3e 7e 4b 42 bc cc 83 0a 3f bd fe 39 be
       0.29666755 -0.011858819 0.54107356 -0.18163581
000300 69 06 86 be f3 20 3c 3e f2 8e 3d 3e e5 5d db be
       -0.26176766 0.18371944 0.1851156 -0.42845073
000310 68 e9 11 3e dc 88 6f be 8d 54 2c be 92 44 6c be
       0.14249194 -0.23392051 -0.16829129 -0.23073032
000320 c4 8c da bd c8 72 79 bd 50 8c 5b 3d 9e c7 03 3f
       -0.1067138 -0.06090048 0.05360061 0.51476467
000330 15 39 c6 3e 75 f7 43 3e c9 54 99 3e b1 6a a4 bd
       0.38715425 0.19137366 0.29947498 -0.08028162
000340 d0 f3 5a bd cf ed 08 bf bc 0f 6b 3e e6 cb 73 be
       -0.053455174 -0.5348787 0.22955221 -0.2380825
000350 51 05 bc bd be 44 cf 3e dc 51 4e 3e f2 3d 2f 3e
       -0.091807015 0.40482134 0.20148414 0.17113474
000360 50 37 13 bf d1 43 f5 3e de bd a3 be 8e 04 ad bd
       -0.57506275 0.47903302 -0.31980795 -0.08448134
000370 f0 28 f4 3e 1b df 12 3f aa b0 8c 3e 0b f3 1e be
       0.47687483 0.5737168 0.27478534 -0.15522401
000380 7c 72 f7 be d2 e0 a8 be ea 92 d7 3e 95 6c 7d 3e
       -0.48329532 -0.32984024 0.42104274 0.24748452
000390 cf 3b 94 be d0 be 98 bd c1 87 fa 3a 12 5c 71 3e
       -0.2895188 -0.074582696 0.0019113944 0.23570278
0003a0 6e 39 fa 3e 75 92 07 bf 1f 5f 09 3e 11 e8 21 3e
       0.4887194 -0.5295785 0.13415192 0.15811183
0003b0 89 cc e7 be 2d 2b ca 3e 73 3a 98 3d 73 cd 7c 3e
       -0.45273235 0.39486066 0.07433023 0.24687748
0003c0 2e 85 fd 3c 64 05 76 3e 10 5e e7 3e 74 aa 91 3e
       0.030947294 0.24025494 0.45188951 0.28450358
0003d0 5a c9 7c be e9 b1 fe be 1b 25 97 3e 62 bc 74 be
       -0.24686185 -0.4974511 0.29520497 -0.23899987
0003e0 9b 7a d6 be dd 6d 98 3e ff 87 06 bf 6f 90 b8 be
       -0.41890416 0.2977132 -0.52551264 -0.36047694
0003f0 1f 49 9f 3e 02 9f ae 3e 9f fc 05 bf 9e d2 b2 3d
       0.31110474 0.34105688 -0.52338594 0.08731578

layer1.1.layer.weight f4 [256, 256]
000000 8e 21 3b bd f8 2d c5 3b b9 7b 56 bc fa aa 51 bd
       -0.045686297 0.006017443 -0.013091021 -0.051188447
000010 f9 24 f4 bc f9 e5 ea bc 80 5f 2f bd d4 1b 7f 3d
       -0.029802786 -0.028674113 -0.042815685 0.0622824
000020 54 27 4b bd 0e d0 b9 3c 3c da 05 3d 5f 1e 2e bd
       -0.049598053 0.022682216 0.032678828 -0.042509433
000030 a6 6b 23 3d 7e bf 6a 3d 93 4c 28 3d dc be 3b bd
       0.039897583 0.057311527 0.041088652 -0.045836315
000040 bc c9 68 bd aa 73 29 3c 1e 38 84 bc 68 d0 b2 3b
       -0.056833014 0.010342518 -0.01614004 0.005456973
000050 4f 42 32 3d 35 7e 66 bd 62 24 d3 3c 89 10 3e ba
       0.043520268 -0.056272704 0.025774185 -0.0007250389
000060 11 8f 22 3d 6f e0 7b bd 96 1e 78 3c e7 03 a7 3c
       0.03968722 -0.061493333 0.015144011 0.020387603
000070 c7 dc db bb 3a 10 cd bc 44 cf ca bc e7 37 7b bc
       -0.0067096683 -0.025032151 -0.024757035 -0.015333152
000080 5a 16 ea bc 06 8e eb 3c be df 48 3d 17 ca 03 bc
       -0.028575111 0.028754245 0.049041502 -0.008043787
000090 e5 00 84 bb 1e c2 4d bd ad 18 7c 3d c6 23 35 bd
       -0.004028427 -0.050233953 0.06154697 -0.04422357
0000a0 e3 bb b4 3b 4e d8 6a 3d d3 76 6e 3c b6 3d bc bc
       0.005515562 0.05733519 0.014554697 -0.022978645
0000b0 cb ae 75 bd a7 76 d0 3c 81 95 ec 3c dd 6f 6b bd
       -0.05998115 0.025447203 0.028879883 -0.057479728
0000c0 25 da 6d 3c 77 df 14 bd 5f 13 3f 3d 7b 35 3e 3d
       0.014517342 -0.036345925 0.046649333 0.04643772
0000d0 9c 67 53 3b 9f a5 38 3b 66 f9 3a bd d4 e4 fd bc
       0.00322578 0.002817489 -0.045648 -0.030992903
0000e0 53 f6 dd bc fd 6d 17 bd c9 02 5c bd 2f 19 40 bd
       -0.027094996 -0.036970127 -0.053713594 -0.046899017
0000f0 0c 2a ef bc 0d 24 d9 bc f4 e4 3d bd f1 c5 6f bb
       -0.029194854 -0.026506448 -0.046360925 -0.0036586488
000100 73 eb c2 bc ea c7 2a bd 9d b4 90 3c 30 a5 98 bc
       -0.023793912 -0.04169456 0.017664248 -0.018633455
000110 17 95 38 3c 59 33 40 3d d8 02 5f 3b 74 e5 28 3d
       0.011266015 0.04692397 0.0034028795 0.04123445
000120 58 19 a1 bc 87 70 b7 bc e7 cb d8 bc ac 39 da 3c
       -0.019665405 -0.022392524 -0.026464416 0.026638828
000130 00 50 8c 3b 93 7a 73 bc e9 92 ea 3c 75 1f 7a bd
       0.0042819977 -0.014860767 0.028634505 -0.061065156
000140 df e3 52 3c 2d 00 c0 3b 98 6a bd bc e1 47 88 bb
       0.0128717115 0.005859396 -0.023122117 -0.0041589593
000150 7e af d2 bb ca d4 42 bc c0 bf 1a 3d a7 74 de 3c
       -0.0064296117 -0.011891553 0.037780523 0.027155234
000160 20 1d 90 bc b7 dd ce 3c 55 79 e8 bc b3 d1 17 3d
       -0.017592013 0.025252206 -0.028378168 0.03706522
000170 14 d3 bc bb 4e 7d d1 bc f4 aa 04 3c d0 93 04 3d
       -0.005762467 -0.025572445 0.008097399 0.032367527
000180 ec 84 97 bb 6f af 35 bd 60 9a 36 3c 40 7c 6c bc
       -0.004624 -0.04435676 0.011145204 -0.01443392
000190 25 56 21 bb 62 50 aa bc e8 2c 46 bd 2e d3 3f bd
       -0.0024617997 -0.020790283 -0.04838267 -0.046832256
0001a0 24 f3 f0 bc a0 33 ec bc 90 ac 24 bd 6d 65 85 ba
       -0.029412813 -0.02883321 -0.04020363 -0.0010177322
0001b0 e9 e5 28 3b a1 1f 15 3c f9 5b 61 bd 97 5c 0c bd
       0.0025771803 0.009101779 -0.055019353 -0.034267988
0001c0 64 97 95 ba 5f 64 0d bd 1b 33 84 3b 82 d9 ab ba
       -0.0011412916 -0.03451955 0.0040344126 -0.0013111087
0001d0 cd 34 11 3d e0 4c 35 bd 9a b5 25 bd 61 50 bc 3c
       0.035450745 -0.044262767 -0.040456392 0.022987546
0001e0 9e 09 55 bd e1 a8 58 bd d0 cf de 3a 67 8b 5e bd
       -0.052011125 -0.05289543 0.0016999189 -0.054332163
0001f0 e0 c9 4d 3b c0 ae 64 3d 57 10 55 3c 90 5f 09 bd
       0.0031400844 0.055830717 0.013004384 -0.0335384
000200 cc 04 88 3a 38 e3 7d bc 12 d4 5b 3d fd 17 1e 3b
       0.0010377406 -0.015496068 0.053669043 0.0024123185
000210 a0 84 4c 3d c9 62 0b 3d 6b 59 41 3d 38 a6 45 3d
       0.04993117 0.034029756 0.047204416 0.04825422
000220 07 14 69 bd f1 cc e1 bc 91 39 fe bc da f5 1c 3d
       -0.056903865 -0.027563544 -0.03103331 0.0383204
000230 26 d3 29 3c 56 a7 3f 3c e5 c7 dc bc 73 4d 02 3c
       0.010365283 0.011697611 -0.026950786 0.007953036
000240 5d 5b a5 bc 35 b6 29 3b 56 06 7a bc 76 8c 35 bd
       -0.020185167 0.0025895957 -0.0152603 -0.044323407
000250 c5 51 9a 3c 4d 8b 19 bc be 24 46 bd 21 c5 6b 3d
       0.018837819 -0.009371591 -0.048374884 0.057561044
000260 7f 14 c7 3b 6c 6c 90 3c 9d 38 19 bd c1 05 c0 bc
       0.0060754414 0.017629825 -0.037407506 -0.023440244
000270 d5 33 48 bd de 01 59 bd 1d 65 37 3d 4d d0 3a 3d
       -0.048877556 -0.052980296 0.044774164 0.045608807
000280 70 6b 9a bc ca a7 51 bc f2 16 0a 3d 9c 9e 6b 3d
       -0.018850058 -0.012796352 0.03371329 0.05752431
000290 7c c5 b3 3c de 8d c1 3c 2c c7 a5 bc af 5d 09 3a
       0.021944754 0.023627218 -0.020236574 0.0005240095
0002a0 6b df 58 3d b4 22 ea bb 2e d0 6c bd 30 40 ee bc
       0.052947443 -0.00714525 -0.057815723 -0.029083341
0002b0 be a1 80 3c f0 34 55 bd a6 c8 b6 bb 74 fa 76 3c
       0.015702125 -0.05205244 -0.0055781184 0.015074361
0002c0 c1 b9 b9 3c e4 57 cc 3c 14 1e a1 3c 70 4e 40 3d
       0.022671582 0.024944253 0.019667663 0.046949804
0002d0 77 04 12 bd 70 05 83 3c c7 f6 4f 3d 37 04 6d 3d
       -0.03564879 0.015993804 0.050772455 0.057865348
0002e0 9e 06 9c 3c b1 69 4f 3d fe 96 9d bc 48 93 b5 3a
       0.019046124 0.050637905 -0.019237038 0.0013853097
0002f0 77 2e b7 3b 8a e7 dd 3c bd ba 1e bd 14 2e 24 bc
       0.005590256 0.027087945 -0.038752306 -0.0100207515
000300 e8 29 32 3d fa a4 a0 bb a1 9f 22 3d a5 0f 6d bd
       0.043496996 -0.0049024792 0.039703015 -0.057876248
000310 21 ed d9 bc 61 67 7e 3d b3 55 8c 3b 11 50 75 bc
       -0.02660233 0.06211031 0.004282677 -0.014972703
000320 2c 66 27 bd f9 87 d3 bc dc a6 d8 3c 05 8f 05 3c
       -0.040868923 -0.025821673 0.026446752 0.008151774
000330 dd a0 34 3c 0d 0e cb 3c a4 5c b5 3b 96 05 75 3d
       0.011024681 0.024786973 0.0055347253 0.05981978
000340 05 57 b2 bc eb f0 30 bd 04 7e d8 bc 6f 62 9e bc
       -0.02177001 -0.043198507 -0.026427276 -0.019334046
000350 77 ec bc bc 6e e1 7c bc 53 cf 3f bd e0 5b 38 bd
       -0.023061974 -0.015434606 -0.04682858 -0.045009494
000360 41 ba 18 3d a8 d0 14 bd d2 13 98 3c 66 7e 62 bd
       0.037287 -0.036331803 0.018564139 -0.055296324
000370 df 2c b7 3c 55 83 32 bd 59 d5 86 3c 75 7d 46 3d
       0.022360263 -0.04358228 0.016459154 0.04845949
000380 83 ec c1 3c 09 98 3e 3c ba 37 53 3c b1 97 75 bd
       0.023672348 0.011632928 0.012891704 -0.059959117
000390 d6 1e 28 3d f8 44 74 3d c7 40 26 bd 2d 0e 7c 3d
       0.041045032 0.059636086 -0.04058912 0.061536957
0003a0 11 24 e6 bc 39 3a 95 3c f8 40 c0 bc f5 87 08 bc
       -0.02809337 0.01821624 -0.02346848 -0.008333196
0003b0 0c 65 76 3c 28 e6 85 bc b9 26 21 bd 8e 18 56 bd
       0.01503874 -0.016345099 -0.03934357 -0.05226951
0003c0 b7 94 46 3c 12 c6 54 bc a7 9f d7 bc c3 a0 95 3c
       0.012120417 -0.012986677 -0.026321245 0.018265134
0003d0 00 6b 13 3d 3c 26 71 3c 55 c4 53 3d 85 12 0d bd
       0.035990715 0.014718588 0.05170091 -0.03444149
0003e0 4b 5f 2a 3d 96 dd a5 3c 8a cc 1f 3c 89 a7 ea bb
       0.041594785 0.020247262 0.009753356 -0.007161085
0003f0 95 ba 72 bd e0 2b 70 bd bc c6 7d 3d 0a 9e db 3c
       -0.05925997 -0.058635592 0.061957106 0.026808757

layer1.1.layer.bias f4 [256]
000000 98 f3 2e bd eb 5c 90 bb 20 5f 79 3d 7d 94 a2 3a
       -0.042712778 -0.004405608 0.060881734 0.0012403872
000010 ce 1d 70 bd 20 0e 79 3c 0c 28 f4 bb 30 86 33 bc
       -0.058622174 0.015201122 -0.007451063 -0.010957286
000020 99 21 56 bd c7 c7 d8 3c 9f a9 46 bc ea 25 ad 3c
       -0.052278135 0.026462449 -0.012125402 0.021136243
000030 f1 cb a2 bb c0 a2 04 bd 87 13 7e bc f5 a6 77 bd
       -0.0049681594 -0.032381773 -0.015507585 -0.060461957
000040 96 2f 21 bd 29 53 66 bd 94 8b 3b bd da 8b a9 bc
       -0.039352022 -0.05623165 -0.04578741 -0.02069657
000050 58 7c 02 bd 1d 32 49 3d 72 70 4e bd 26 25 7c bd
       -0.031856865 0.049120057 -0.050400205 -0.061558865
000060 0d 46 17 bd 0a 68 44 bd 3c f6 62 3b e3 8e 57 bd
       -0.03693204 -0.047950782 0.003463163 -0.0526265
000070 81 f4 ef 3b 2c 07 2d 3d c7 05 b4 3c 72 81 52 bd
       0.0073228483 0.042243168 0.021975411 -0.05139298
000080 28 99 93 3c bf 73 14 3d 03 19 01 bd fd 4b 4c 3c
       0.018017367 0.036243197 -0.031517994 0.012469289
000090 17 1a 3c 3d 6f 9b 50 3c 06 2b fe 3c 82 17 5b bd
       0.04592332 0.012732371 0.031026375 -0.053489216
0000a0 f1 12 50 bd 1b c2 28 3d 44 8d 04 bd 20 d1 28 3d
       -0.050799314 0.04120074 -0.032361284 0.041215062
0000b0 b8 8d 54 3c 7c 37 a8 bc 42 3d 01 bd 61 6f 4e 3d
       0.0129732415 -0.02053427 -0.03155256 0.050399188
0000c0 0a a3 42 bc 53 9f 08 bc fd 52 43 3d 0b 2c 24 3d
       -0.011879692 -0.008338767 0.047686566 0.040081065
0000d0 a3 34 08 3d 6c b7 da bc c9 eb ec bb cd 5c b5 bc
       0.033253323 -0.02669879 -0.007230256 -0.022138977
0000e0 3e af 9f 3c 53 c3 60 3d 00 b4 d5 3c 01 40 b9 ba
       0.019492742 0.054873776 0.026086807 -0.0014133455
0000f0 c4 01 06 3d 59 d1 13 bd 7e 14 2a bd ad fd 52 bc
       0.032716528 -0.03608832 -0.04152345 -0.012877864
000100 de 74 de 3a f1 7a 1a 3d f1 84 68 3d 7e 3d 74 39
       0.0016972085 0.037714902 0.056767408 0.00023292561
000110 e0 86 68 bc 53 b3 fa 3b 74 71 ce 3c e2 08 63 3b
       -0.014192313 0.0076507716 0.025200583 0.0034642746
000120 5e 4e 2c bd c6 57 e6 3c 14 04 58 3d e4 0f 18 3d
       -0.042066924 0.028118026 0.052738264 0.03712453
000130 f9 61 af 3c 1f 3e 1d bb dc 55 76 bd 28 ad 38 3c
       0.021409022 -0.0023993326 -0.060140476 0.011271752
000140 52 1a af ba c3 5d 11 bd 67 ef cf 3c 88 e9 21 3d
       -0.0013359284 -0.03548981 0.02538271 0.039529353
000150 e2 29 ab bc 57 5a 38 3c 5a 6f 20 bd 9b 1d a8 3c
       -0.020893995 0.011252007 -0.039168693 0.02052193
000160 43 a2 36 bc 42 ba 9d bc 29 ee 89 3b 6a 4d 2a 3c
       -0.011147085 -0.019253854 0.004209299 0.0103944335
000170 b4 f6 8b bc 3a 53 7d 3c 50 ee c2 bc 84 f1 30 bd
       -0.01708541 0.015461737 -0.023795277 -0.043199077
000180 4f 89 0a 3d e2 0f 54 3c 8a aa c1 bc c6 23 dc 3c
       0.033822354 0.01294324 -0.02364089 0.026872527
000190 54 96 15 3d 76 e9 74 bc e4 ea d0 3c 6a 1e 20 bd
       0.036520317 -0.01494824 0.02550263 -0.039091505
0001a0 20 15 33 3d 25 51 d8 3c 9d bd 3a 3d 61 f9 c1 bc
       0.04372132 0.02640588 0.045590986 -0.023678483
0001b0 b1 bd 16 3d b1 d2 73 bd c5 be d0 ba 41 4b ad bc
       0.036801998 -0.059527103 -0.0015925994 -0.021154048
0001c0 cb 07 8e 3b d3 7a ca bc d3 bc 4f bd 66 0e ce bc
       0.004334425 -0.02471677 -0.050717186 -0.02515335
0001d0 2e 43 19 3c 03 95 f5 bb 7b 4c 1a bc 14 f5 9d 3c
       0.009354396 -0.00749457 -0.009417648 0.019281901
0001e0 90 da 0c 3d 98 ba a5 bc 5a 35 01 3d d7 e0 69 bc
       0.034388125 -0.020230576 0.03154502 -0.014274797
0001f0 94 5a 59 bc 20 59 b5 3a f7 d6 c1 3c 7e 81 59 3c
       -0.013266224 0.0013835765 0.023662074 0.013275502
000200 9c c4 fb bb 7e b8 2e 3c 3a 4c df 3b 43 53 72 bd
       -0.00768335 0.010664104 0.006814507 -0.059161436
000210 cd 00 23 bd 83 17 14 3c 7c 98 fc bc 31 c9 93 3c
       -0.039795686 0.009038809 -0.030834429 0.018040271
000220 57 68 2a bc de df 37 bd f5 74 01 3c f3 ad 4e 3d
       -0.010400853 -0.04489123 0.00790142 0.05045886
000230 94 87 30 3d 32 a8 a3 bc 66 2a 78 3d 2d b7 4e bd
       0.043098047 -0.019977663 0.06058731 -0.05046766
000240 70 e3 ad bc e8 36 05 bd 58 83 4a 3d 5e 7a 18 bd
       -0.021226615 -0.032523066 0.049441665 -0.037226073
000250 25 3b 1d bc 51 ee 62 3d 9f c2 7a bd cd ea 6a bd
       -0.009596621 0.055403057 -0.06122076 -0.05735283
000260 f6 57 73 3d f9 5b 15 3d 39 98 e1 3b 74 fd 4c 3d
       0.059410058 0.036464665 0.0068846014 0.0500464
000270 6c 62 2f 3d d3 b3 a7 bc 63 4d d0 3c 26 81 a7 bc
       0.04281847 -0.020471489 0.025427526 -0.020447325
000280 85 24 c8 3b d4 e4 a9 3c d2 be 7b 3d 55 e3 ce 39
       0.006107869 0.020738997 0.061461277 0.00039460757
000290 41 a5 6d bd 6b 52 f1 3c 32 ae 1f bc 33 5b 07 3d
       -0.058018927 0.029458245 -0.009746121 0.03304596
0002a0 a2 33 c9 3c 36 de f0 bb 68 3e 2e 3d e6 a7 46 3d
       0.024560753 -0.0073507084 0.042539984 0.048499964
0002b0 2c da 3f bd 4e 38 9c 3c 44 e7 7b 3d 3b a6 3f 3d
       -0.046838924 0.019069817 0.06149985 0.04678939
0002c0 fa 5c 2e 3d 63 36 7b 3d 56 15 60 bd 55 d1 0c bd
       0.042569138 0.061331164 -0.054707848 -0.034379322
0002d0 ef 25 76 3d 02 29 1c bd 87 0f f6 3c 53 cd 02 bc
       0.06009477 -0.038125046 0.0300367 -0.007983523
0002e0 7c 2e e3 bc 12 b3 6d bd 78 6e 2f bd 64 e6 06 bd
       -0.027732126 -0.058032103 -0.04282996 -0.03293456
0002f0 6b c6 c4 3c d2 c8 6d bd 0e 83 3b 3d 3a 1b eb 3c
       0.024020394 -0.058052845 0.04577928 0.028699506
000300 3d bd b2 3c b3 88 f5 3c e6 0d 06 3d b1 17 c8 3c
       0.021818751 0.02997241 0.0327281 0.02442536
000310 8d ed 7d bd 38 2b a6 bc 33 f8 51 bd e9 37 29 bd
       -0.061994124 -0.02028428 -0.05126209 -0.041313086
000320 e2 cd 62 3d 20 23 0a ba b5 03 41 3c c2 6a 72 3d
       0.055372126 -0.0005269516 0.011780669 0.059183843
000330 26 07 2a 3c e7 63 3f 3d a8 4b 72 3d 7e 26 78 3d
       0.010377681 0.046726134 0.059154183 0.060583584
000340 bd fa 34 3d af e9 44 3c a3 7f 81 bc 52 c1 5d bd
       0.044184435 0.012018605 -0.015807932 -0.054139443
000350 36 56 06 bc ef 52 08 ba c6 c0 cf 3b d4 95 2c bd
       -0.008199265 -0.00052003463 0.006340119 -0.042135075
000360 21 51 e4 bc 3b a7 1b bc d1 57 dc bc 4f a4 2a bd
       -0.027870717 -0.00950032 -0.026897343 -0.041660603
000370 f2 a8 74 3c 1e ef 4a 3a de d6 9d 3c 6e e5 ee 3c
       0.014932858 0.000774132 0.019267496 0.029162135
000380 23 58 2a bd b2 a2 cf 3c 24 56 a9 bb bb f4 b0 3c
       -0.04158796 0.025346134 -0.0051677395 0.021601072
000390 b9 43 26 bd de d7 e9 ba 91 8e 15 3d 04 fe 3a 3d
       -0.04059193 -0.0017840823 0.036512915 0.045652404
0003a0 80 44 2b 3d 65 a0 e1 bb f7 4f 2f bc 7d b6 78 bd
       0.041813374 -0.0068855756 -0.010700217 -0.06072091
0003b0 04 a0 f4 3b 5a 94 d9 bc a1 e2 cd 3c fd db 5a bc
       0.0074653644 -0.026559997 0.02513248 -0.013358113
0003c0 c3 44 73 3d 4b 41 cc 3c c6 88 13 3d f5 b0 05 bc
       0.05939175 0.024933478 0.03601911 -0.008159866
0003d0 5f f8 06 bd b6 34 8a bc 7e b2 37 bd 21 09 86 bb
       -0.03295171 -0.016870838 -0.044847958 -0.0040904437
0003e0 a4 20 eb 3c 20 ab ef 3c 7e da c6 bc 6c 70 a5 3c
       0.028702088 0.029256403 -0.024274107 0.020195208
0003f0 69 c1 42 3c e2 c9 5f bd 5e 9f 4a bd 85 92 6c 3d
       0.011886933 -0.05463589 -0.04946839 0.05775692

layer1.2.layer.weight f4 [128, 256]
000000 fc f1 3b 3c ed 09 34 bc 88 0c 46 3d 3f f9 eb bc
       0.011471268 -0.010988695 0.048351794 -0.028805373
000010 32 72 97 3c 76 f7 58 3d 87 d0 4c bd 16 30 0c 3d
       0.01848707 0.052970372 -0.050003555 0.034225546
000020 c2 84 d7 3c 3a 47 29 3d e3 ee 22 bd c7 a2 0a 3d
       0.026308421 0.041327693 -0.0397786 0.033846643
000030 2b 41 1c bd e9 61 d4 3c 47 95 1d 3d 7f 0b 34 3c
       -0.038148087 0.025925593 0.03847244 0.010989069
000040 cf f4 ac 3c 0f 2c 66 3c 9a b1 6b 3b f9 ce 20 3d
       0.021112828 0.01404859 0.0035964013 0.039259885
000050 72 57 7d bd 12 ec 29 3d 12 23 36 bd 5b 94 08 3d
       -0.061850972 0.0414849 -0.04446704 0.033344608
000060 8b d2 34 3d b0 4c 36 bb 1b 73 40 3d d0 9f 70 3d
       0.044146102 -0.0027816705 0.046984773 0.05874616
000070 ee bc 21 bd 8b 78 93 3c d8 43 39 3a bc 6e 17 bd
       -0.039486818 0.018001815 0.00070672994 -0.03697084
000080 50 35 35 3c e5 10 1a 3d 81 a3 38 bd 61 34 5e bc
       0.011060074 0.037613768 -0.045077804 -0.013562293
000090 b1 32 c9 bc 7b 50 29 bb ba 04 92 b8 10 62 d7 bb
       -0.024560304 -0.0025835324 -6.962703e-05 -0.0065729693
0000a0 5f f7 10 3c 57 69 2b bd 14 49 36 3c 23 69 76 3d
       0.00884804 -0.041848507 0.011125822 0.06015886
0000b0 f0 fc 37 bd 84 87 37 bd c7 c8 1e 3d b5 91 f6 3c
       -0.044918954 -0.044806972 0.038765695 0.030098775
0000c0 c8 a5 4e 3d 78 55 ca 3c 30 78 d6 3c 14 89 68 bd
       0.05045107 0.024698958 0.026180357 -0.056771353
0000d0 53 58 28 3d 12 a6 c2 3c c6 70 38 3b c1 55 82 bc
       0.041099858 0.02376083 0.002814339 -0.015910031
0000e0 a4 41 83 3b fa 62 56 bc a8 49 27 bd ea 6f 34 3d
       0.0040056277 -0.013085121 -0.04084173 0.044052042
0000f0 1d 1e 65 bd 03 2b 0e bd 8c b8 86 b9 09 fd fb bc
       -0.05593692 -0.034708988 -0.0002569597 -0.030760305
000100 6e 61 cf 3c 81 c3 28 bd a0 6c 5a 3c 6f de 64 3d
       0.025315013 -0.041202072 0.013331562 0.05587619
000110 9e 19 46 3d 41 3a 70 bd 08 39 bb 3c 9d 36 8a 3c
       0.048364274 -0.058649305 0.022854343 0.016871745
000120 c9 96 20 3c 86 6d 57 bc 8b ce d4 bc 2e 40 60 bb
       0.009801575 -0.013148671 -0.025977394 -0.0034217942
000130 a9 4a 68 3d 7e 6f 12 bd b2 52 a6 3c 51 f7 17 bd
       0.056711826 -0.03575086 0.020303104 -0.037101094
000140 46 47 0c 3c 18 6b 32 bb 26 7f 5e bb 27 48 15 3d
       0.008561915 -0.0027224477 -0.0033950298 0.036445763
000150 40 80 be 3a b8 fb 08 bd d1 4f b8 3c ea 15 3c bd
       0.0014534071 -0.033443183 0.022498997 -0.045919336
000160 dc 00 e8 bc 7a 3f a2 3c b3 32 85 bc 7f bd 52 3c
       -0.028320722 0.019805659 -0.016259527 0.012862562
000170 35 ae b4 3c 1d f4 d2 bc 1e ac 06 3c 09 b6 38 bd
       0.022055725 -0.025751168 0.008219747 -0.045095477
000180 7e 07 25 3d 1d 67 7e 3d d9 ad 94 bc 41 1e 44 3c
       0.04029035 0.062110055 -0.018149303 0.011970104
000190 01 95 5e 3c da ae 43 bb 2e d4 72 3c 51 b0 2b 3c
       0.01358533 -0.0029858858 0.014821095 0.010479049
0001a0 ae 01 13 3a 05 9f 46 bd 05 77 74 3c 0c ff 6d bd
       0.0005607855 -0.048491497 0.014920955 -0.05810456
0001b0 a9 17 e5 ba c8 fd 28 3d 09 25 09 3c 75 8f 21 3b
       -0.0017478365 0.04125765 0.008370646 0.0024652157
0001c0 8d d4 2f ba 2f af 34 3d d4 89 29 bc 74 d5 45 bb
       -0.0006707393 0.04411238 -0.010347802 -0.0030187042
0001d0 2a 19 3d bd da d6 a2 3c c4 44 e4 3c 4a aa 39 3d
       -0.046166576 0.01987784 0.027864821 0.045328416
0001e0 87 e7 48 3d c6 82 68 bd 4e 7b 1e bc e9 59 22 3d
       0.049048927 -0.05676534 -0.009672953 0.039636526
0001f0 6f 7b 27 bd 4b ab f2 3b 10 87 d5 3c 62 82 4a 3d
       -0.0408892 0.0074056736 0.02606538 0.04944075
000200 83 88 5e ba 68 15 04 bd ca a0 76 bd c3 64 24 3d
       -0.000848897 -0.032246977 -0.060211934 0.040135156
000210 a7 b8 1e bd 4d 1d 5b bd 24 3a fa bc 97 89 03 bd
       -0.038750317 -0.05349474 -0.030545302 -0.032113638
000220 3d 5d 59 bd 9a 5a 5f 3d fa f7 73 bd 38 ac 27 3d
       -0.053067435 0.054529764 -0.05956266 0.040935725
000230 11 b4 cd bc 9c 8c a6 3b d9 8f 2d 3d cc 90 50 bc
       -0.025110276 0.00508268 0.042373512 -0.012729835
000240 21 ba 73 bd 4a bc 6b 3c 47 66 49 bc 83 bd 5e 3d
       -0.05950368 0.014388153 -0.012292451 0.05437995
000250 8b 6f 0a 3c 82 a4 99 bc 80 45 5a 3d ab 95 6d 3d
       0.0084494455 -0.018755201 0.053288937 0.058004063
000260 03 b6 83 bc 67 68 d6 bb e3 86 71 3d f5 59 83 3c
       -0.016078 -0.0065432074 0.05896653 0.016034106
000270 b1 95 d0 bc 37 3b 63 bd be 1b 76 bd f4 d9 9a 3b
       -0.025462003 -0.055476394 -0.06008505 0.004725689
000280 2b b0 10 3c 65 39 7d bd df ad d9 bc 37 13 fe 3c
       0.008831064 -0.061822314 -0.026572166 0.031015022
000290 3e 80 4e 3d 24 3a ee bc d6 ec 21 bd 35 b8 56 bd
       0.05041527 -0.029080458 -0.039532505 -0.052421767
0002a0 5a f8 64 3d 38 4e 53 bb 09 15 dd 3c 56 0c 1c 3b
       0.05590091 -0.0032242667 0.02698757 0.0023811064
0002b0 fb e4 b3 bc c3 30 28 bd 11 19 27 3d 92 3e 46 bd
       -0.021959772 -0.041062128 0.04079539 -0.048399515
0002c0 9d b2 a7 bc 2e b3 5a bd a6 3e 24 3d 7d 49 0b bc
       -0.020470912 -0.053393535 0.04009881 -0.008501408
0002d0 49 32 d5 3c d6 0e 46 bd 39 6f 1d 3d f1 37 0a 3c
       0.026024954 -0.048353992 0.03843615 0.008436189
0002e0 cb 0d 5e bd dd 09 3a bb 5a 87 fd 3b 0a 8b 03 3c
       -0.054212373 -0.0028387227 0.0077370824 0.008028755
0002f0 19 bf c9 3c 2e 43 77 bd b4 a6 4c 3d 79 ed 5b bd
       0.024627255 -0.060366802 0.049963668 -0.05369327
000300 cc d1 a0 bc 80 fa f1 bb bb f6 6f bd ec 97 2a bd
       -0.019631289 -0.0073845983 -0.05858491 -0.04164879
000310 bd 5a 00 3c da 57 ee bc 27 46 4c bd f6 c0 83 bc
       0.007834134 -0.029094625 -0.04987159 -0.016083222
000320 4c e7 74 bd bb 8e a3 bc a0 97 4b bc b1 36 f6 bc
       -0.059790894 -0.01996552 -0.012426287 -0.030055376
000330 52 b7 ce bc f8 38 ac 3c 22 26 21 3b d0 77 e7 bc
       -0.025233898 0.021023259 0.002458938 -0.028255373
000340 77 ef 48 3b 9f 6c 07 3d 89 ee 20 3d fe 7b f4 bc
       0.003066031 0.033062574 0.039289985 -0.02984428
000350 aa 6c 9a 3b 54 3d 40 bb ec b1 1d 3b 41 9c 98 bc
       0.004712661 -0.002933343 0.0024062349 -0.018629195
000360 0f 9a 80 3d 7f 50 8c 3c 56 7d ab 3c 51 9f ab 3b
       0.06279384 0.017128227 0.020933788 0.005237498
000370 5c 2f 72 3d d3 ad ce 3c b8 23 72 3c 3c 7a 50 3d
       0.059127197 0.02522937 0.014779024 0.05089782
000380 a9 f6 db b8 f7 19 05 3d de e1 6f 3c 8b f5 49 bd
       -0.00010488678 0.032495465 0.014641253 -0.049306434
000390 65 41 37 bc aa 49 0a bc f2 4f 17 3c 76 7d 27 bd
       -0.011185025 -0.008440414 0.009235369 -0.040891133
0003a0 7a 4a aa 3c 61 c6 9f bc 8d 6a ac 3b 56 cb 23 bd
       0.020787466 -0.019503774 0.0052617253 -0.039988838
0003b0 98 10 07 3d cf 22 12 bd 62 6f 18 bd 13 8d 65 3d
       0.03297481 -0.035677727 -0.037215598 0.056042742
0003c0 93 d8 b2 bb ee 90 e7 bc 0a bd 5d bd 82 a6 95 3b
       -0.0054579466 -0.02826735 -0.05413536 0.0045669684
0003d0 87 ca c8 bc a2 b9 eb 3c c9 11 b0 3b 1c b8 57 bd
       -0.024510635 0.02877504 0.005373214 -0.052665815
0003e0 5d 49 a1 3c b4 fb 19 bd 79 69 5b 3d 3b 7a f2 3b
       0.019688303 -0.03759356 0.053567383 0.007399825
0003f0 b5 74 75 bc 3d e7 c7 3c 67 5e 4c bb 71 cf 4e bd
       -0.014981438 0.024402255 -0.0031184198 -0.0504908

layer1.2.layer.bias f4 [128]
000000 3a f6 c3 bc d4 9f 19 bd 58 ae 76 bd ee 53 7b bd
       -0.02392112 -0.03750594 -0.06022486 -0.06135934
000010 02 19 79 3d 83 ee 26 3d 42 bd 5e bd 66 10 64 3d
       0.060814865 0.040754806 -0.05437971 0.0556797
000020 25 85 73 3d 88 4a 53 3d da 1f e8 bb f4 d3 60 bd
       0.05945315 0.05158475 -0.007083875 -0.054889634
000030 76 fd ec 3c 51 d1 10 bd 4f 79 c6 3c a0 4d 61 3d
       0.028929453 -0.03535587 0.024227766 0.05500567
000040 cc d8 71 ba 9a c3 46 bd 53 7e 25 3b 10 98 bb bc
       -0.00092257257 -0.048526384 0.0025252297 -0.022899657
000050 af ea 11 bd 51 2a e8 3b 21 d2 4c bd 73 c4 18 bd
       -0.035624202 0.0070851226 -0.050005082 -0.037296724
000060 14 49 39 3d bb 24 fa 3b 2d 4f 89 3c 61 3d 03 3d
       0.04523571 0.007633773 0.016761387 0.032040957
000070 d4 36 d8 3c ec ed 70 3d 31 0e 32 3c ce 82 f0 bc
       0.026393332 0.05882065 0.010867641 -0.029359248
000080 5a f7 70 bd a2 52 42 3d 06 0a 32 bd 31 64 2b 3c
       -0.058829643 0.047442086 -0.04346659 0.010460899
000090 37 3b d7 bc eb 2b b4 3a 92 5b 70 3d 2c 55 81 bc
       -0.026273353 0.0013745999 0.05868108 -0.015787683
0000a0 c2 5d 26 3c 43 f5 be bc 65 c8 c7 bc 95 26 cc 3c
       0.01015419 -0.02331031 -0.024387548 0.024920741
0000b0 72 34 d1 bc 56 54 61 3d f9 90 3f 3d 03 0a b1 3a
       -0.025537703 0.05501207 0.046769116 0.0013507012
0000c0 ec 93 23 3d 60 35 80 bc 80 79 e9 bc 51 ee 03 3c
       0.03993599 -0.015650451 -0.028500319 0.0080524245
0000d0 8c 94 98 bc 62 1f 2e 3d 1d 8c be 3c e7 63 6b 3d
       -0.01862552 0.042510398 0.02326017 0.05746832
0000e0 da c0 3e bd fd 44 ed 3c f0 1a 2f bc 03 73 a2 3c
       -0.046570636 0.02896356 -0.010687575 0.019830232
0000f0 71 f3 6e bd a8 2c 30 bd e6 55 17 bd f8 e6 1e bd
       -0.058337633 -0.043011338 -0.036947154 -0.038794488
000100 20 95 71 bc b3 81 26 3d 46 b9 37 bd ac 0b 4d 3d
       -0.014745027 0.040651035 -0.044854425 0.05005996
000110 bc c0 4e 3d f6 42 98 3c 6c bb 7a bd c4 64 f1 3c
       0.050476775 0.018586617 -0.061213896 0.029466994
000120 cc 76 74 bd f9 2d 01 bc a2 5d 50 3d ba 85 28 3d
       -0.059683606 -0.007884496 0.050870545 0.041143157
000130 60 63 d1 bc c8 c3 aa 39 95 4e 71 bd d8 aa cb 3c
       -0.025560081 0.00032570795 -0.058912832 0.024861738
000140 06 ac 0a 3d b0 06 3e bd ae f6 0e bc f2 e5 12 bb
       0.03385546 -0.046393096 -0.008725805 -0.002241489
000150 ca c0 18 bd 44 21 d8 bc d7 eb 63 bb b4 6e 2c 3d
       -0.037293233 -0.02638305 -0.0034778023 0.042097762
000160 96 cc e2 3c 8f 2c 38 3d a0 99 50 bd 5e 14 78 3d
       0.027685445 0.04496437 -0.05092776 0.0605663
000170 fa 71 3f bc b3 54 0f 3c e0 ba fc 3c 99 79 19 3d
       -0.011684889 0.008748221 0.030850828 0.03746948
000180 1c 3f 03 3c 19 7b 52 bb f9 13 7d 3c ff 81 81 3d
       0.008010652 -0.003211683 0.015446656 0.06323623
000190 97 96 6b 3c 3e 50 5f bd 4f da fb 3b d1 a2 54 bb
       0.014379165 -0.054519884 0.0076859365 -0.003244568
0001a0 76 64 72 3d f1 46 f7 3b 0e 48 14 3c c0 55 bc b9
       0.05917784 0.0075462987 0.009050382 -0.00035922043
0001b0 eb 59 15 3d 77 69 70 bd b8 7e 28 3d f9 fa 9e bc
       0.036462706 -0.05869433 0.041136473 -0.019406782
0001c0 8a 45 5c 3b 7f 83 6e 3b d6 9e 11 3c 18 fa 2c 3d
       0.0033610784 0.0036394296 0.008887967 0.042230695
0001d0 c6 a0 8b 3b 48 34 1e bd 83 42 30 bd 05 ec 04 bd
       0.004261109 -0.038624078 -0.04303218 -0.03245165
0001e0 87 80 bb bc fa 5b 97 3c ef 68 f1 bb 7a 2d 0f 38
       -0.022888435 0.018476475 -0.0073672454 3.413621e-05
0001f0 bd 65 af 3b 85 fb de bc a2 7b 5b 3b 45 87 74 bd
       0.0053527043 -0.027219543 0.003349044 -0.059699316

layer1.3.layer.weight f4 [128, 128]
000000 6b 75 9a bd f4 69 51 3c 93 9d ca 3c b4 a5 ba 3b
       -0.07541927 0.012781609 0.02473334 0.005696023
000010 36 0c 3c 3c 50 de 0d bc ac a1 b0 bd 30 06 ac 3d
       0.011477521 -0.00865896 -0.086245865 0.08399618
000020 bc 68 9c bd a8 a8 3c bd 7b 19 83 3d 26 33 70 bc
       -0.07637164 -0.04605928 0.064013444 -0.014660632
000030 dc b3 24 bd 9d 67 8f ba e4 f9 2e bd 43 3f a2 bc
       -0.04021059 -0.0010940913 -0.042718783 -0.019805556
000040 d6 0c dd bc f6 96 b3 3d 5c 85 0f 3d c3 7e 91 3d
       -0.02698366 0.08769028 0.03503929 0.07104256
000050 84 78 3c 3d 25 96 81 bd 4a f2 21 bd c0 b4 79 bd
       0.04601337 -0.06327466 -0.039537705 -0.060963392
000060 77 f5 2f bd 96 bf 2a bd 91 9f 74 3d ca f7 a5 3d
       -0.042958703 -0.041686617 0.059722487 0.08103903
000070 2c 28 7a 3d 6d 19 f2 bb e0 e8 a3 bd cc 88 9f 3d
       0.061073467 -0.007388285 -0.08003402 0.07789764
000080 db 5f 06 3c 55 e4 ab bd 1f 96 88 3d b4 82 26 bd
       0.008201565 -0.0839316 0.06669258 -0.040651992
000090 9e 56 a8 3c 0e d1 82 3d 7c 29 90 3d bf b9 47 3d
       0.020549115 0.0638753 0.070391625 0.048761126
0000a0 8f 93 0a bb 04 ae 6d 3d 07 ef 96 bd e2 30 ab bd
       -0.002114508 0.058027282 -0.073698096 -0.08358933
0000b0 26 08 20 bd 6b f2 55 bd d1 65 41 bd 41 96 42 bc
       -0.03907027 -0.05223314 -0.04721624 -0.011876644
0000c0 3e 89 95 bd 06 7b 9b bd ac dd a4 3d a7 a5 35 3d
       -0.073015675 -0.07591824 0.08050093 0.04434743
0000d0 88 3a 6d 3b c6 36 6b bd 5c 91 d1 3c c1 83 a9 3d
       0.0036198217 -0.057425283 0.025582008 0.08277083
0000e0 0c e8 75 bd d1 fa ab 3d 55 83 55 bd 40 2b 87 bd
       -0.06003575 0.08397449 -0.0521272 -0.06600046
0000f0 2a 25 7d bc 2c 42 80 bd 38 a5 a5 3d a0 78 39 bd
       -0.015450755 -0.06262621 0.080881536 -0.045281053
000100 e0 68 6b 3d 08 1b 61 bd 39 79 75 bd 5c 68 71 3d
       0.057473063 -0.05495742 -0.05993006 0.058937415
000110 47 2d a2 bd c3 f9 f9 3c f7 c3 9d bd 57 bb 48 3d
       -0.07918792 0.030514603 -0.07703393 0.049006786
000120 1e da de 3c 89 9f c4 bc 4b 3a 9e bb f6 c8 91 3b
       0.027203616 -0.024001854 -0.0048287264 0.0044490052
000130 e3 a1 d4 3c ce ca 9d bd a9 4d 59 3d f1 d6 dc bc
       0.0259561 -0.077046975 0.053052578 -0.02695796
000140 8f b8 22 bd 19 b0 27 bd 83 e6 8f 3d 8a 0f 42 3c
       -0.03972679 -0.040939424 0.070263885 0.011844525
000150 67 50 5c 3d b7 a8 b2 3d d2 b6 b2 bd bf 33 af bd
       0.053787615 0.08723586 -0.087262765 -0.08554792
000160 d1 bc af 3d f1 d3 95 3d c9 b8 80 bd a4 26 87 bd
       0.08580936 0.07315815 -0.06285245 -0.06599167
000170 37 e5 47 bd 2b 38 29 3b dc 78 c8 3b 3f 73 81 3d
       -0.04880258 0.0025820832 0.006117923 0.063208096
000180 71 01 64 bc 3f 0d 02 3c f8 08 63 bd fc 92 19 bc
       -0.013916359 0.007937728 -0.055428475 -0.009373423
000190 15 05 39 bd 6f b8 a2 3b 05 36 2a 3c b8 0d 1f bd
       -0.045170862 0.004965834 0.010388856 -0.038831443
0001a0 17 f6 d9 bc 35 b3 88 3d cc 5f 00 bd 78 af 89 3d
       -0.026606603 0.06674806 -0.03134136 0.06722921
0001b0 be 20 e9 bc de 26 01 3d 88 3d af 3d a9 6c 6b bd
       -0.028457996 0.031531207 0.08556658 -0.057476673
0001c0 6f 31 bd 3c 50 37 93 bd a4 59 28 bc e1 f0 6c 3d
       0.02309486 -0.071882844 -0.010275278 0.057846908
0001d0 a0 c2 0e 3d a9 c5 55 3d 8f 1c 66 bd a0 70 02 bd
       0.034853578 0.052190457 -0.05617958 -0.03184569
0001e0 9c 43 97 3d d1 24 42 3c 79 b3 4e 3c e4 0c 8e bc
       0.07385942 0.011849598 0.012616032 -0.017340131
0001f0 9b 62 b1 3d 7b 73 ac bc 69 30 95 3d fe 25 9b bd
       0.086613856 -0.02105116 0.07284624 -0.07575606
000200 5e f3 07 3d 2c db 4d 3d 9f c7 b1 3d a9 32 e7 3c
       0.033191077 0.050257847 0.08680653 0.028222399
000210 5f 8a e6 bc 85 7c ef bc e9 97 7f bd 5b 07 a4 3c
       -0.028142152 -0.02923418 -0.062400732 0.020023039
000220 39 b0 15 3d 39 3c 48 bd 61 91 32 bd 85 2d a7 bc
       0.036545012 -0.048885558 -0.043595675 -0.020407448
000230 76 ed 3c bd 37 c4 ed 3c ef 2c 58 3d 09 81 8f 3d
       -0.046124898 0.029024227 0.052777227 0.070070334
000240 f2 38 97 bc a6 0c b5 bd 24 7e 74 bd f5 73 c7 bb
       -0.01845977 -0.08840303 -0.05969061 -0.006086821
000250 21 41 b4 3d 9a ef 91 bd 24 a3 32 bc 1c b2 46 bd
       0.08801485 -0.071257785 -0.010903154 -0.048509702
000260 26 04 81 3d 81 41 7d 3d bd 46 44 3d 56 60 9c 3d
       0.062996194 0.061830048 0.047919024 0.07635562
000270 11 25 68 3d 4c 2b 1a bd eb a0 d4 3b d9 7b 55 bd
       0.056675974 -0.037638947 0.0064889095 -0.052120063
000280 bf 20 21 3d b1 c9 43 3d e3 df e6 bc ba 41 50 bc
       0.03933787 0.04779977 -0.02818293 -0.012710983
000290 3a 4a 72 3d f7 30 04 3d 90 12 88 bd 91 9c 51 bd
       0.05915282 0.03227326 -0.066441655 -0.051174704
0002a0 6a fd 52 3d df ea 62 3d 9a dd 4a bd 12 89 a9 bd
       0.051511206 0.05539977 -0.049527742 -0.08278097
0002b0 4f 95 6a bd 1a 80 03 bd 4a 16 a8 bd 89 7b 98 3d
       -0.057271298 -0.03210459 -0.08207376 0.074454375
0002c0 09 8f 18 bd 2d e1 35 3c a8 03 ac 3d 99 52 bc 3b
       -0.037245784 0.011101049 0.08399135 0.005747151
0002d0 5c c7 3d 3d f3 57 b1 bc 86 3f b0 3c e7 14 a5 3d
       0.046332702 -0.021648383 0.021514665 0.080606274
0002e0 27 fd 33 bc 82 df 22 3d ef a5 dc 3c c6 ef 0d 3d
       -0.010985649 0.039763935 0.026934592 0.034652494
0002f0 ff 4e 7e bd cf 3c 9c 3d 67 93 35 bd bc 62 aa 3d
       -0.062087055 0.07628786 -0.044330027 0.08319613
000300 2a ed 76 bd 73 0b af bc 93 13 86 3d 9f 60 6a bd
       -0.06028477 -0.021367764 0.06546702 -0.05722105
000310 f7 6a 1e 3c 3e 97 3e 3b 26 1e 64 3d 04 25 30 3d
       0.009669057 0.0029081847 0.055692814 0.04300405
000320 04 49 64 bd e2 6a 19 3d 88 b2 f1 bc f0 1f 98 3d
       -0.055733696 0.037455447 -0.029504076 0.074279666
000330 a9 0f 65 3c 28 b3 26 bd af c2 44 bd d9 55 15 bc
       0.013980784 -0.0406982 -0.048037227 -0.009114706
000340 1f 68 94 3d 91 90 4a bd d5 c5 9f bd 00 14 6f 3b
       0.07246422 -0.049454276 -0.07801405 0.0036480427
000350 c6 4a 80 3d 4f ce 91 3a b7 82 5c 3d 7e 1f 51 3c
       0.06264262 0.0011124107 0.053835597 0.012763856
000360 36 8e 83 bd 40 3e 0b bd 36 94 8d 39 aa 3d 9b 3d
       -0.06423609 -0.033994913 0.00027004041 0.07580121
000370 a5 a1 b3 ba 24 88 91 bd d9 b4 a7 bd 62 75 92 3c
       -0.001370479 -0.07106045 -0.08188791 0.017878238
000380 1f 64 8c bd 86 4f 74 bc a9 16 1d 3c 4c de 86 bd
       -0.06855034 -0.014911538 0.009587922 -0.065853685
000390 4c ea a4 bd 96 82 63 3d 86 c0 59 3d ad c8 ba bc
       -0.08052501 0.05554446 0.05316212 -0.022800768
0003a0 76 6f 9e 3c 3d c5 d0 bb ba 1b 97 3d 0c 98 90 bd
       0.019340258 -0.006371169 0.07378335 -0.07060251
0003b0 45 2a 10 3d d3 2f 47 3d f6 e8 13 bc 51 18 89 3a
       0.03519656 0.048629593 -0.00902771 0.0010459517
0003c0 12 eb 8b 3d e8 d7 79 3d 21 38 97 bd 38 e1 53 bd
       0.068319455 0.06099692 -0.073837526 -0.051728457
0003d0 5b 4a df 3c 41 37 93 bd 53 05 ad bd f3 3f 81 3d
       0.027257135 -0.07188273 -0.08448281 0.063110255
0003e0 0d 45 08 bd 78 ca a4 3c fc 7d 25 bd 11 ee a9 bb
       -0.033268977 0.020116076 -0.04040335 -0.0051858504
0003f0 33 ae 4f bc 24 84 72 bd b3 9d a6 bd 58 27 d2 bc
       -0.01267581 -0.05920805 -0.081355475 -0.025653526

layer1.3.layer.bias f4 [128]
000000 af cd 47 bd 4f 94 46 bd 29 da ff bc 96 06 91 bc
       -0.04878014 -0.04848128 -0.031231957 -0.017703336
000010 0a 04 f7 bb 0e 5e 42 bd f0 eb 22 3d 53 37 58 3d
       -0.0075383233 -0.04745298 0.03977579 0.052787136
000020 c6 16 42 bd 36 2e a2 3d 89 48 9e 3d 1c 2d 28 3d
       -0.047385 0.0791897 0.07728679 0.041058645
000030 37 28 9d bd 7e 1c 89 3d 92 39 57 bd 6b 0b 9c bd
       -0.07673686 0.066948876 -0.052545138 -0.07619365
000040 28 86 5b 3d 56 ea 7c 3d ff 20 09 bd 6d 2f 8d 3d
       0.05359474 0.061746918 -0.033478733 0.068938114
000050 00 e0 24 3d 29 8b 09 3c 29 0f d1 bc dc c7 e0 bc
       0.040252686 0.008394995 -0.025519924 -0.02743905
000060 f2 e0 ac bd 30 4a 80 3c 2c 3a a3 bc 6c 94 76 ba
       -0.084413424 0.015660375 -0.0199252 -0.0009406272
000070 7c 41 48 bd 8c 09 2a 3d 33 60 27 bd b2 25 03 3d
       -0.048890576 0.04151301 -0.040863227 0.03201837
000080 70 95 fb bc 6f 0e 5f bd a4 12 6b 3d 61 5f 9e bb
       -0.030710906 -0.054457124 0.057390824 -0.0048331474
000090 f9 4f 3d bd 37 b8 2f 3d eb 03 85 3d cb 04 9b bc
       -0.046218846 0.04290029 0.06494888 -0.018923184
0000a0 df 8d bd 3c c0 69 2b bc 5b 6d 9d bc ef 5d d4 3c
       0.023138938 -0.0104622245 -0.019217184 0.025923697
0000b0 bd 03 2a bd 46 19 af bc 11 a0 d6 3c f8 d2 22 3c
       -0.04150747 -0.021374356 0.026199372 0.009937994
0000c0 71 c7 a7 bd 29 69 9d 3d 81 02 27 3d 7d 27 dc 3b
       -0.08192337 0.07686073 0.040773872 0.0067185746
0000d0 8c b3 66 bc 26 59 98 bd 5c 85 79 bd e7 f3 5d bd
       -0.014080893 -0.07438879 -0.060918197 -0.05418768
0000e0 8c f9 88 3d a6 9e a3 bd e4 5d a3 3d 0a 4d 43 3d
       0.06688222 -0.07989244 0.079768926 0.047680892
0000f0 8a a3 e4 3c 81 6a 1b 3d a3 3c 3f bd 8c 1c 78 bd
       0.027910013 0.037943367 -0.046688687 -0.0605741
000100 3e 41 ce 3c 58 8e 49 3c 8f 90 9a bd c9 03 6c bd
       0.025177594 0.012302004 -0.075471036 -0.057620797
000110 0c 1c 91 bd 9f 67 d4 3c a2 d4 95 bd 56 c5 94 3d
       -0.07085428 0.025928317 -0.07315947 0.07264201
000120 0a 34 89 bb 14 d6 5b bd 41 0b 18 3d c7 04 03 3c
       -0.0041871117 -0.053670958 0.037120108 0.0079967445
000130 c7 de 13 3c 79 68 34 3c a0 f7 89 bd ee 1f 91 bd
       0.009025282 0.011011236 -0.06736684 -0.07086168
000140 b3 41 81 3d 0f e0 39 3d 52 8c 62 3c 0a 6b 2c 3d
       0.06311359 0.045379695 0.0138274 0.042094268
000150 47 bd b3 bc d5 23 9c bd b5 ae 8e bd 01 54 b1 3d
       -0.02194084 -0.07624022 -0.069669165 0.086586006
000160 9f 8c 10 bd 3d ef 83 3c 2a 51 db 3b 71 b3 9d 3d
       -0.035290357 0.016105289 0.006693025 0.07700241
000170 b2 5c 94 3d be 31 9e 3d 0c 2d 5f bd c5 be 6f bd
       0.07244243 0.07724331 -0.05448632 -0.05853154
000180 4a 9f 6a 3d 72 57 94 bd 1e 15 6f 3b 68 bc 45 bb
       0.057280816 -0.07243241 0.0036481093 -0.0030172113
000190 b9 cc d5 bb a6 2e 33 3d 78 6d 4b 3d 92 ad 85 bd
       -0.006524649 0.04374566 0.049664944 -0.065272465
0001a0 59 c9 9d 3d bc 24 2e 3d cb 6a 40 3c 4a 4c 38 bd
       0.0770442 0.0425155 0.011744211 -0.04499463
0001b0 84 be 50 3b d6 81 5b bd 57 8b e4 bc 82 93 85 3d
       0.0031851837 -0.053590618 -0.027898474 0.065222755
0001c0 ee 44 a9 bd 46 eb 7f 3d ce 4f 9f 3d 7f 30 b0 bd
       -0.082651004 0.062480234 0.077788934 -0.08603
0001d0 d1 29 74 3d 33 34 b5 bd 70 20 4b 3c 94 f0 87 3d
       0.05961019 -0.08847847 0.01239787 0.066376835
0001e0 32 60 7d bd f0 51 fb bc 9e fa a1 bd d6 4d 58 3c
       -0.061859317 -0.03067872 -0.079091296 0.013202151
0001f0 23 05 06 3d c7 e0 25 bd 03 88 ca 3c c5 2f 5e bd
       0.032719743 -0.040497568 0.024723059 -0.054244775
