code/trained_model/transferpinn.pth (torch, 519355 bytes, 14 tensors)

layer1.0.layer.weight f4 [256, 3]
0	0x3e720765	0.23635633
1	0xbe42213b	-0.18957989
2	0xbd01281d	-0.031532396
3	0x3d349eb1	0.044096652
4	0x3f49a220	0.7876301
5	0xbd78c053	-0.06073029
6	0xbe2e1b84	-0.17002684
7	0x3e90d326	0.28286093
8	0xbd2cea1c	-0.04221545
9	0x3f00d1ff	0.5032043
10	0xbf050b86	-0.5197071
11	0xbf12288f	-0.5709314
12	0x3e435dd1	0.19078757
13	0xbdadd260	-0.084873915
14	0xbe20fab6	-0.15720639
15	0x3e0dbe8e	0.13842222
16	0xbebb9310	-0.36635637
17	0xbe71226b	-0.23548286
18	0x3d822607	0.063549094
19	0x3e27d60c	0.16390246
20	0x3d7f4a59	0.062326763
21	0x3ed67d7e	0.41892618
22	0x3d16c667	0.036810305
23	0xbf1cfe24	-0.6132529
24	0xbf17ef37	-0.5934939
25	0xbdb923a2	-0.090399995
26	0x3d4c92e8	0.04994479
27	0xbec83b78	-0.3910787
28	0xbf44bd40	-0.7685127
29	0x3f174667	0.590918
30	0x3e8bd57e	0.2731132
31	0x3f4943b1	0.78618914
32	0x3ede9c81	0.43478778
33	0xbf344dec	-0.704314
34	0x3d18bcdb	0.03728948
35	0xbd326468	-0.043552786
36	0xbeb1549a	-0.34634858
37	0xbe712976	-0.23550972
38	0xbef923ab	-0.48660025
39	0x3f0272d4	0.50956464
40	0x3f08e7a0	0.5347843
41	0x3f019bb7	0.50628227
42	0x3e80152a	0.25016147
43	0x3d4cf075	0.050034005
44	0xbedec914	-0.43512785
45	0xbe81c3a2	-0.25344568
46	0xbe61b417	-0.22041355
47	0x3e7c38c7	0.24631034
48	0x3e802847	0.2503073
49	0xbe6e404f	-0.2326672
50	0xbe82c3d2	-0.25540024
51	0xbed713e1	-0.42007354
52	0xbdfe1aa1	-0.12407423
53	0x3f136c3d	0.57587034
54	0xbb68aab1	-0.003550213
55	0x3e8fe182	0.28101736
56	0xbdeff948	-0.117174685
57	0xbf155943	-0.5833933
58	0xbc01eab9	-0.007929497
59	0xbee78b63	-0.4522353
60	0x3eb835b2	0.35978466
61	0x3f4227a8	0.7584176
62	0x3ec4d04a	0.38440162
63	0x3b4574be	0.0030129398
64	0xbee1451d	-0.43998042
65	0xbe51fec1	-0.20507337
66	0xbb1e3c6f	-0.0024144908
67	0xbec75b45	-0.3893682
68	0x3e238697	0.1596931
69	0x3f14294b	0.5787551
70	0xbcf35662	-0.029704276
71	0x3ece6a28	0.40315366
72	0xbd3f8587	-0.0467582
73	0x3f18c083	0.5966875
74	0x3e705a11	0.23471858
75	0xbce5c9d3	-0.028050339
76	0xbe543910	-0.20724893
77	0xbda3de1c	-0.080013484
78	0x3f13b819	0.57702786
79	0x3ee4e98e	0.44709438
80	0x3ebd29be	0.3694591
81	0x3b59cd60	0.0033233985
82	0xbf4f3fab	-0.80956525
83	0x3dc999b6	0.09843771
84	0xbe325d1a	-0.17418328
85	0xbf4a374e	-0.7899064
86	0xbd46c286	-0.048525356
87	0x3f00a4a8	0.50251245
88	0x3d68c4f3	0.05682845
89	0xbef5e93b	-0.48029503
90	0x3f0b626f	0.5444707
91	0x3e29eaac	0.16593426
92	0xbeb309a6	-0.349683
93	0xbf17b5a8	-0.5926156
94	0x3b7f82a1	0.0038987773
95	0xbdb16b80	-0.08663082
96	0xbcafa176	-0.021439295
97	0x3f5c0de8	0.8595872
98	0xbf1f60c5	-0.62257034
99	0xbe8eb618	-0.27873302
100	0xbec62599	-0.3870056
101	0x3e5d5e0e	0.2161791
102	0x3dee6089	0.11639506
103	0x3edbed4d	0.42954484
104	0xbf2aecc6	-0.6676754
105	0x3e4168fa	0.18887702
106	0x3f34d7bd	0.7064169
107	0xbe4a8aad	-0.19779463
108	0xbeabea48	-0.3357718
109	0xbedbc831	-0.4292617
110	0xbed0ba84	-0.407673
111	0xbb1dee6f	-0.0024098416
112	0x3e255440	0.1614542
113	0xbee236fa	-0.4418257
114	0x3d1f7ff2	0.038940378
115	0xbf2f9e4d	-0.6860092
116	0xbcb258cb	-0.021770855
117	0x3e37c4c5	0.17946155
118	0xbcda0cfd	-0.026617521
119	0xbee0b707	-0.4388964
120	0x3e65ae6d	0.2242982
121	0x3f476f88	0.7790456
122	0xbeaa320c	-0.33241308
123	0x3f2858eb	0.6576068
124	0xbee2ffd8	-0.44335818
125	0x3f0d35d7	0.5516028
126	0x3e9ef4ff	0.31046292
127	0x3f523039	0.8210483
128	0x3ec1ebb3	0.37875137
129	0x3ed114a8	0.40836072
130	0xbe0c3931	-0.13693692
131	0x3f31e102	0.6948396
132	0xbedf3376	-0.4359395
133	0xbf119173	-0.5686256
134	0xbe4d5f31	-0.20055844
135	0xbed534b0	-0.4164176
136	0xbf38077a	-0.7188641
137	0x3e0885df	0.13332318
138	0x3e479d0d	0.19493504
139	0x3f45eb9c	0.77312636
140	0x3f2986da	0.6622139
141	0xbe2355de	-0.15950724
142	0xbe97b669	-0.29631355
143	0xbef60bbd	-0.4805583
144	0xbe4e1c51	-0.2012799
145	0x3f0555e2	0.5208417
146	0xbf1d76d3	-0.61509436
147	0x3e323f48	0.17406952
148	0xbf3510b8	-0.70728636
149	0xbec3237e	-0.38113016
150	0x3eef531e	0.467431
151	0xbf45fd02	-0.77339184
152	0x3cbde103	0.023178583
153	0x3e53a430	0.20668101
154	0x3cc0a0a9	0.023514109
155	0xbefcc9c0	-0.49372673
156	0xbf0ebf1d	-0.55760366
157	0x3e86c292	0.2632032
158	0x3ed9cf76	0.42541093
159	0x3d60264a	0.054724015
160	0x3e94004f	0.28906485
161	0xbe189e57	-0.14904152
162	0xbf0b3967	-0.54384464
163	0xbdd8128e	-0.10550414
164	0x3eca74c9	0.39542225
165	0xbf1e8f5e	-0.6193751
166	0x3dcc589a	0.09977837
167	0xbe838309	-0.2568591
168	0x3f087ecd	0.5331848
169	0xbf62bc90	-0.88568974
170	0x3f1a2589	0.60213524
171	0x3e9e6408	0.30935693
172	0x3ac0c025	0.0014705701
173	0x3d9b8745	0.0759416
174	0xbf0b6f85	-0.5446704
175	0xbddfebfa	-0.10933681
176	0xbed57b1e	-0.41695493
177	0x3e0c4874	0.13699514
178	0xbe53f82c	-0.20700139
179	0x3cbddf30	0.023177713
180	0x3ea6d710	0.32585955
181	0xbc0d79e9	-0.008635023
182	0x3f230de8	0.63693094
183	0x3e6bc28e	0.23023435
184	0xbda240b1	-0.07922495
185	0x3d7255ad	0.059163738
186	0x3ed36690	0.41289186
187	0x3f2f868f	0.68564695
188	0xbed4a62f	-0.41533038
189	0x3d9f4889	0.07777507
190	0x3ece9980	0.40351486
191	0x3e08f21f	0.13373612
192	0x3d8ab134	0.0677208
193	0x3e863a9b	0.26216587
194	0xbf16f9d9	-0.5897499
195	0x3f49771e	0.78697383
196	0xbf8fb9a7	-1.1228532
197	0x3f34f44d	0.70685273
198	0xbf0b5ce8	-0.5443864
199	0x3e8ad538	0.27115798
200	0xbed52505	-0.41629806
201	0x3ee12405	0.43972793
202	0x3f120c85	0.57050353
203	0x3e2f6b86	0.1713086
204	0x3e822c86	0.25424594
205	0xbcb9cb44	-0.022679932
206	0xbecae6f8	-0.3962934
207	0x3e8a793e	0.27045625
208	0xbf2eba8f	-0.68253416
209	0xbe4df418	-0.20112646
210	0xbd25fa55	-0.04052194
211	0xbe21d818	-0.1580509
212	0x3e998e4b	0.29991373
213	0xbeaefdb2	-0.3417793
214	0x3c1c0823	0.009523424
215	0x3e3e8ef9	0.18609227
216	0x3efff083	0.49988183
217	0xbe0d6c1e	-0.13810775
218	0x3effc960	0.49958324
219	0xbf095155	-0.5363973
220	0xbea408ad	-0.3203787
221	0x3ec4b2f1	0.3841777
222	0xbeec3b38	-0.4613893
223	0xbebef5bc	-0.37296855
224	0x3e87fe9e	0.26561445
225	0xbefeb2ed	-0.49745885
226	0xbf08a300	-0.5337372
227	0xbf20af28	-0.6276727
228	0xbf08d63c	-0.53451896
229	0xbea5920b	-0.32337984
230	0xbecebb65	-0.40377346
231	0x3e806e02	0.2508393
232	0xbe284991	-0.16434313
233	0xbeb30b79	-0.3496969
234	0xbf25b6e5	-0.647322
235	0xbf5dcbd3	-0.86639136
236	0x3d1440ae	0.036194496
237	0xbebf7783	-0.37395868
238	0x3ea6c4b0	0.32571936
239	0x3e616393	0.22010641
240	0xbe4b6cf6	-0.19865784
241	0xbeb83d9b	-0.359845
242	0xbd547259	-0.051866863
243	0x3da6fb44	0.08153394
244	0x3e1320c6	0.14367971
245	0xbefe7a3a	-0.49702626
246	0x3e8a207d	0.26977912
247	0x3e8b8e73	0.27257118
248	0x3ed9410e	0.42432445
249	0x3efd851e	0.49515623
250	0x3ed03657	0.40666458
251	0x3e7b4e5f	0.24541615
252	0xbeeeef1e	-0.46666807
253	0xbebeef1c	-0.372918
254	0x3c42a397	0.011879823
255	0xbef9267a	-0.48662168

layer1.0.layer.bias f4 [256]
0	0xbf0241cd	-0.50881654
1	0x3d9d864c	0.07691631
2	0x3eb69833	0.35662994
3	0x3ed9ee69	0.42564705
4	0xbc80c000	-0.015716553
5	0x3edfb7fa	0.4369505
6	0x3defe045	0.11712698
7	0xbee265b7	-0.44218227
8	0x3e58e25b	0.21180098
9	0x3e03492c	0.12820882
10	0x3ef69af4	0.48165095
11	0x3e8a7864	0.27044976
12	0xbe088da0	-0.13335276
13	0x3ea2130e	0.31655163
14	0xbd8633e9	-0.0655287
15	0x3e03b1d6	0.12860808
16	0xbe8a2136	-0.26978463
17	0xbf02aed5	-0.5104802
18	0xbe25dc6b	-0.16197364
19	0xbdcc37fe	-0.09971617
20	0x3da2ad05	0.07943157
21	0x3e4a80fa	0.19775763
22	0x3eb7c780	0.35894394
23	0xbf0e242c	-0.55523944
24	0xbeda4170	-0.4262805
25	0x3e82b20c	0.25526464
26	0x3db3f85f	0.087876074
27	0x3d2ab841	0.041679624
28	0x3f01348e	0.5047082
29	0xbc70c3bb	-0.014695103
30	0xbeecd407	-0.46255514
31	0x3ebf7301	0.3739243
32	0xbd6435e7	-0.055715468
33	0x3f05bc9d	0.52240926
34	0xbe7d17ee	-0.2471616
35	0x3d914d8a	0.070948675
36	0x3d94cbea	0.07265456
37	0x3f09ae50	0.53781605
38	0x3dfc34fe	0.12314795
39	0x3f0a7362	0.5408231
40	0xbdb6b471	-0.08921135
41	0x3f075f0a	0.52879393
42	0x3cb7532e	0.02237853
43	0x3e09eccd	0.13469239
44	0xbee5c2c1	-0.44875148
45	0x3dec1a51	0.11528457
46	0xbe43749f	-0.19087456
47	0xbf082991	-0.53188425
48	0xbf022389	-0.5083547
49	0x3c94b4a7	0.018152548
50	0xbcd14bbf	-0.025548814
51	0x3e72b821	0.23703052
52	0xbe02ab4a	-0.12760654
53	0x3d958534	0.07300797
54	0x3ed07615	0.4071509
55	0x3f1b005b	0.6054742
56	0xbe8ddc59	-0.27707174
57	0xbef7dfeb	-0.48413023
58	0x3e704620	0.2346425
59	0x3e8ff50e	0.2811665
60	0xbe36d166	-0.17853317
61	0x3eb81ab0	0.3595786
62	0xbeab6a21	-0.33479407
63	0xbf190cba	-0.59785044
64	0x3e90ab75	0.2825581
65	0x3f0cf74d	0.5506485
66	0x3c59a12c	0.013283055
67	0xbc89663b	-0.01677238
68	0x3e856812	0.26055962
69	0xbdbf6169	-0.093447514
70	0xbed280ce	-0.41113895
71	0x3ebd7e7e	0.37010568
72	0xbe1cc2fe	-0.15308759
73	0x3f015172	0.505149
74	0x3f0a2a43	0.53970736
75	0xbe106b97	-0.14103542
76	0x3f1920de	0.59815776
77	0x3ed2ff18	0.41210246
78	0x3e60aef3	0.21941738
79	0x3d309159	0.043107364
80	0xbad0fbfe	-0.001594424
81	0x3ef8da33	0.48603973
82	0x3ec711da	0.38880807
83	0x3c043fd2	0.008071857
84	0xbefbf16e	-0.49207634
85	0x3edb4bb9	0.4283121
86	0xbe6c6d5d	-0.23088594
87	0x3ec0d7b1	0.3766456
88	0xbe18a45b	-0.14906447
89	0xbefbcc1f	-0.4917917
90	0x3e8521cb	0.26002344
91	0x3e0788e8	0.1323582
92	0xbea638b3	-0.32465133
93	0x3f0dcd65	0.5539153
94	0x3f021ca1	0.50824934
95	0x3f0059f5	0.50137264
96	0xbe5bac55	-0.21452458
97	0xbe0a5513	-0.13509016
98	0xbef0822f	-0.46974322
99	0x3d839a0c	0.064258665
100	0x3f0adda1	0.5424443
101	0xbf0426cc	-0.516217
102	0x3ee0a280	0.43873978
103	0xbe6c7346	-0.23090848
104	0xbe5956e5	-0.21224554
105	0x3ed7809e	0.42090315
106	0x3eba6e8a	0.3641246
107	0x3e3fff72	0.18749788
108	0x3dbe62a1	0.09296156
109	0xbd73a02e	-0.05947893
110	0xbdd938c0	-0.10606527
111	0x3e7925c7	0.24330817
112	0xbe0677dd	-0.13131662
113	0xbe7a986c	-0.24472207
114	0xbea06205	-0.31324783
115	0x3c686c51	0.014185981
116	0x3ea40c5e	0.32040685
117	0x3e1b2cd3	0.15153818
118	0x3ea0a9f9	0.3137968
119	0xbf0f2d93	-0.55928916
120	0x3ef43025	0.4769298
121	0x3f14f7f5	0.5819085
122	0x3ea66bdc	0.32504165
123	0xbe4a4674	-0.19753438
124	0xbefc70a5	-0.4930469
125	0xbdf98913	-0.12184348
126	0xbe9712ac	-0.29506433
127	0xbf0e0881	-0.55481726
128	0x3ef9bbf2	0.48776203
129	0x3e321eb3	0.17394523
130	0xbe629f5d	-0.22131105
131	0x3eed8204	0.46388257
132	0xbe6f1734	-0.23348695
133	0xbf0140dd	-0.504896
134	0x3ea40852	0.32037598
135	0xbf18b441	-0.59650046
136	0x3ef1c432	0.47219998
137	0xbe3df097	-0.18548809
138	0x3ebaae0c	0.36460912
139	0x3e0492cd	0.12946625
140	0x3e0e8df7	0.13921343
141	0x3bc74535	0.006081248
142	0x3e4f08d2	0.20218208
143	0xbe2338b1	-0.15939595
144	0x3ee5b167	0.4486191
145	0x3e30fe1f	0.1728444
146	0xbe1e87b7	-0.15481459
147	0xbeeec2c7	-0.46632978
148	0xbd5753b9	-0.05257008
149	0x3cc839c6	0.024441611
150	0xbea29130	-0.31751394
151	0xbe749d12	-0.23888043
152	0xbe5029ff	-0.2032852
153	0xbdc16377	-0.094427995
154	0xbe95b9e6	-0.29243392
155	0xbf074528	-0.528399
156	0x3ec52f8c	0.38512838
157	0x3ed069be	0.40705675
158	0xbed8fb03	-0.42379007
159	0x3e4d916b	0.20075004
160	0x3db6baae	0.08922325
161	0xbef0516d	-0.46937123
162	0xbf0b3f97	-0.54393905
163	0x3d8d25f3	0.06892004
164	0x3e258786	0.1616498
165	0xbea73138	-0.32654738
166	0x3e74e81b	0.23916666
167	0xbeab3177	-0.33436176
168	0x3e0b6890	0.13614106
169	0x3e3b3ca7	0.18284856
170	0xbef51528	-0.47867703
171	0x3eac3b3c	0.33638942
172	0xbd40046b	-0.046879213
173	0xbee0acfb	-0.43881974
174	0x3e93d272	0.28871495
175	0xbedb4e09	-0.42832974
176	0xbe7117d8	-0.23544252
177	0xbe9f297c	-0.31086338
178	0xbdd79755	-0.10526911
179	0x3e6e3009	0.23260511
180	0xbdb4b8b2	-0.0882429
181	0x3dd2cede	0.10293363
182	0xbeecc0c1	-0.4624081
183	0x3ed2f202	0.41200262
184	0x3ea3b00e	0.31970257
185	0x3ecfa735	0.40557256
186	0xbdd1b6fb	-0.10239979
187	0x3ea8b50f	0.32950637
188	0x3eaf4e51	0.34239438
189	0x3c98b634	0.018641569
190	0x3f0acfe5	0.5422347
191	0xbe7742fb	-0.24146645
192	0xbe71c629	-0.23610748
193	0x3e68cbdf	0.2273402
194	0x3df8c47c	0.121468514
195	0xbec4c7b1	-0.38433602
196	0x3e2bbbd5	0.16770871
197	0xbe23af3d	-0.15984817
198	0xbe2fe2ec	-0.17176408
199	0xbe5791a8	-0.21051657
200	0xbe0447cb	-0.12918012
201	0xbc09391b	-0.008375431
202	0x3d951ef8	0.072812974
203	0x3f0614fb	0.52375764
204	0x3ed6f981	0.4198723
205	0x3e04ddb3	0.12975197
206	0x3e86aee9	0.2630532
207	0xbe0a8fbd	-0.13531394
208	0xbd915a3d	-0.0709729
209	0xbf0e31bb	-0.5554463
210	0x3e69e993	0.22843008
211	0xbed1a101	-0.4094315
212	0xbe070360	-0.13184881
213	0x3ee3c697	0.4448745
214	0x3e0b7075	0.13617118
215	0x3e4796f8	0.19491184
216	0xbf0debd4	-0.5543797
217	0x3edf7dd0	0.43650675
218	0xbe967494	-0.29385817
219	0xbd2cf0af	-0.04222172
220	0x3ed44bdd	0.4146413
221	0x3f039320	0.5139637
222	0x3e99f58d	0.30070153
223	0xbe077972	-0.13229921
224	0xbeff46fb	-0.4985884
225	0xbea38c7b	-0.31943116
226	0x3eeb3534	0.45939028
227	0x3e79049a	0.24318162
228	0xbe886b57	-0.26644394
229	0xbdae0b0f	-0.08498203
230	0x3ca303ff	0.019899366
231	0x3e4451c9	0.19171824
232	0x3ee10468	0.43948674
233	0xbf116e07	-0.56808513
234	0x3e29212b	0.16516559
235	0x3dde1ad2	0.10844959
236	0xbed84586	-0.42240542
237	0x3e9995d0	0.2999711
238	0x3db95714	0.09049812
239	0x3e93d90c	0.2887653
240	0xbc7ff835	-0.015623142
241	0x3e4af567	0.19820176
242	0x3ef1d94a	0.4723609
243	0x3eb1d680	0.34733963
244	0xbe5cfc5a	-0.2158064
245	0xbeebe4f9	-0.4607313
246	0x3e8814e9	0.26578453
247	0xbe6d580a	-0.23178115
248	0xbedaa79f	-0.4270601
249	0x3eb3e619	0.35136488
250	0xbf0c59e6	-0.54824674
251	0xbec92285	-0.3928415
252	0x3ea822eb	0.3283914
253	0x3eac94c4	0.3370725
254	0xbef23298	-0.47304225
255	0x3de937e3	0.11387613

layer1.1.layer.weight f4 [256, 256]
0	0xbd75d9ba	-0.060022093
1	0x3c4e6f6d	0.012599808
2	0x3c79fce4	0.015258048
3	0x3ab6b2c6	0.0013938777
4	0xbd085e07	-0.033292796
5	0xbcea3fca	-0.02859487
6	0xbd3436ee	-0.043997698
7	0x3da20345	0.0791078
8	0xbd55e247	-0.052217748
9	0x3d8358ba	0.064134076
10	0xba847283	-0.0010104928
11	0xbd4471a8	-0.047959954
12	0x3c894338	0.016755685
13	0xbc0c09f6	-0.008547297
14	0x3d51f78d	0.051261473
15	0xbd15014c	-0.03637819
16	0xbd5f85e3	-0.054571044
17	0x3d1ad682	0.037802227
18	0xbc52431b	-0.012833382
19	0xbd3cb8fc	-0.046074852
20	0x3bf6b132	0.0075284475
21	0xbd8a17ea	-0.067428425
22	0x3cdccbf9	0.02695273
23	0x3d0cb8b7	0.034355845
24	0x3d7ad0ae	0.06123417
25	0xbd2a880b	-0.041633647
26	0x3af33eaf	0.001855811
27	0x3bf57f1f	0.0074919607
28	0xbcb143aa	-0.02163871
29	0xbd2614ae	-0.040547065
30	0xbd6ad874	-0.057335332
31	0xbca2568b	-0.019816658
32	0xbd5b2057	-0.05349764
33	0x3d1e2955	0.038613636
34	0x3d53d933	0.05172081
35	0xbca4addc	-0.020102434
36	0xbc3f68dc	-0.011682715
37	0xbd090b77	-0.0334582
38	0x3d408299	0.046999548
39	0xbbc11e45	-0.005893501
40	0xbc1c2563	-0.009530398
41	0x3df0934a	0.11746843
42	0xbcaa62f2	-0.020799134
43	0x3d01304b	0.031540196
44	0xbd3c565c	-0.045980796
45	0x3ce8d1d0	0.028420359
46	0xbca89593	-0.020579135
47	0xbd8bff8e	-0.068358526
48	0x3c23ef58	0.010005794
49	0xbd51546e	-0.05110591
50	0x3d52c6b9	0.051459048
51	0x3d7cdc1b	0.061733346
52	0xbbe27f4e	-0.0069121486
53	0x3ba347ea	0.004982938
54	0xbce634a5	-0.028101275
55	0xbd2ed7c2	-0.04268623
56	0xbcc56e95	-0.024100581
57	0xbd4b65c7	-0.04965761
58	0xbdc444f0	-0.09583461
59	0xbd4e857c	-0.05042027
60	0x3c1f9d5b	0.009742106
61	0xbcdfe0f2	-0.027328942
62	0xbda3c118	-0.07995814
63	0x3bd72608	0.006565813
64	0xbc96fa05	-0.018429765
65	0xbc4c978e	-0.012487305
66	0xbc0d870a	-0.008638153
67	0xbc9f7271	-0.01946375
68	0x3d28d65f	0.041220065
69	0x3cfcbdf0	0.030852288
70	0xbcc66e01	-0.024222376
71	0x3d776967	0.060403254
72	0x3ca5f4db	0.020258358
73	0x3c398919	0.011324191
74	0x3b0cc689	0.002148064
75	0x3deae3e9	0.11469252
76	0xbcec8705	-0.028872976
77	0xbbd9afc6	-0.0066432683
78	0x3d64ac0c	0.05582814
79	0xbd73b5c7	-0.05949953
80	0x3bfcd861	0.007716224
81	0x3ca0b131	0.019615741
82	0xbc11f210	-0.00890781
83	0x3bc85898	0.006114077
84	0xbc0ff039	-0.008785301
85	0x3d9236e7	0.07139378
86	0x3d05805e	0.032593124
87	0x3d2e275d	0.04251801
88	0xbc95e818	-0.018299147
89	0x3bfc1871	0.0076933433
90	0xbd038b80	-0.03211546
91	0x3d10afb5	0.035323817
92	0xbc429802	-0.011877062
93	0x3d4e2b6c	0.05033438
94	0x3c624a2b	0.013811628
95	0x3d6717c4	0.05641915
96	0x3c343bb9	0.011000567
97	0xbdd2f762	-0.10301091
98	0x3ba85b19	0.005137813
99	0xbd5c2530	-0.053746402
100	0xbcb01365	-0.021493623
101	0xbcb2f784	-0.02184654
102	0xbd6f7dbc	-0.05846952
103	0xbd4d95dd	-0.05019175
104	0xbcebda72	-0.028790686
105	0xbd17776b	-0.03697912
106	0xbd14e03f	-0.03634667
107	0xbd0d39f0	-0.03447908
108	0x3ae89e38	0.0017747348
109	0xbcce77a2	-0.02520353
110	0xbde9fb7b	-0.11424919
111	0xbd6f51c2	-0.05842758
112	0x3a4a5afd	0.0007719247
113	0xbca80cd6	-0.020513933
114	0x3d0434e8	0.032277018
115	0xbb85afca	-0.0040797936
116	0x3d2fae46	0.04289081
117	0xbd893d76	-0.06701176
118	0xbd119d2b	-0.035550278
119	0x3c198074	0.0093690045
120	0xbd705656	-0.058676086
121	0xbd385882	-0.045006283
122	0x3b4db41d	0.0031387873
123	0xbd11e7d7	-0.03562149
124	0xbbcd4b4f	-0.006265081
125	0x3d75c952	0.060006447
126	0x3d77535d	0.060382236
127	0xbcd29fc3	-0.025710946
128	0x3c1fbb79	0.009749287
129	0xbccf3ba2	-0.02529699
130	0x3d375812	0.044761725
131	0x3c112b1e	0.008860378
132	0x3dab882a	0.083755806
133	0x3cad90f1	0.021187278
134	0x3e08187b	0.13290589
135	0x3d2e1e1f	0.042509194
136	0xbdfccb6c	-0.12343487
137	0xbcdebf18	-0.02719073
138	0x3b72c55f	0.0037043912
139	0x3d1179e1	0.035516623
140	0x3ba27dc5	0.0049588406
141	0xbc1262a9	-0.008934655
142	0xbc38ebbf	-0.011286675
143	0xbd9947de	-0.07484411
144	0xbd4c33df	-0.049854156
145	0x3bdadf13	0.0066794246
146	0xbcbbae82	-0.02291036
147	0xbd36ec7e	-0.04465913
148	0x3d53bdf3	0.05169482
149	0xbb2034de	-0.0024445574
150	0xbd49b414	-0.049244
151	0x3d8930a6	0.06698732
152	0x3cf394a5	0.029733965
153	0x3d018614	0.031622007
154	0xbd076dda	-0.033063747
155	0xbd2cc376	-0.042178594
156	0xbd2ca4ce	-0.042149357
157	0xbdbfa3dd	-0.09357426
158	0x3d3762f5	0.044772107
159	0x3d4b9c1a	0.049709417
160	0xbcb39481	-0.021921398
161	0xbd156146	-0.03646972
162	0x3d85ace8	0.0652712
163	0x3d34f1fe	0.044176094
164	0x3cb2062c	0.021731459
165	0x3d35587a	0.04427383
166	0xbc1a81c9	-0.009430357
167	0xbbcdc083	-0.0062790527
168	0x3d48516e	0.048905782
169	0x3ca0a0a1	0.019607844
170	0xbd83ed1e	-0.06441711
171	0xbc7dd439	-0.015492492
172	0x3d81ae07	0.06332021
173	0xbc35f872	-0.011106597
174	0xbbf79757	-0.007555883
175	0x3cd699fc	0.026196472
176	0x3c418943	0.011812511
177	0x3d9f5e8d	0.07781706
178	0x3cff8e68	0.031195834
179	0x3d50fed9	0.05102429
180	0xbd5505a1	-0.05200732
181	0x3bf9b81d	0.007620825
182	0x3d5636e7	0.052298453
183	0x3d7bb4d5	0.06145175
184	0x3cf32d19	0.02968459
185	0x3d7d6e2e	0.061872654
186	0xbcda1561	-0.026621522
187	0xbbb0c88b	-0.0053950003
188	0xbc015270	-0.00789319
189	0x3d7bf834	0.061516
190	0xbccd9317	-0.025094552
191	0xbc6eb6af	-0.014569922
192	0x3d58c45a	0.05292163
193	0x3d07cefc	0.03315638
194	0x3d8adf92	0.06780924
195	0xbd8d496a	-0.06898768
196	0xbcadb9df	-0.021206794
197	0x3d66cf66	0.056350134
198	0x3ca70284	0.020386942
199	0xbd23fd5d	-0.040036548
200	0xbd2b5b47	-0.041835096
201	0xbc8a3a84	-0.016873606
202	0x3cab426b	0.020905694
203	0x3c4796c0	0.012181938
204	0x3d230966	0.039803885
205	0x3d053623	0.032522332
206	0x3c30b039	0.010784202
207	0x3d916aef	0.07100474
208	0xbd910826	-0.07081632
209	0xbd5c1eb2	-0.05374021
210	0xbc97afa4	-0.01851637
211	0xbdc51791	-0.096236356
212	0xbcf2b47d	-0.02962708
213	0xbba9a3b6	-0.0051769866
214	0xbd4508cf	-0.048104104
215	0xbd3f5942	-0.046715982
216	0x3d1d267c	0.03836678
217	0xbd1773d1	-0.036975686
218	0x3ceb33b5	0.02871118
219	0xbd5fe65a	-0.05466304
220	0x3cc7dbb0	0.024396747
221	0xbd216d33	-0.03941078
222	0x3c3b8610	0.011445537
223	0x3d0f9e57	0.035063114
224	0x3cf5d025	0.030006478
225	0x3d5c63c4	0.05380608
226	0x3ca0db40	0.019635797
227	0xbd962621	-0.07331491
228	0x3d235e94	0.03988512
229	0x3d71262d	0.058874298
230	0xbd5801cf	-0.0527361
231	0x3d5900e5	0.05297937
232	0xbd044afe	-0.03229808
233	0xbd237cfa	-0.03991411
234	0xbc1e10a1	-0.009647519
235	0xbcef94ca	-0.029245753
236	0x3bdd75e2	0.0067584375
237	0xbdc34183	-0.0953398
238	0xbd4755b6	-0.048665725
239	0xbd2a0a0d	-0.04151349
240	0x3bdb1124	0.006685393
241	0xba8fa792	-0.0010959974
242	0xbd12d3e5	-0.03584661
243	0xbb8ad4d8	-0.0042367987
244	0xbc9a4ec7	-0.018836392
245	0x3d3fcfb1	0.04682893
246	0x3d516f0d	0.051131297
247	0xbd1aeb21	-0.037821893
248	0x3d12edf0	0.035871446
249	0x3d06c368	0.032901198
250	0xbc04b858	-0.008100592
251	0xbcbad3fa	-0.022806156
252	0xbdbc1285	-0.0918322
253	0xbcb70739	-0.022342311
254	0x3d854bce	0.06508599
255	0x3b8b6604	0.0042541046

layer1.1.layer.bias f4 [256]
0	0xbd29f2b5	-0.04149123
1	0xbc056120	-0.008140832
2	0x3d8c395c	0.06846878
3	0x3c12d5f3	0.008962142
4	0xbd75dea2	-0.060026772
5	0x3cc513d8	0.024057314
6	0xbbb77754	-0.005598942
7	0xbc4e8775	-0.012605538
8	0xbd41c5b6	-0.047307692
9	0x3ce27836	0.027645212
10	0xbc0ac428	-0.008469619
11	0x3cbc2181	0.022965195
12	0xbbc6e01f	-0.006069198
13	0xbd0546c2	-0.032538183
14	0xbc6f0851	-0.014589385
15	0xbd795933	-0.060876083
16	0xbd2be18d	-0.04196315
17	0xbd655a66	-0.055994414
18	0xbd44402e	-0.04791277
19	0xbcc9f83f	-0.024654506
20	0xbcda3f7d	-0.026641602
21	0x3d4b592b	0.049645584
22	0xbd784eae	-0.06062191
23	0xbd943269	-0.072361775
24	0xbd21453f	-0.03937268
25	0xbd469843	-0.04848505
26	0xbbd0ce65	-0.0063722604
27	0xbd7649df	-0.060129043
28	0x3c1ce87d	0.009576914
29	0x3d33a656	0.043859802
30	0x3cc7f6e3	0.024409717
31	0xbd68e27d	-0.05685662
32	0x3caa3dea	0.020781476
33	0x3d138020	0.03601086
34	0xbd1b9970	-0.037988126
35	0x3c5fbb2f	0.013655468
36	0x3d287577	0.04112765
37	0x3bf9a148	0.007618103
38	0x3d02ee1a	0.031965353
39	0xbd874ebc	-0.06606814
40	0xbd3a55b4	-0.04549189
41	0x3d37f72b	0.044913452
42	0xbd030d87	-0.031995323
43	0x3d39be3b	0.045347434
44	0x3bc35ea6	0.0059622107
45	0xbc94b14c	-0.018150948
46	0xbd034c79	-0.032055352
47	0x3d5fcba9	0.054637585
48	0xbc81a052	-0.015823517
49	0xbb59f5a0	-0.0033257976
50	0x3d57be86	0.05267193
51	0x3d325915	0.043541986
52	0x3d19becc	0.037535474
53	0xbd15d9d9	-0.03658471
54	0xbc2c773b	-0.010526474
55	0xbca02243	-0.019547587
56	0x3ccb7118	0.0248342
57	0x3d864cf6	0.06557648
58	0x3cf2302c	0.029563986
59	0xbb147ec1	-0.002265856
60	0x3cea79b8	0.028622493
61	0xbd1d9dd7	-0.038480606
62	0xbd079731	-0.03310317
63	0xbc0bc5f9	-0.008531087
64	0xbc42a5be	-0.011880336
65	0x3d1c9b36	0.03823396
66	0x3d773d73	0.060361337
67	0x3b5a8df3	0.0033348768
68	0xbc4aeaac	-0.012385052
69	0x3bb93449	0.005651985
70	0x3c8488c9	0.016178505
71	0x3a5f5a79	0.00085202564
72	0xbd186a4d	-0.03721075
73	0x3cb70b5c	0.022344284
74	0x3d470880	0.04859209
75	0x3cf68f4f	0.030097632
76	0x3ccabc47	0.02474798
77	0x3aa1c318	0.0012341468
78	0xbd513960	-0.051080108
79	0x3b9becc1	0.004758448
80	0x3b8ac397	0.004234742
81	0xbd2232af	-0.039599117
82	0x3cea797f	0.028622387
83	0x3d1b2fc5	0.037887353
84	0xbc940422	-0.018068377
85	0x3bf4e073	0.0074730455
86	0xbd2695ff	-0.04067039
87	0x3cdaa1bf	0.026688455
88	0xbc86cb87	-0.016454471
89	0xbc79936e	-0.015232904
90	0x3bcfa646	0.00633696
91	0x3b2f3bed	0.00267386
92	0xbc0b2c8d	-0.008494508
93	0x3c6b57f1	0.014364229
94	0xbcce713b	-0.025200477
95	0xbd2f4781	-0.0427928
96	0x3d2287e5	0.03968038
97	0x3cb4c199	0.02206497
98	0xbcbac544	-0.022799142
99	0x3d12f292	0.035875864
100	0x3d2c066f	0.041998323
101	0xbcb211e6	-0.02173705
102	0x3c948190	0.018128186
103	0xbd26200c	-0.040557906
104	0x3d1bbbb8	0.03802082
105	0x3cd07a0c	0.025448821
106	0x3d0e945b	0.03480945
107	0xbcf742ad	-0.03018316
108	0x3d1dad15	0.038495142
109	0xbd7a6465	-0.0611309
110	0xbc23e684	-0.01000369
111	0xbc9a31fb	-0.01882266
112	0xbb7ad3fc	-0.0038273325
113	0xbcd98a39	-0.026555168
114	0xbd4f9ece	-0.050688557
115	0xbccb131d	-0.024789387
116	0x3b8b6f89	0.0042552394
117	0xbb270da0	-0.00254903
118	0xbb902632	-0.0043990845
119	0x3cd23493	0.025659835
120	0x3d1b23f7	0.037876096
121	0xbc7f5dd2	-0.015586333
122	0x3d05c4e8	0.032658488
123	0xbc48b0f0	-0.012249216
124	0xbc4a5bc1	-0.012350977
125	0x3c15b98c	0.009138476
126	0x3cb0e472	0.021593306
127	0x3c802d45	0.015646586
128	0xbb1fd940	-0.0024390966
129	0x3be2ac83	0.0069175377
130	0x3b47923c	0.0030452153
131	0xbd6661a7	-0.056245472
132	0xbd117a04	-0.035516754
133	0x3bab4df9	0.005227801
134	0xbccbe8c9	-0.024891274
135	0x3cba5390	0.022744924
136	0xbc435c8e	-0.011923922
137	0xbd2ca6f7	-0.042151418
138	0x3b9c53b8	0.0047707222
139	0x3d6b9edd	0.05752455
140	0x3d4351d8	0.047685474
141	0xbcb0e7a6	-0.021594834
142	0x3d8dd147	0.06924682
143	0xbd684ec6	-0.05671575
144	0xbc91eb3a	-0.01781236
145	0xbd159bda	-0.036525585
146	0x3d24383a	0.040092684
147	0xbd31ed12	-0.04343898
148	0xbc670f18	-0.01410272
149	0x3d4b5351	0.049640004
150	0xbd8b1170	-0.06790435
151	0xbd818e3b	-0.063259564
152	0x3d6e9621	0.058248643
153	0x3ce176da	0.027522493
154	0x3b85ef25	0.004087346
155	0x3d6944f6	0.056950532
156	0x3d118878	0.035530537
157	0xbcb6ba32	-0.022305582
158	0x3cfb0751	0.030643137
159	0xbcd9dd21	-0.0265947
160	0x3c08f871	0.008360014
161	0x3cba20af	0.022720663
162	0x3d803477	0.06260007
163	0x3a829d96	0.0009965177
164	0xbd7c2ee2	-0.06156815
165	0x3d201dc0	0.03909087
166	0xbc5f92f9	-0.013645881
167	0x3cd3087a	0.025760878
168	0x3cb5b530	0.022181123
169	0xb8996fef	-7.316458e-05
170	0x3d483ce7	0.048886206
171	0x3d2b1a41	0.041773085
172	0xbd46b3ab	-0.04851119
173	0x3cc16cd4	0.023611464
174	0x3d7c7f7b	0.061645012
175	0x3d352715	0.044226725
176	0x3d2b1593	0.04176862
177	0x3d70221c	0.05862628
178	0xbd8970cd	-0.06710968
179	0xbd0fe903	-0.035134327
180	0x3d82b016	0.06381242
181	0xbcf4e11d	-0.029892499
182	0x3cfe2f2d	0.031028355
183	0xba8f78f8	-0.0010946086
184	0xbd14b1a5	-0.036302228
185	0xbd555e80	-0.052092075
186	0xbd3c3246	-0.045946382
187	0xbd37b5bd	-0.044851054
188	0x3c9ed3cc	0.019388102
189	0xbd808715	-0.06275765
190	0x3d1ff672	0.039053388
191	0x3cf59c86	0.029981863
192	0x3cf162a8	0.029465988
193	0x3d033aed	0.032038618
194	0x3cee60f0	0.029098958
195	0x3c8ff3e5	0.017572353
196	0xbd88ca89	-0.066792555
197	0xbccc4cd8	-0.024938986
198	0xbd39218f	-0.04519802
199	0xbd0d72c3	-0.034533273
200	0x3d88b164	0.066744596
201	0x37f6ea5c	2.9434617e-05
202	0x3c80c5f7	0.015719397
203	0x3d2d3d3b	0.042294722
204	0x3b4d9016	0.00313664
205	0x3d525a5e	0.051355712
206	0x3d862f67	0.0655201
207	0x3d866229	0.06561691
208	0x3d29e445	0.04147746
209	0x3c7e683f	0.015527784
210	0xbc553367	-0.013012744
211	0xbd4dfccc	-0.050289914
212	0xbc5be0f1	-0.013420329
213	0xbb0cb8ae	-0.0021472382
214	0x3b2b05c4	0.0026095966
215	0xbd431de4	-0.047635928
216	0xbcf81733	-0.0302845
217	0xbc25edf6	-0.010127535
218	0xbcf8db96	-0.030378144
219	0xbd314873	-0.043281984
220	0x3ca222fa	0.019792069
221	0x3a6fc392	0.0009146269
222	0x3ca7e6b7	0.020495756
223	0x3d14e139	0.0363476
224	0xbd29c76a	-0.04144994
225	0x3d05aa30	0.032633007
226	0xbcf5a9cd	-0.029988194
227	0x3cd2a569	0.02571364
228	0xbd60d4bd	-0.054890383
229	0xbb2745ab	-0.0025523703
230	0x3d246f4b	0.0401452
231	0x3d3a0c8c	0.045422122
232	0x3d4094a8	0.04701677
233	0xbaf82740	-0.0018932596
234	0xbc07c9e1	-0.008287878
235	0xbd776d1b	-0.060406785
236	0x3a7ddedd	0.00096843933
237	0xbcea47c5	-0.028598676
238	0x3d0ca85e	0.034340255
239	0xbc2ee9b6	-0.010675838
240	0x3d7372cf	0.059435662
241	0x3c9b2094	0.018936433
242	0x3d265500	0.040608406
243	0x380336b8	3.1283795e-05
244	0xbccceab0	-0.025014251
245	0xbcad070b	-0.021121522
246	0xbd4363fc	-0.047702774
247	0xb9ab2244	-0.00032641192
248	0x3ceaf96e	0.02868339
249	0x3cd696ac	0.026194893
250	0xbcf543dc	-0.029939584
251	0x3cb6789a	0.022274304
252	0x3c9885f0	0.018618554
253	0xbd21b189	-0.03947595
254	0xbd40b3a1	-0.047046307
255	0x3d7fdd29	0.062466774

layer1.2.layer.weight f4 [128, 256]
0	0xbc68efb3	-0.014217305
1	0x3c5bebc7	0.013422913
2	0xbcfe7dde	-0.031065878
3	0xbd4a07b9	-0.04932377
4	0x3c91dee0	0.01780647
5	0x3d19885e	0.037483566
6	0xbe04c937	-0.12967382
7	0x3c936feb	0.017997703
8	0xbd9e4eea	-0.077298954
9	0x3d806eff	0.06271171
10	0x3d04c2ab	0.032412212
11	0xbd74a879	-0.05973098
12	0x3d1a6ebd	0.037703265
13	0xbc6fa90f	-0.014627709
14	0x3da2adb3	0.07943287
15	0xbd37a46f	-0.04483455
16	0x3cee0c7c	0.029058687
17	0x3c990bad	0.018682325
18	0x3d908959	0.07057447
19	0x3d70eb0b	0.058817904
20	0xbc97f680	-0.018550158
21	0x3d6eeb0d	0.05832963
22	0x3cb9218d	0.022599006
23	0x3dd6920a	0.104770735
24	0x3d530767	0.05152073
25	0x3d4a9071	0.049454156
26	0x3e41e139	0.18933572
27	0x3e14d9dd	0.14536233
28	0xbd777b53	-0.060420346
29	0x3dc40367	0.095709614
30	0x3d46c6d6	0.04852947
31	0xbd5a573d	-0.053305853
32	0xbcf83a88	-0.030301347
33	0x3c1bb3da	0.009503329
34	0xbe219830	-0.15780711
35	0x3c370ac8	0.011172004
36	0xbd991c86	-0.074761435
37	0x3cc1b8b9	0.023647653
38	0xbd72a62d	-0.05924051
39	0x3cca8535	0.024721721
40	0xbd5c8a60	-0.053842902
41	0xbdd84bb6	-0.10561316
42	0x3da98d34	0.082788855
43	0x3c037339	0.008023077
44	0x3c1034e5	0.008801674
45	0x3d618907	0.05506232
46	0x3da9a39a	0.08283158
47	0x3dc3837a	0.095465615
48	0x3df31a36	0.11870234
49	0xbcd29d85	-0.025709877
50	0x3d5a5f1f	0.05331337
51	0xbcace0da	-0.021103311
52	0x3e105c1a	0.14097634
53	0x3bdd70d5	0.0067578354
54	0x3b97d0b5	0.004633034
55	0xbdc17f19	-0.0944807
56	0xbcf0ba65	-0.029385755
57	0xbd811a71	-0.063038714
58	0xbe0b1077	-0.135805
59	0x3ce522c4	0.02797068
60	0xbd8e69ff	-0.06953811
61	0xbe1e524f	-0.15461086
62	0xbc9e90ad	-0.019356096
63	0xbccd3e31	-0.02505407
64	0x3c867b9e	0.016416367
65	0xbde18b5d	-0.110129096
66	0x3c47a566	0.01218543
67	0xbc6bef0d	-0.014400256
68	0x3d493976	0.049127065
69	0xbcb8a3b9	-0.022539007
70	0x3dad6d4c	0.08468112
71	0x3d1e5fb8	0.038665503
72	0xbcc1199c	-0.023571782
73	0xbd967659	-0.07346792
74	0xbd8f55e9	-0.06998808
75	0x3d1ff7b9	0.039054606
76	0x3ce5bf80	0.028045416
77	0xbd973161	-0.07382465
78	0xbcfb0a1c	-0.030644469
79	0xbba3985a	-0.004992527
80	0xbcae4d34	-0.021277048
81	0x3ca368a6	0.019947361
82	0x3c353cab	0.011061828
83	0x3c0a1758	0.008428417
84	0x3d8238f6	0.06358521
85	0x3c399876	0.011327853
86	0x3d4d4424	0.050113812
87	0x3ca2676d	0.019824708
88	0x3dd127d2	0.10212673
89	0xbd4c7c8e	-0.049923472
90	0xbbb47889	-0.005507533
91	0x3d56ad24	0.052411214
92	0x3d8477b9	0.06468148
93	0xbcdc214d	-0.026871348
94	0x3cb82ae1	0.022481384
95	0x3df18140	0.117922306
96	0xbd7f4420	-0.06232083
97	0x3e089051	0.13336302
98	0x3d9e3444	0.077248126
99	0x3d8f4d81	0.069972046
100	0xbd27848b	-0.040897887
101	0xbbef9f36	-0.0073126806
102	0x3c091eb7	0.008369139
103	0x3c9493cc	0.018136881
104	0x3d12bb5f	0.035823222
105	0xbd8f9b16	-0.07012002
106	0x3db95aec	0.09050545
107	0xbdbf2a76	-0.09334271
108	0xbb5e10d4	-0.0033884542
109	0x3cb66312	0.022264037
110	0x3d906259	0.07050008
111	0xbdec9339	-0.11551518
112	0x3db21656	0.086956665
113	0xbc7fb64c	-0.015607428
114	0xbdb64f36	-0.08901827
115	0x3ca564ea	0.020189721
116	0x3bf357c1	0.0074262326
117	0x3cd0f308	0.025506511
118	0x3d86eaff	0.06587791
119	0xbe04c10d	-0.12964268
120	0xbcc7ccf8	-0.024389729
121	0xbd650922	-0.055916913
122	0xbdd4e58b	-0.10395344
123	0x3be7e2cb	0.0070765964
124	0x3cfc8cae	0.0308288
125	0x3d1cca50	0.038278878
126	0x3ce10315	0.02746729
127	0x3c5de4f3	0.013543355
128	0x3d41ec38	0.047344416
129	0x3cc70968	0.024296477
130	0x3dab7b96	0.083731815
131	0x3c3fd3ab	0.01170818
132	0x3d604984	0.05475761
133	0xbda76b18	-0.081747234
134	0xbde266fc	-0.11054799
135	0xbdb7fd3b	-0.08983847
136	0xbe39f890	-0.18161225
137	0xbd5d8d07	-0.054089572
138	0xbd02f5b2	-0.031972595
139	0xbd2f35ed	-0.042776037
140	0xbc428453	-0.011872369
141	0x3d192ad5	0.037394363
142	0xbe039829	-0.12851013
143	0xbd7dbba2	-0.06194652
144	0xbd5bc2a0	-0.053652406
145	0xbb9c7fe1	-0.0047759865
146	0x3d8b21f7	0.06793588
147	0x3db49a9a	0.088185504
148	0xbcf73e9f	-0.030181227
149	0xbd41475a	-0.047187187
150	0x3d29ab33	0.041423034
151	0x3c770a8a	0.015078196
152	0x3c274f35	0.0102117555
153	0x3d941097	0.07229727
154	0x3dcb96ce	0.09940873
155	0xbd152b15	-0.03641804
156	0x3e11ed20	0.14250612
157	0xbdb09dbf	-0.08623838
158	0xba8c51d7	-0.0010705543
159	0x3db2ba7a	0.08726974
160	0x3dc36a0d	0.09541712
161	0xbd6fcd3a	-0.05854533
162	0xbe036201	-0.12830354
163	0x3c0c70e5	0.008571838
164	0xba40e9d3	-0.0007359061
165	0xbdc3afc0	-0.09555006
166	0xbbc64278	-0.006050404
167	0xbabbcb6d	-0.0014327593
168	0x3ea207ce	0.3164658
169	0xbd31e0ed	-0.043427397
170	0xbd1c49a9	-0.038156185
171	0xbd6fa637	-0.058508124
172	0x3d84ce99	0.06484718
173	0xbd95a609	-0.07307059
174	0x3e034f1f	0.12823151
175	0xbd79583a	-0.060875155
176	0x3d0e1cf5	0.034695584
177	0xbc86c171	-0.016449662
178	0x3d2d6e1a	0.04234133
179	0xbc9507a6	-0.018192124
180	0xbcdfba02	-0.027310375
181	0xbd55c520	-0.052189946
182	0xbd0c0c26	-0.034191273
183	0xbd574666	-0.05255737
184	0xbcb60075	-0.022217015
185	0x3cc47f9f	0.023986636
186	0x3d1c6902	0.03818608
187	0x3e1609e3	0.14652209
188	0x3df6863a	0.120373204
189	0xbd54ae9a	-0.051924326
190	0x3cd5f0ab	0.026115736
191	0x3d4f233a	0.050570704
192	0xbd07d2f0	-0.03316015
193	0x3e20d83a	0.15707484
194	0xbdc1f411	-0.0947038
195	0xbd8a1b1a	-0.067434505
196	0x3c8671fe	0.016411778
197	0xbd0253b7	-0.031818118
198	0xbcc8fbd0	-0.024534136
199	0xbc968634	-0.01837454
200	0xbd63b6d4	-0.05559428
201	0x3c0d150c	0.008610975
202	0xbd2f206c	-0.04275553
203	0xbda83025	-0.08212308
204	0x3dcadc56	0.09905307
205	0xbd37ab29	-0.044840965
206	0x3ca6a471	0.020342084
207	0xbd966458	-0.07343358
208	0x3cfd28c6	0.030903231
209	0x3dc44fe0	0.095855474
210	0xbbb57668	-0.0055377968
211	0x3d6b8b81	0.05750609
212	0xbc2eb171	-0.0106624225
213	0x3c5027bc	0.012704786
214	0xbcd6a397	-0.026201053
215	0xba9cde7d	-0.0011968162
216	0x3d3d93d8	0.046283573
217	0x3c593546	0.01325733
218	0x3e0dc560	0.13844824
219	0xbd1e5542	-0.038655527
220	0x3dd1bb24	0.10240772
221	0x3d384a86	0.044992946
222	0xbe046432	-0.12928846
223	0x3c4f9c20	0.0126715
224	0x3d4a358d	0.049367476
225	0x3cfce14b	0.030869147
226	0x3d6c30ee	0.05766385
227	0xbcd643d3	-0.026155388
228	0x3d078ba8	0.03309217
229	0x3bb2febe	0.0054624965
230	0x3da4771f	0.08030533
231	0xbd6ee2d8	-0.058321804
232	0x3cbed19b	0.023293307
233	0xbdd39d78	-0.10332769
234	0xbdea2ee1	-0.11434723
235	0xbd0ce917	-0.03440198
236	0x3db8941b	0.09012624
237	0x3d124753	0.03571255
238	0xbd1faca5	-0.038983006
239	0x3dd3bb0b	0.1033841
240	0x3c3511f3	0.011051643
241	0x3dc81233	0.09769096
242	0xbd377ab8	-0.044794768
243	0xbc1c0d53	-0.009524661
244	0xbced3356	-0.028955143
245	0x3d1371c7	0.03599718
246	0x3cfb8296	0.030701917
247	0xbdba06ea	-0.0908335
248	0x3c0f2a2c	0.008738082
249	0xbdb1a67f	-0.08674335
250	0x3d817ca2	0.063226
251	0x3d95d5ba	0.07316156
252	0x3cc6fa72	0.024289344
253	0x3d3c01f1	0.04590029
254	0xbd912e16	-0.07088868
255	0xbdd4b0b4	-0.10385266

layer1.2.layer.bias f4 [128]
0	0xbd095989	-0.033532653
1	0xbd2c4d8e	-0.04206615
2	0xbd31b704	-0.043387428
3	0xbd79f1c6	-0.06102159
4	0x3d36fe10	0.044675887
5	0x3c096408	0.008385666
6	0xbd44d81d	-0.048057664
7	0x3d83543e	0.06412552
8	0x3d818e76	0.063260004
9	0x3d3e0daf	0.04639977
10	0x3a8eb001	0.0010886193
11	0xbd0fc266	-0.035097502
12	0x3d085549	0.03328446
13	0xbd0a2600	-0.033727646
14	0x3d23a198	0.03994903
15	0x3d5767aa	0.052589096
16	0x3bc4addc	0.006002171
17	0xbd2551f5	-0.040361363
18	0x3bf724fc	0.0075422507
19	0xbc63608e	-0.013878001
20	0xbc9d67d3	-0.019214546
21	0xbc3f2783	-0.011667135
22	0xbd2a7e36	-0.04162427
23	0xbc9db32c	-0.019250475
24	0x3d0bcfc5	0.03413369
25	0x3bb45bc1	0.005504102
26	0x3c70e9ad	0.01470415
27	0x3ce54ecc	0.027991675
28	0x3cb33ae1	0.021878662
29	0x3d1f7ef9	0.03893945
30	0x3c056710	0.008142248
31	0xbd22d262	-0.039751418
32	0xbd513b64	-0.05108203
33	0x3d12122a	0.035661854
34	0xbcfa93c5	-0.03058804
35	0x3ba020a8	0.0048867054
36	0xbc9946e1	-0.018710556
37	0x3bbb2bfe	0.0057120314
38	0x3d3a3ebc	0.045469984
39	0xbce29863	-0.027660554
40	0x3c99bae9	0.018765884
41	0xbc776bcd	-0.015101385
42	0xbc731111	-0.014835612
43	0x3c2ea552	0.010659533
44	0xbc889564	-0.016672798
45	0x3d30645a	0.043064453
46	0x3d07f293	0.03319032
47	0x3b515c16	0.0031945757
48	0x3ce099ad	0.027417028
49	0xbc05aa49	-0.008158275
50	0xbcb1a274	-0.021683909
51	0x3c6054a3	0.013692054
52	0xbcdd0d48	-0.026983872
53	0x3d6717d5	0.056419212
54	0x3ce1839d	0.027528578
55	0x3cebdfb4	0.028793193
56	0xbd1648da	-0.03669057
57	0x3ccb1ea1	0.024794878
58	0xbbd055ed	-0.0063578994
59	0x3cd8fe3d	0.026488418
60	0xbd68e4f8	-0.056858987
61	0xbd5ef3e9	-0.05443183
62	0xbd09d11e	-0.033646695
63	0xbd246c2a	-0.040142216
64	0xbccd6475	-0.025072316
65	0x3d2fb7fe	0.042900078
66	0xbd294776	-0.041327916
67	0x3d27ad6f	0.040936884
68	0x3d1d4d8e	0.03840404
69	0x3be42e45	0.0069635236
70	0xbd1ea8c9	-0.038735185
71	0x3cb61694	0.022227563
72	0xbd8e8bf0	-0.06960285
73	0xbaf6d056	-0.00188304
74	0x3d2ba926	0.04190936
75	0x3d178ff4	0.03700252
76	0xbc8a3d1b	-0.01687484
77	0x3cc422a8	0.023942307
78	0xbcec009b	-0.028808882
79	0x3c3f0401	0.011658669
80	0x3cff8424	0.03119094
81	0xbd2405d7	-0.04004463
82	0xbbed9c9a	-0.0072513344
83	0xbca58083	-0.02020288
84	0xbd37e0ec	-0.044892237
85	0xbd115bbc	-0.035487875
86	0xbbe3d32c	-0.006952664
87	0x3d3e8526	0.0465137
88	0x3ccb8c41	0.024847152
89	0x3ce00e28	0.0273505
90	0xbd5e7c30	-0.054317653
91	0x3d56084d	0.05225401
92	0xbc9458fd	-0.01810884
93	0x3c432af7	0.011912099
94	0x3d27cf43	0.040969145
95	0x3cc1e10a	0.023666877
96	0xbbf3651d	-0.007427825
97	0xb99e9db7	-0.00030253615
98	0x3c45a31a	0.012062812
99	0x3d81f55d	0.063456275
100	0x3c89bb30	0.01681289
101	0xbd89ca69	-0.0672806
102	0xbbc70ddf	-0.0060746516
103	0x3b67db91	0.0035378675
104	0x3d5b8ee8	0.053603083
105	0x3c1a6094	0.00942244
106	0x3a16565d	0.0005734915
107	0xbc24e276	-0.010063758
108	0x3ccd6144	0.025070794
109	0xbd128ae9	-0.035777006
110	0x3cfdd97d	0.030987496
111	0xbcb6876c	-0.022281371
112	0x3b1b5f39	0.002370788
113	0xbbc48c23	-0.005998151
114	0xbac2490a	-0.0014822793
115	0x3d49255b	0.04910789
116	0x3c1984e3	0.009370062
117	0xbcfbee6e	-0.03075334
118	0xbd01f9c2	-0.03173233
119	0xbcae8061	-0.02130145
120	0xbcafdde2	-0.021468107
121	0x3d0bf5ab	0.034169834
122	0xbb618e97	-0.0034417266
123	0xbccab799	-0.02474575
124	0xbc8aafb5	-0.016929487
125	0xbc39e74a	-0.0113466475
126	0xbc0e3350	-0.008679226
127	0xbd6cee8c	-0.057844684

layer1.3.layer.weight f4 [128, 128]
0	0xbd8c1c34	-0.06841317
1	0x3b8c6bc3	0.004285307
2	0x3d5b9854	0.05361207
3	0x3b8060bf	0.003917783
4	0xbd0b6c97	-0.034039106
5	0xbc53aa53	-0.012919026
6	0xbd995602	-0.07487108
7	0x3de5aa41	0.11214114
8	0xbded53f0	-0.115882754
9	0xbc39ca2a	-0.011339704
10	0x3e420f2d	0.18951102
11	0xbcf14a91	-0.029454501
12	0xbd2963aa	-0.041354813
13	0xbc2b87f7	-0.010469428
14	0xbd02e40d	-0.031955767
15	0x3c246fe5	0.010036443
16	0xbcc77f1c	-0.024352603
17	0x3df5f68b	0.12009915
18	0xba61b23e	-0.0008609629
19	0x3d641fd9	0.055694435
20	0x3da0cbec	0.07851395
21	0xbdbd73f3	-0.09250631
22	0x3cdd0c4d	0.026983405
23	0xbdc8395f	-0.09776568
24	0xbdb959e7	-0.09050351
25	0x3b8f86b9	0.004380074
26	0x3db5df0e	0.08880435
27	0x3dbfb4fc	0.09360692
28	0x3dac8ed6	0.08425681
29	0xbad8ef52	-0.0016550815
30	0xbdc40ec0	-0.09573126
31	0x3d4e1a30	0.050317943
32	0x3c867024	0.016410895
33	0xbdd82055	-0.10553042
34	0x3d096671	0.03354496
35	0xbd5a41e6	-0.053285502
36	0x3da7e0c6	0.08197169
37	0x3d8245f7	0.06361001
38	0x3d89df7e	0.06732081
39	0xbd3261e9	-0.043550406
40	0x3d0301be	0.031984083
41	0x3cf8c019	0.030365037
42	0xbdcf7601	-0.10129929
43	0xbdcd8c87	-0.10036569
44	0xbdd736d8	-0.105085075
45	0xb98a04e7	-0.00026325064
46	0xbda7ee4d	-0.08199749
47	0x3d422041	0.04739404
48	0xbde63abd	-0.11241672
49	0xbd9ff395	-0.078101315
50	0x3d96540a	0.07340248
51	0xbc4686ad	-0.01211707
52	0xbccc0120	-0.02490288
53	0xbca052ca	-0.019570727
54	0x3ba7b65a	0.0051181735
55	0x3d974912	0.07386984
56	0xbdb77ea2	-0.089597
57	0x3dbf01f9	0.09326548
58	0xbd2745c0	-0.040838003
59	0xbd8ab3be	-0.06772564
60	0x3b934a39	0.004494932
61	0xbd959754	-0.07304254
62	0x3d96f3ee	0.07370745
63	0xbd73ae64	-0.059492484
64	0x3d8655ff	0.06559371
65	0xbd1b2e3e	-0.037885897
66	0xbcf4eedc	-0.029899053
67	0x3db9285d	0.09040902
68	0xbd811767	-0.06303292
69	0x3d665dcf	0.056241807
70	0xbda4eaca	-0.08052595
71	0xbc73d57d	-0.014882443
72	0xbda3c638	-0.079967916
73	0xbca173c1	-0.019708516
74	0xbd3c7e5c	-0.046018943
75	0x3d579ffb	0.052642804
76	0x3ceb072a	0.02868994
77	0xbdbd69f8	-0.092487276
78	0x3d875605	0.06608204
79	0x3b86de89	0.0041158837
80	0xbd57463c	-0.052557215
81	0xbd53a94d	-0.05167513
82	0x3d903eb7	0.07043212
83	0xbbca5174	-0.0061742608
84	0x3d2ef413	0.042713236
85	0x3e0582a8	0.13038123
86	0xbdb74ad4	-0.08949819
87	0xbdca7208	-0.09885031
88	0x3dc13a3a	0.09434934
89	0x3cab7f28	0.020934656
90	0xbd99faea	-0.07518561
91	0xbdc03c0a	-0.093864515
92	0xbd97e94b	-0.07417544
93	0x3c9bbdef	0.019011466
94	0x3b9d3762	0.004797862
95	0x3d83b873	0.06431665
96	0xbd397c83	-0.04528476
97	0xbd0f58bd	-0.034996737
98	0xbd91a0c8	-0.07110745
99	0x3caa1739	0.020763027
100	0xbd018551	-0.03162128
101	0xbcebf220	-0.028801978
102	0x3d361e7c	0.044462666
103	0xbd78e415	-0.06076439
104	0xbba5e9ce	-0.005063272
105	0x3db648c4	0.08900598
106	0xbd1ee11e	-0.038788907
107	0x3dad594c	0.08464298
108	0xbc54b825	-0.012983357
109	0x3c2c42be	0.010513959
110	0x3db4ee9f	0.08834576
111	0xbd554431	-0.052066986
112	0x3b32af88	0.002726527
113	0xbdbc3de6	-0.09191494
114	0xbc7f3e0e	-0.01557876
115	0x3d8d4d44	0.06899503
116	0x3c9a9452	0.018869553
117	0x3d862bf3	0.065513514
118	0xbd0dc5d3	-0.034612488
119	0xbd81b129	-0.06332619
120	0x3e08669d	0.13320394
121	0x3c8823c7	0.016618622
122	0x3da71035	0.08157388
123	0xbc540304	-0.012940172
124	0x3ca79869	0.020458417
125	0xbb300e7a	-0.0026864097
126	0x3d5be311	0.053683344
127	0xbdca40a0	-0.098756075
128	0xbdc62730	-0.09675443
129	0x3db1f731	0.08689726
130	0x3e0aad57	0.13542686
131	0xbd1c0f7a	-0.038100697
132	0xbd84a65f	-0.06477045
133	0xbdd2beac	-0.10290274
134	0xbdbf234a	-0.09332903
135	0x3d8ec1de	0.06970571
136	0x3e7c316e	0.24628231
137	0x3ca76ede	0.020438608
138	0xbecb365f	-0.3968992
139	0xbdaeef89	-0.085417815
140	0xbc1afe77	-0.009460083
141	0xbc6b9bc4	-0.014380399
142	0x3d85c622	0.065319315
143	0x3d92ee1d	0.07174323
144	0x3e0dda6f	0.13852857
145	0xbe0e9f73	-0.13928013
146	0xbc63d4c0	-0.013905704
147	0x3da8eacc	0.08247909
148	0x3deca588	0.1155501
149	0xbdd84115	-0.105592884
150	0x3e379360	0.17927313
151	0xbdb26126	-0.08709936
152	0x3e273339	0.16328134
153	0x3e319c96	0.17344889
154	0x3d465c1c	0.048427686
155	0x3e23730d	0.15961857
156	0x3dcbbb1a	0.09947796
157	0xbd97e8c9	-0.07417447
158	0x3d927d05	0.07152752
159	0xbdcce817	-0.10005205
160	0x3a8e5122	0.001085792
161	0x3e1fc772	0.15603426
162	0xbdb84094	-0.08996692
163	0x3d4d2098	0.050079912
164	0x3ea1dbfc	0.31613147
165	0x3dbd65ee	0.09247957
166	0xbd077704	-0.033072487
167	0xbe4227cf	-0.18960498
168	0x3e9a0f3f	0.30089757
169	0x3d467ef3	0.048460912
170	0xbdc565a6	-0.096385285
171	0xbe006b2d	-0.12540884
172	0xbd323d97	-0.043515768
173	0xbd5835a0	-0.052785516
174	0xbda5334f	-0.08066427
175	0x3d903ca6	0.07042818
176	0xbc0ecee7	-0.008716322
177	0xbdbaa4b6	-0.09113447
178	0x3d690aa5	0.056894917
179	0xbcea5380	-0.028604269
180	0x3d15d21c	0.03657733
181	0xbd0b3d23	-0.03399385
182	0x3ca8db70	0.020612448
183	0x3dffaec9	0.124845095
184	0xbdda39b3	-0.106555365
185	0x3d2daa32	0.04239864
186	0x3d35f135	0.044419486
187	0x3da0b9cc	0.07847938
188	0xbd80b78d	-0.062850095
189	0x3cebcb58	0.028783485
190	0xbe089c31	-0.13340832
191	0x3de59454	0.11209932
192	0xbe3760b6	-0.17907986
193	0xbd54cdf4	-0.051954225
194	0x3e1d1351	0.153394
195	0x3ca5937e	0.020211931
196	0xbb32ff3b	-0.0027312774
197	0xbb44eba6	-0.0030047684
198	0x3e96305d	0.29333773
199	0x3de1d7cc	0.11027488
200	0xbe8859f7	-0.26631138
201	0xbce7f87f	-0.028316734
202	0x3b370fd7	0.0027933025
203	0x3dd776d6	0.10520713
204	0x3c1255d6	0.008931598
205	0x3dd63007	0.10458379
206	0x3d3aba23	0.04558767
207	0xbd8269e4	-0.06367853
208	0x3e1cf469	0.1532761
209	0xbd4e3f83	-0.05035354
210	0xbe230767	-0.15920793
211	0xbc840740	-0.016116738
212	0x3e171544	0.14754206
213	0xbcb11dab	-0.021620592
214	0x3d0abfd8	0.033874363
215	0xbc4e1830	-0.012579009
216	0xbe78562e	-0.24251625
217	0xbd7c6ca9	-0.061627064
218	0xbd7707b0	-0.060310066
219	0x3d607ceb	0.05480663
220	0x3d227a1a	0.039667226
221	0xbe083ffd	-0.1330566
222	0xbeb42a0e	-0.35188335
223	0xbd899229	-0.06717331
224	0xbe30136d	-0.1719491
225	0x3d9dacc8	0.07698971
226	0x3d962a64	0.07332304
227	0xbdac57d0	-0.084151864
228	0xbe0489d1	-0.12943198
229	0x3e1a0eac	0.1504466
230	0x3dad41fa	0.0845985
231	0xbda99069	-0.08279497
232	0xbd260a92	-0.040537424
233	0xbc7a00f7	-0.015259019
234	0x3d1dcfdb	0.038528305
235	0xbe0ba531	-0.13637234
236	0xbe978a9a	-0.29597932
237	0x3d1e9a73	0.038721513
238	0xbe12bcd7	-0.14329849
239	0x3cfd257d	0.030901665
240	0x3daaa903	0.08333018
241	0xbbaf938b	-0.0053581647
242	0xbdd398be	-0.10331868
243	0xbd350e4a	-0.04420308
244	0x39c1d83c	0.00036972936
245	0x3d69e94c	0.057107255
246	0xbe002465	-0.12513883
247	0x3e8ef677	0.27922413
248	0x3df24af6	0.11830704
249	0xbcf222fd	-0.0295577
250	0xbd787fef	-0.060668882
251	0x3c59dc69	0.013297179
252	0x3dc15fd4	0.09442106
253	0xbd7ed417	-0.062213983
254	0xbe07bab2	-0.13254812
255	0xbd16aabb	-0.036783915

layer1.3.layer.bias f4 [128]
0	0xbd096a74	-0.033548787
1	0xbca1c2e1	-0.019746246
2	0xbd2e78fc	-0.04259585
3	0xbbe873bf	-0.007093876
4	0x3be54e12	0.006997832
5	0xbcddbcce	-0.027067568
6	0x3d009831	0.03139514
7	0x3d29eaa2	0.04148353
8	0xbd0e6681	-0.034765724
9	0x3d9aca60	0.07558131
10	0x3daf7cbf	0.08568715
11	0x3d0215a5	0.031758923
12	0xbd8e974d	-0.06962452
13	0x3d63703d	0.05552696
14	0xbd09b81f	-0.033622857
15	0xbd668065	-0.05627479
16	0x3d2cff98	0.04223594
17	0x3d467a0d	0.04845624
18	0xbca27f47	-0.019836081
19	0x3d874cad	0.066064216
20	0x3c9f57aa	0.019450981
21	0x3ab6b96e	0.001394076
22	0xbc0699d4	-0.008215386
23	0xbca686e4	-0.020327993
24	0xbda62d4a	-0.08114107
25	0x3bcad2e8	0.0061896928
26	0xbbee082b	-0.0072641573
27	0xbb8266b5	-0.003979529
28	0xbca0bc3c	-0.019621007
29	0x3cf8a6c6	0.030352961
30	0xbd0044b7	-0.03131553
31	0x3ca19039	0.019722091
32	0xbc9b2ca1	-0.01894218
33	0xbd5759e1	-0.05257595
34	0x3d56e308	0.052462608
35	0x3b5b312d	0.003344606
36	0xbd0373c2	-0.032092817
37	0x3cf9381f	0.030422268
38	0x3d13ef31	0.036116783
39	0xbbca4369	-0.0061725867
40	0x3c133bfd	0.00898647
41	0xbb09a379	-0.0021001978
42	0xbcbaa6bc	-0.022784583
43	0x3c935c07	0.017988218
44	0xbc92f566	-0.01793928
45	0xbc4c0e4f	-0.012454583
46	0x3b046aad	0.0020205185
47	0x3bf8c04a	0.007591282
48	0xbd486695	-0.048925955
49	0x3d5f87e2	0.054572947
50	0x3ce63c75	0.028105
51	0x3b4bf043	0.003111855
52	0xbc41d958	-0.011831604
53	0xbd45dee0	-0.048308253
54	0xbd646ed5	-0.05576976
55	0xbd468c3b	-0.048473578
56	0x3d838202	0.064212814
57	0xbd483edc	-0.048888072
58	0x3d794c46	0.060863756
59	0x3d2e4929	0.04255024
60	0x3cd96e43	0.026541835
61	0x3c82ebd9	0.015981602
62	0xbd1ba8dc	-0.038002834
63	0xbd5fea95	-0.054667074
64	0x3c2c4f2b	0.010516922
65	0x3c8f4d69	0.017492967
66	0xbd8aabe9	-0.067710705
67	0xbd710f89	-0.058852706
68	0xbd968f58	-0.073515594
69	0x3cbf7c7d	0.02337479
70	0xbd3c25b4	-0.045934394
71	0x3d4222e0	0.04739654
72	0x3beb2762	0.0071763257
73	0xbd2ec740	-0.04267049
74	0x3ce2b86b	0.027675828
75	0x3bdcde46	0.0067403642
76	0x3c155b32	0.009115981
77	0x3cd3a0ff	0.025833605
78	0xbd552499	-0.052036855
79	0xbd01bdb4	-0.031675056
80	0x3cfdf56b	0.031000813
81	0x3ced1f72	0.028945658
82	0x3cc53305	0.02407218
83	0x3cc6f387	0.024286045
84	0xbc662206	-0.014046198
85	0xbd329752	-0.04360134
86	0xbd69f3c2	-0.05711723
87	0x3db4a14f	0.0881983
88	0xbcc5b6a2	-0.024134938
89	0xbb841469	-0.0040307534
90	0x3bd28ef4	0.0064257327
91	0x3d3ecd33	0.046582412
92	0x3d5ffa2d	0.054681946
93	0x3d5d255f	0.053990718
94	0xbd202e7c	-0.03910683
95	0xbd57cc58	-0.05268511
96	0x3d4ecb8c	0.050487086
97	0xbd65114f	-0.05592471
98	0x3c3aeff0	0.011409745
99	0x3aaa7036	0.0013003412
100	0xbc18a0e9	-0.009315708
101	0x3d4679d5	0.04845603
102	0x3d479a90	0.048731387
103	0xbcc67d4e	-0.024229672
104	0x3d8f8d6b	0.07009395
105	0x3d2c0e8f	0.04200607
106	0x3bc51b87	0.0060152444
107	0xbd306738	-0.043067187
108	0x3cc1fd3a	0.023680318
109	0xbd79107e	-0.060806744
110	0xbc73c6fb	-0.014878984
111	0x3d415abf	0.047205683
112	0xbd546ebc	-0.051863417
113	0x3d698ad2	0.057017155
114	0x3d50db93	0.050990652
115	0xbd989067	-0.074494176
116	0x3d5817b9	0.052757
117	0xbd95e039	-0.07318158
118	0x3c34b7a9	0.011030116
119	0x3d225c73	0.039638948
120	0xbd543905	-0.05181219
121	0xbcd7ec75	-0.026357869
122	0xbdfb5630	-0.12272298
123	0x3c7a292a	0.015268603
124	0x3cb204af	0.021730749
125	0xbc7e6d34	-0.015528966
126	0x3bf6c5e9	0.007530917
127	0xbd519201	-0.05116463
